汪桓玉/week03/week03pollingmodel.bin (torch, 7228 bytes, 9 tensors)

embedding.weight f4 [28, 10]
000000 00 00 00 00 00 00 00 00 00 00 00 00 00 00 00 00
       0.0 0.0 0.0 0.0
000010 00 00 00 00 00 00 00 00 00 00 00 00 00 00 00 00
       0.0 0.0 0.0 0.0
000020 00 00 00 00 00 00 00 00 a8 6c fe b8 a6 60 60 3b
       0.0 0.0 -0.000121319026 0.0034237294
000030 10 d2 e9 3d 68 53 95 bd d7 6b ed bb 88 60 97 bd
       0.11417019 -0.07291299 -0.0072455215 -0.07391459
000040 c8 c2 6d 3b d6 70 70 3d 39 e4 2d bb e5 ca 9d 3c
       0.0036279429 0.05870136 -0.0026533736 0.019261787
000050 64 00 45 bf 16 9d 77 bf a2 54 3c bf 9b 28 57 bf
       -0.7695372 -0.9672407 -0.7356664 -0.84046334
000060 a8 b1 12 3f fe b6 58 3e 39 33 61 3f 00 dd 50 3f
       0.5730233 0.21163556 0.87968785 0.8158722
000070 24 5e 65 3f 34 44 5e bf bc 78 53 bf 35 f7 80 bf
       0.8959677 -0.8682282 -0.826061 -1.0075442
000080 01 f3 1d bf 28 50 70 bf 08 70 1e 3f 20 15 bc 3e
       -0.6169892 -0.9387231 0.61889696 0.36734867
000090 f8 53 3e 3f 1b 35 3b 3f e4 49 6e 3f 2b b9 7c bf
       0.74346876 0.7312791 0.930815 -0.98720044
0000a0 d0 73 54 bf e9 81 81 bf 82 2a 06 bf 73 31 4e bf
       -0.82989216 -1.011777 -0.5240861 -0.80544204
0000b0 36 95 3b 3f 56 c4 c8 3e 7c 33 5a 3f d0 cb 1f 3f
       0.7327455 0.39212292 0.8523481 0.6242037
0000c0 de d6 56 3f 13 a5 48 bf 04 bd 46 bf 20 52 86 bf
       0.8392161 -0.78376883 -0.77632165 -1.0493813
0000d0 17 6e 27 bf ae a7 82 bf 2a 19 4a 3f 15 cf e4 3e
       -0.6540236 -1.0207422 0.7894465 0.4468924
0000e0 b6 58 37 3f 6f eb 4d 3f f9 64 54 3f d9 31 5d bf
       0.7161974 0.8043737 0.8296657 -0.86404186
0000f0 0a 53 64 bf f4 cf 5a bf 1d 59 1c bf 72 44 60 bf
       -0.8918921 -0.8547356 -0.61073476 -0.8760444
000100 ba 3a 4d 3f c1 71 ad 3e 0a 12 52 3f 31 d1 40 3f
       0.80167735 0.3387585 0.82058775 0.753192
000110 dc 51 5e 3f 5f 23 41 bf 72 0d 4c bf f5 6a 68 bf
       0.8684366 -0.75444597 -0.79708016 -0.90788203
000120 bc e9 32 bf 5f e8 42 bf f0 c8 3e 3f 86 ec bf 3e
       -0.698879 -0.7613582 0.74525356 0.3748514
000130 6e 41 51 3f 4a e8 3b 3f 42 a7 5a 3f 66 c9 50 bf
       0.8174046 0.7340132 0.85411465 -0.8155731
000140 3b 93 53 bf a5 37 89 bf 31 97 1d bf 66 5a 6a bf
       -0.8264653 -1.0720106 -0.61558825 -0.9154419
000150 ba 1f 17 3f c5 34 61 3e 14 99 7e 3f a0 5e 40 3f
       0.59032786 0.21992786 0.9945233 0.75144386
000160 2c 90 7d 3f 2c af 4e bf 1f 93 48 bf 37 5a 94 bf
       0.99048114 -0.8073604 -0.7834949 -1.1590031
000170 26 93 2c bf 9c 02 47 bf 4f 49 31 3f cf 11 a7 3e
       -0.6741203 -0.77738357 0.69252485 0.32630774
000180 73 f0 32 3f 9c 5f 4d 3f cc e1 6a 3f 71 94 54 bf
       0.69898146 0.80224013 0.9175079 -0.83039004
000190 b9 f2 4c bf 1e 46 81 bf 37 06 16 bf 79 85 82 bf
       -0.80057865 -1.0099523 -0.58603233 -1.0196983
0001a0 7e 35 2f 3f 04 5c 59 3e 67 c5 49 3f a7 f1 4d 3f
       0.68441 0.21226507 0.7881684 0.8044686
0001b0 39 5b 57 3f cf 4d 4f bf 30 d2 39 bf cc fd 87 bf
       0.8412357 -0.809781 -0.72586346 -1.0624328
0001c0 da 72 16 bf fe 9b 3d bf a9 95 22 3f 59 e1 d4 3e
       -0.58769 -0.7406615 0.63509613 0.41578177
0001d0 4f d5 67 3f b2 93 26 3f c4 7e 5e 3f e9 12 7c bf
       0.9055986 0.65069115 0.8691218 -0.98466355
0001e0 7c 36 44 bf 2e d2 98 bf bc 5f 0b bf c8 9e 57 bf
       -0.76645637 -1.1939142 -0.54442954 -0.84226656
0001f0 00 36 45 3f 20 16 82 3e bb e4 43 3f 18 1f 40 3f
       0.7703552 0.25407505 0.7652089 0.75047445
000200 94 be 39 3f ae 2f 69 bf d8 b8 4c bf b8 be 5c bf
       0.72556424 -0.9108838 -0.7996955 -0.86228514
000210 e6 e9 33 bf cf 26 65 bf 07 91 2a 3f 11 33 98 3e
       -0.70278776 -0.8951234 0.66627544 0.2972646
000220 5a 7c 5e 3f 85 24 5b 3f 60 1a 19 3f 68 89 72 bf
       0.86908495 0.856026 0.5980587 -0.94740915
000230 4a c8 32 bf 18 2d 84 bf e5 73 c4 be 81 57 6c bf
       -0.69836867 -1.0326262 -0.3836967 -0.9232102
000240 98 3f 21 3f 35 37 af 3e 7c 3b 6d 3f 08 40 4b 3f
       0.6298766 0.34221807 0.9266889 0.7939458
000250 98 b3 5d 3f b9 95 58 bf 95 59 2c bf 7e df 86 bf
       0.86602163 -0.8460346 -0.6732419 -1.0536954
000260 7b d5 11 bf e5 92 65 bf 34 0e 1d 3f 4c 38 a3 3e
       -0.5696637 -0.8967727 0.613498 0.3187889
000270 b0 cd 38 3f 7e 6e 1c 3f d8 93 73 3f 92 72 7b bf
       0.72188854 0.611061 0.95147467 -0.98221695
000280 69 e5 45 bf db 35 70 bf 64 90 22 bf 82 68 5c bf
       -0.7730318 -0.93832177 -0.6350157 -0.86096966
000290 6b a1 36 3f 6f fe 6a 3e 9a ea 47 3f 5f f3 1f 3f
       0.71340054 0.22948621 0.7809235 0.6248073
0002a0 05 10 35 3f db 36 47 bf 7e d0 4f bf 92 51 84 bf
       0.7072757 -0.7781808 -0.8117751 -1.0337393
0002b0 e2 f7 21 bf a3 d2 74 bf 11 47 53 3f 91 7a 3d 3e
       -0.63268864 -0.95633906 0.82530314 0.18503787
0002c0 87 eb 58 3f 53 db 4a 3f 42 3e 65 3f da 83 60 bf
       0.84734386 0.7924091 0.8954812 -0.8770119
0002d0 a5 51 44 bf 1b b5 90 bf 65 cf 15 bf db e9 66 bf
       -0.7668708 -1.1305269 -0.58519584 -0.90200585
0002e0 e6 af 53 3f a8 de ec 3e ed d5 60 3f 9c e5 46 3f
       0.82690275 0.46263623 0.87826425 0.77694106
0002f0 f1 ce 5d 3f ad 1b 38 bf 92 7b 4c bf 8a 4e 91 bf
       0.8664389 -0.7191723 -0.79876053 -1.1352093
000300 fd 27 45 bf 8e 03 80 bf 76 28 29 3f 01 ad a3 3e
       -0.7701414 -1.0001085 0.66077363 0.3196793
000310 6d 9b 73 3f 3a a5 4d 3f 97 3d 4c 3f 42 99 32 bf
       0.95159036 0.8033024 0.7978148 -0.697651
000320 a6 63 54 bf d9 4e 85 bf 6b d0 0f bf 83 30 83 bf
       -0.8296455 -1.0414687 -0.56177396 -1.024918
000330 55 d2 52 3f 03 f2 a5 3e 18 b0 36 3f 11 34 34 3f
       0.8235219 0.32411203 0.7136245 0.7039195
000340 b8 30 46 3f ff f7 62 bf 01 6c 53 bf e4 0e 6c bf
       0.7741809 -0.8865966 -0.82586676 -0.9221022
000350 fd 68 27 bf ee c1 62 bf 44 d4 1e 3f 23 d5 a9 3e
       -0.65394574 -0.88577163 0.6204264 0.33170423
000360 77 bc 4a 3f 4f 87 4a 3f 82 d6 45 3f 31 90 7f bf
       0.79193825 0.79112715 0.7728044 -0.99829394
000370 67 85 3b bf e7 59 8f bf db 79 32 bf bc 8e 55 bf
       -0.7325043 -1.1199311 -0.69717187 -0.8342092
000380 ae af 30 3f 6b ca 80 3e c1 4a 73 3f 01 42 26 3f
       0.69018066 0.25154433 0.9503594 0.64944464
000390 51 25 58 3f 05 32 57 bf b2 b3 7d bf 30 e6 86 bf
       0.8443194 -0.840607 -0.9910232 -1.0538998
0003a0 99 49 29 bf 35 cb 7d bf 96 88 44 3f 03 a9 a2 3e
       -0.66127926 -0.99138194 0.76770914 0.3176957
0003b0 78 4d 43 3f 2c ff 1e 3f 07 de 3f 3f cb 59 6d bf
       0.7629008 0.6210811 0.7494816 -0.9271514
0003c0 de 72 4d bf 1d 91 81 bf 16 30 07 bf 86 07 6a bf
       -0.802534 -1.012241 -0.5280775 -0.9141773
0003d0 b3 86 3c 3f 0d 18 95 3e 7c d0 26 3f 50 75 29 3f
       0.73643035 0.29119912 0.6516187 0.6619463
0003e0 b3 fc 70 3f 8a 33 5a bf 65 1a 1f bf 0c c0 80 bf
       0.9413559 -0.8523489 -0.6214965 -1.0058608
0003f0 0e 85 3f bf 01 82 68 bf 12 81 42 3f 3b 48 90 3e
       -0.748124 -0.9082337 0.75978196 0.28180107

rnn.weight_ih_l0 f4 [15, 10]
000000 bc ac 73 3e 5a 1e a1 bd 88 74 11 3d 5c de 56 be
       0.23796362 -0.07867117 0.035511523 -0.20983261
000010 14 52 6a 3e a0 8f 13 3c dc 40 c1 bd 3d b2 4c be
       0.22882873 0.009006411 -0.09436199 -0.19989868
000020 04 16 4b be c0 60 ae 3c 00 61 1e bb e8 db c0 3d
       -0.19832617 0.021286368 -0.0024166703 0.09416944
000030 60 8c 63 3d 64 c1 5f bd 40 60 e9 bd 03 09 83 3e
       0.055553794 -0.05462779 -0.11395311 0.25592813
000040 dc 73 e0 3d c0 13 b5 bb 0e 50 b4 bd 32 49 1d 3e
       0.109595984 -0.005526036 -0.08804332 0.15359953
000050 f8 c0 be bc a6 23 25 3e 34 29 54 be 0c 25 20 be
       -0.023285374 0.1612688 -0.20718843 -0.15639132
000060 af a8 83 3e 9e 64 42 be 1c 09 48 bd 3c 5b af 3d
       0.25714633 -0.18983695 -0.048836812 0.085623235
000070 dc 94 5b bd 20 f7 59 3e c0 d3 16 be 10 bb 3e 3e
       -0.05360876 0.21285677 -0.14729214 0.18626046
000080 24 07 bc 3d cd 92 0a be f2 a4 3d be 80 7d 9d bd
       0.091810495 -0.13532563 -0.18519953 -0.07689953
000090 7a 30 a9 bd 34 29 af 3d d0 cf 4a 3e b8 18 ef 3d
       -0.08261199 0.08552781 0.19805837 0.116746366
0000a0 58 10 22 3e f0 31 b5 3c a8 ca 44 3e 26 0c 78 3e
       0.15826547 0.022118539 0.19217932 0.24223384
0000b0 14 94 0b bd 40 16 b4 3c cc 43 da 3d d6 20 00 be
       -0.034076765 0.021983266 0.106574625 -0.12512526
0000c0 57 47 68 be 40 d9 ed 3d 00 ba 0f 3a 88 2d 32 3d
       -0.22683464 0.11613703 0.0005482733 0.043500453
0000d0 28 7f 37 be 40 f0 b1 3d 7c 99 6c 3e 7c 83 d3 bd
       -0.179196 0.08688402 0.23105425 -0.10327813
0000e0 8e 93 56 3e 48 f4 81 be 00 a9 f9 bc c0 91 32 be
       0.20954725 -0.25381684 -0.030476093 -0.17438412
0000f0 9a c0 64 3e 6c e4 03 3e 38 59 75 3e ca 82 19 3e
       0.22339097 0.12880105 0.23959816 0.14991298
000100 32 8b 33 3e a0 8a 46 3e ca 56 38 3e ac 58 56 be
       0.17533568 0.19388819 0.18001857 -0.20932263
000110 e0 7b 71 bd 22 b9 69 3e 41 5e 24 be 4c b1 d6 bd
       -0.058956027 0.22824529 -0.1605158 -0.104830354
000120 a8 a8 5c be 2f 9c 7b be 12 e1 0c 3e 8e 0f 7e 3e
       -0.21548712 -0.24571298 0.13757733 0.24810621
000130 9d 5b 18 be c0 42 96 bb 46 6b 38 be 40 70 41 3d
       -0.14878698 -0.004585594 -0.18009672 0.04722619
000140 04 01 63 3e 5c 24 1e be 44 74 ee bd 90 12 bc 3c
       0.22168356 -0.15443558 -0.1164327 0.02295807
000150 ea d7 22 be 72 e3 59 3e 04 65 2b 3e 98 02 d4 3d
       -0.15902677 0.2127817 0.16737753 0.10352057
000160 4e 00 2b 3e 68 e6 c0 bd 64 5b dc 3d 8a fc 14 3e
       0.16699335 -0.094189465 0.10759619 0.14549461
000170 58 f5 99 bc 4c f7 29 bd 5a b1 80 bd 60 31 2c be
       -0.018793747 -0.041495606 -0.06283827 -0.1681571
000180 6c da 5f be 0a 9f 74 3e 8f d5 04 be 98 4e c3 3d
       -0.21860665 0.23888794 -0.12972091 0.09536475
000190 f1 6c 00 be c0 90 8e bd 36 08 db bd 1a 83 1f 3e
       -0.12541558 -0.069612026 -0.106949255 0.15577355
0001a0 f9 47 03 be 7c 62 fc 3d 92 43 7c 3e fa aa 09 3e
       -0.12820424 0.12323472 0.24635151 0.13444129
0001b0 ef 3d 36 be 82 f1 2e be c0 5c 1e 3d 78 77 74 3d
       -0.17797063 -0.17084315 0.038662672 0.059684247
0001c0 26 06 ad bd 04 75 ea 3d a8 c4 ec 3d be dc 5e 3e
       -0.08448438 0.114481 0.11560947 0.21763894
0001d0 a8 69 bf 3d e0 66 b8 bd 05 30 7b be e8 92 08 be
       0.09346324 -0.09003997 -0.24530037 -0.1333729
0001e0 46 95 e0 bd 9a 78 93 bd 38 29 b5 3d 10 76 84 3c
       -0.10965972 -0.07200737 0.088457525 0.016169578
0001f0 04 ab b3 bd f0 24 50 3d 20 ae 17 bc dd f4 65 be
       -0.08772853 0.050816476 -0.009257823 -0.22456689
000200 52 c8 b3 bd e0 e9 37 3e ee 6d 0d be d8 23 ae bd
       -0.087784424 0.1796031 -0.13811466 -0.085029304
000210 e8 9a 4e be 38 d5 3e 3d 14 2d 29 3e 6e 07 46 be
       -0.2017628 0.04659006 0.16521102 -0.19338772
000220 4c 3c 31 bd 1a c9 3c be 3e a5 85 bd ec 39 64 be
       -0.043270394 -0.18436089 -0.06525658 -0.2228772
000230 c0 6f a6 bb 70 d4 53 be 94 ea 23 3e 8f 53 76 be
       -0.0050792396 -0.20686507 0.16007453 -0.24055313
000240 f8 7a 47 3e 4c 3f 0e 3e 5e 74 3a 3e 10 01 51 be
       0.19480503 0.13891333 0.18208453 -0.20410562
000250 00 06 1d bb 19 f5 54 be
       -0.0023959875 -0.20796622

rnn.weight_hh_l0 f4 [15, 15]
000000 70 ae 0d 3d a8 5f 74 bd 2e 5b 5f 3e a0 d1 00 3c
       0.034590185 -0.059661537 0.21812126 0.0078624785
000010 f4 43 a1 bd 7e c7 bd bd 9f 4a 05 be c8 d9 43 3d
       -0.07874289 -0.09266566 -0.13016747 0.047815114
000020 14 95 8c 3d 47 3e 73 be 80 dd 7f bd e8 7f b6 3d
       0.06864372 -0.23754226 -0.0624671 0.08911115
000030 82 93 58 3e d2 c7 52 3e f0 8c c0 3d ee 9e 7e be
       0.2115002 0.20584038 0.09401882 -0.24865314
000040 dc ab 06 be 96 3c 32 3e 1a f0 3e 3e e7 c7 42 be
       -0.13151497 0.17405924 0.18646279 -0.19021569
000050 80 23 ab 3c 5d a7 24 be 1e cb 72 3e cc 91 0c bd
       0.020890951 -0.16079469 0.23710296 -0.03431873
000060 f0 47 a2 bc 71 29 1e be 7a 1d 80 be 00 79 af 3c
       -0.019809693 -0.15445496 -0.2502249 0.021420002
000070 ec 07 c9 3d 6d 73 7b be 14 e8 df 3d 00 55 fc 3d
       0.09815964 -0.2455575 0.10932937 0.123209
000080 68 fc 18 3e 90 c4 bf 3d a6 67 27 3e 9a 2e 4d be
       0.14940035 0.09363663 0.16348132 -0.20037308
000090 32 69 7b be c0 e9 2c bd b2 cc cd bd 4c dc 76 3e
       -0.24551848 -0.04221511 -0.10048808 0.24107474
0000a0 d0 54 35 3e 80 c4 38 bb 10 80 3b bc 00 73 84 ba
       0.17708135 -0.0028193295 -0.011444107 -0.0010105073
0000b0 40 0e 79 bd 1c b0 42 be 34 ab 96 bd d6 90 0d 3e
       -0.060804605 -0.19012493 -0.07356873 0.13824782
0000c0 f6 f0 85 bd e0 d5 81 3c 36 31 e9 bd 02 81 21 3e
       -0.065401 0.015849054 -0.11386339 0.15771869
0000d0 cc 8b 5f be 00 16 2b 3b ec 4f 10 be 34 cb eb bd
       -0.21830672 0.0026105642 -0.14092988 -0.11513367
0000e0 eb a6 31 be 2e 2f 90 bd 64 55 14 3e c0 3b af 3b
       -0.1734883 -0.07040249 0.14485699 0.005347699
0000f0 80 38 d5 bd 96 37 50 be b0 ff fe 3d 00 5a 82 3b
       -0.10411167 -0.20333704 0.12451112 0.003978014
000100 86 8d 7f be 9b 18 6f be 0a 59 45 be cc e0 a3 3d
       -0.2495633 -0.2334923 -0.19272247 0.08001861
000110 8a 1d 2d 3e a4 4c f7 3d 5e 8b 66 3e 30 4f 6b 3e
       0.169058 0.12075165 0.22514102 0.22979426
000120 0a 60 23 be 64 81 30 3e 22 0a 2c 3e 96 53 a1 bd
       -0.15954605 0.17236859 0.1680074 -0.07877271
000130 80 4c e9 3d 64 52 e3 3d e2 1e 79 3e 98 0c 38 3e
       0.11391544 0.11099699 0.24328187 0.17973554
000140 56 46 7b 3e f4 28 62 3e dc 5f ea 3d ec 90 8d bd
       0.2453855 0.22085935 0.11444065 -0.06912407
000150 46 cb 6c be 22 17 2e 3e 10 61 f0 3d 10 29 a8 3d
       -0.23124418 0.17001012 0.11737263 0.08210957
000160 e8 8b a2 bc 60 76 60 3d 2c 35 57 3e c0 50 c9 bc
       -0.019842103 0.05480039 0.21016377 -0.024574637
000170 91 01 48 be 44 d3 3d be 84 38 47 3e 94 1a 53 bd
       -0.19531848 -0.18537623 0.19455153 -0.05153902
000180 86 c6 38 3e 20 8c 0e 3e 84 ef 1b bd 00 50 81 3b
       0.1804448 0.13920641 -0.038070217 0.0039463043
000190 88 f0 88 3d 90 cf ef 3c 3a 8c 40 be 9c 78 47 be
       0.06686503 0.029273778 -0.18803492 -0.19479603
0001a0 fc cc 55 be 85 ea 4e be a2 c5 4e 3e 52 0c 00 3e
       -0.20878977 -0.2020665 0.20192578 0.125047
0001b0 00 c8 1f 3e 2e fa 7c 3e c0 8c b0 bc d2 ef 3c 3e
       0.15603638 0.24704811 -0.02155149 0.18450859
0001c0 70 ec ba bd da ef d3 bd c0 07 f3 3b b4 da 52 bd
       -0.09127128 -0.103484824 0.0074166954 -0.051478103
0001d0 66 36 1e be d0 6f e9 bc ea f0 47 3e a6 28 fa bd
       -0.15450439 -0.0284957 0.19525495 -0.12214784
0001e0 a2 3c 1a 3e 38 ff e2 bc 7a 69 db bd d2 e3 76 be
       0.15062192 -0.027709588 -0.107134774 -0.24110344
0001f0 14 34 01 3e a0 b0 c0 3c 4a 72 12 3e b8 7d c4 3d
       0.12617522 0.023521721 0.1430141 0.095942914
000200 e0 74 3c bc 68 20 e9 bc 0c 33 aa 3d 00 96 f3 3a
       -0.011502475 -0.028457835 0.08310518 0.0018584132
000210 40 e3 5b 3e b6 09 76 3e 88 27 1d 3d 38 ce 72 bd
       0.21473408 0.24027142 0.038367778 -0.059278697
000220 40 34 ab 3b c6 c7 3a be 9e a7 66 be 5f 41 42 be
       0.0052247345 -0.1824027 -0.22524878 -0.1897025
000230 57 bd 82 be d8 4d a8 bd 38 3b 77 3e 2f 62 83 3e
       -0.2553508 -0.082179725 0.24143684 0.25660846
000240 20 59 fd 3d 6a e3 42 be 6c 5e 24 be 04 bf 8e bd
       0.12370515 -0.19032064 -0.16051644 -0.06970027
000250 59 d7 24 be c0 3f 3d 3c 40 12 54 3d d0 71 b8 bc
       -0.16097774 0.011550844 0.051775217 -0.022515208
000260 4e e9 33 3e 42 bf 52 3e c0 74 02 be 2b ac 70 be
       0.17569467 0.20580772 -0.12739849 -0.23503177
000270 70 c6 30 3d de 2c 10 be 8a 22 59 3e b0 ed 73 bc
       0.043157995 -0.14079615 0.21204582 -0.014888212
000280 e0 25 4b 3d 88 08 6f 3d 8c 23 68 3e 44 78 1b bd
       0.049596667 0.058357745 0.2266981 -0.03795649
000290 38 eb ef bd 04 d4 6d 3e 36 50 0c be e0 09 51 be
       -0.11714786 0.23225409 -0.13702473 -0.20413923
0002a0 24 50 5a be 32 6f 7a 3e ab fc 00 be 9e 33 2a 3e
       -0.21319634 0.2445648 -0.12596385 0.16621253
0002b0 38 63 53 3d 86 89 8b bd f2 f7 82 bd 24 e3 27 3e
       0.051608294 -0.0681334 -0.06394948 0.16395241
0002c0 ed 9b 82 3e fe 01 a3 bd 34 66 8d 3d f4 32 2f be
       0.25509587 -0.07959364 0.06904259 -0.17109281
0002d0 88 0b fe bc 50 8c df 3d 67 ec 83 be 40 18 4f 3d
       -0.031011358 0.10915434 -0.25766298 0.050560236
0002e0 92 bd 4a 3e d2 38 35 be 48 77 f8 3d e0 b4 63 3d
       0.19798878 -0.17697456 0.12132126 0.055592418
0002f0 80 95 dd 3c 44 92 40 bd e6 d3 04 be a4 e3 c6 3d
       0.027048826 -0.04701449 -0.12971458 0.09711388
000300 84 4d c5 bd 3c cf 8b 3d ba 92 83 be e9 48 4a be
       -0.096339256 0.06826636 -0.2569788 -0.19754376
000310 94 b7 1d 3e e4 21 45 be 50 0c 8b bd 3c 7d 01 be
       0.15402061 -0.1925121 -0.06789458 -0.1264543
000320 64 53 22 3e 70 e7 bc bc 98 7c f0 3d 28 8a 68 3e
       0.15852123 -0.023059577 0.11742514 0.22708952
000330 a0 8c 74 3d 80 49 cd bb b8 da 3e 3d ae 70 4f 3e
       0.059704423 -0.0062648654 0.046595305 0.20257828
000340 a0 5e c9 3d 70 6f dc 3d c3 51 80 3e b5 4f 45 be
       0.098325014 0.107634425 0.2506238 -0.19268687
000350 c0 0f 3a 3d 3f 84 5b be d8 7b 98 bd ed f8 7b be
       0.045425177 -0.21437167 -0.07445496 -0.24606676
000360 dc e9 bb 3d be d8 6b be a0 8d 94 3d f6 bf aa bd
       0.091754645 -0.230319 0.07253575 -0.08337395
000370 86 72 3b be 48 76 44 be d6 36 7a be 08 05 a0 bd
       -0.18305406 -0.19185746 -0.24434981 -0.0781346
000380 ba be e3 bd
       -0.111203626

rnn.bias_ih_l0 f4 [15]
000000 a8 66 94 3d 80 1f e2 bb 6e 43 50 3e a8 6a 6b be
       0.072461426 -0.0069007277 0.20338222 -0.22989905
000010 11 b5 60 be 30 e0 42 be cc 83 d5 bd 28 80 03 3e
       -0.21944071 -0.19030833 -0.10425529 0.12841856
000020 30 3a 42 3d ff 80 09 be e4 be 19 3e 12 28 6d 3e
       0.047418773 -0.13428114 0.15014225 0.23159817
000030 00 94 f2 3a 42 f1 5a 3e c6 d8 7d 3e
       0.0018507242 0.21381095 0.24789724

rnn.bias_hh_l0 f4 [15]
000000 90 f0 46 bd 3e 39 39 be f4 e6 48 be e2 25 2f be
       -0.048569262 -0.18088242 -0.19619352 -0.17104295
000010 e8 66 12 be 28 07 4e 3d a8 ff 39 3e be 4a 4b 3e
       -0.14297068 0.050299793 0.18163931 0.1985273
000020 14 d1 9e 3d 39 d3 48 be 12 c9 02 3e 2e e8 31 be
       0.07754722 -0.19611825 0.12772015 -0.17373726
000030 5c 6a 61 bd f0 66 2b bc 44 2d 57 be
       -0.055033073 -0.010461554 -0.21013361

linear1.weight f4 [15, 10]
000000 86 b6 15 3f b9 f4 30 3f ee 29 dc 3e 51 22 f3 3e
       0.58481634 0.6912342 0.4300074 0.4748712
000010 ce 7c 13 bf 65 c4 c0 be da 39 57 bf 23 e6 f3 be
       -0.5761231 -0.37649837 -0.8407265 -0.47636518
000020 bf 15 6a bf 8a d7 44 3f eb ab e1 3d 3c 78 c3 3d
       -0.9143943 0.76891387 0.11019119 0.09544417
000030 5e e0 41 3e b8 bc da 3d e4 00 b8 bd a2 b6 2f be
       0.18933246 0.106805265 -0.08984545 -0.17159513
000040 10 62 1f bd af 72 e3 bd 29 26 a9 bd c8 6e e1 3d
       -0.03891188 -0.111058585 -0.082592316 0.11007458
000050 1c 56 0e 3e 62 fe aa 3d a5 2d 69 3e e3 0f 22 3e
       0.13900036 0.08349301 0.22771318 0.15826373
000060 b5 2c 24 be 44 92 03 3f e8 81 1d be aa 6c 3d be
       -0.1603268 0.5139506 -0.15381587 -0.18498483
000070 bc 1f cf bd a8 6c d2 3d 45 e3 ce 3d 0e 92 40 3e
       -0.10113475 0.10274631 0.10101942 0.18805715
000080 a1 54 8c bc 07 02 5d 3e 2a 16 37 3e 63 6f 0c 3f
       -0.017130198 0.21582805 0.17879549 0.5485746
000090 1c f3 bb bd d8 70 06 3e 56 be 05 be 08 33 ea bd
       -0.09177229 0.13128984 -0.13060889 -0.11435515
0000a0 83 a9 b2 3e 7b c3 87 3e 92 79 8a 3e 52 47 b1 3e
       0.34894952 0.26516327 0.27045876 0.34624726
0000b0 00 30 bd be ec 1b 84 be 9c 11 b4 be 4a 1e a1 be
       -0.36950684 -0.25802553 -0.35169685 -0.3146842
0000c0 3b d6 aa be d2 eb 7f 3e 05 c2 61 bd 6b 64 88 3d
       -0.3336657 0.24992302 -0.055116672 0.06659778
0000d0 40 68 de bd 01 0c 36 bd 05 83 de 3d 7a 51 a2 3e
       -0.10859728 -0.04444504 0.10864834 0.31702787
0000e0 2f 8e 9c bd b9 9a 34 3e 48 bf 7f bd c1 6d 4a 3d
       -0.07644307 0.17637147 -0.06243828 0.049421076
0000f0 98 fc 52 3e c4 51 20 3e 2b af 69 3e 8d 44 46 3e
       0.2060417 0.15656191 0.22820728 0.19362088
000100 63 ba 72 be a4 ef bf be 58 d6 42 be 22 8d 62 be
       -0.23703913 -0.3748752 -0.19027078 -0.2212415
000110 5c 2a 71 be 8b 3f 34 3e 28 6e fe 3e a7 88 34 3f
       -0.23551315 0.17602365 0.49693418 0.70521015
000120 9a f3 a3 3e 79 bb ab 3e 59 46 dc be e7 93 55 be
       0.3202179 0.33541468 -0.4302242 -0.20857202
000130 81 86 34 bf 1a e3 9b be 3f 98 46 bf e1 9f 46 3f
       -0.70517737 -0.30446702 -0.7757606 0.77587706
000140 f4 81 cb 3e 2e 17 bb 3e 66 85 a5 bd ff d9 8c 3e
       0.39747584 0.36541122 -0.08082084 0.27510068
000150 90 06 b3 be 29 3c a0 be be 1a cf be 50 93 b1 be
       -0.34965944 -0.312959 -0.4045009 -0.34682703
000160 27 16 b7 be a9 65 ac 3e ca 17 2f 3e f7 c4 fb 3c
       -0.35759088 0.3367131 0.17098919 0.030733569
000170 13 2e cb bd 29 a3 1b be d8 f9 0a 3e 7b 53 17 3f
       -0.09920897 -0.1519896 0.1357187 0.59111756
000180 91 85 d2 bd 1d 5e 3d bf 1b 91 6b 3b 7a 48 d1 3d
       -0.10279382 -0.7397173 0.0035944644 0.10218902
000190 78 4c b4 3d 7e 2a 00 3d 10 26 03 3e 4e 48 a3 3d
       0.08803648 0.031290524 0.12807488 0.079727754
0001a0 ee 6e da bd 95 43 f9 be 95 85 8c bd c4 01 e9 bd
       -0.106656894 -0.48684373 -0.06861416 -0.1137729
0001b0 a8 73 5d bd 42 3c 4b 3d 7c 64 9a 3e d3 42 4b 3e
       -0.054065377 0.049618013 0.30154788 0.1984971
0001c0 a7 5f 0a 3f a2 27 53 3e a2 20 9f be 00 27 34 be
       0.54052204 0.20620587 -0.31079584 -0.17593002
0001d0 4a 35 c6 be 23 ca 43 be 4a ce b6 be b4 d7 6e 3e
       -0.3871253 -0.19120078 -0.3570426 0.23324472
0001e0 2f 13 3b 3e fd 86 cd 3d 3d 67 d9 3c d9 8e 7e 3d
       0.18269037 0.100355126 0.026538486 0.06214795
0001f0 4d 1d 68 be 9a 9c 91 3e 8d 1c 59 be 9d f9 28 3e
       -0.22667427 0.2843979 -0.21202298 0.1650147
000200 5c 7b 6f be b4 53 38 3e 8d de 42 bd 81 9a 4e bd
       -0.23386902 0.1800068 -0.047575522 -0.050440315
000210 2f f8 97 bd 3e 40 5c 3f be cc 13 3e 35 a8 bb 3e
       -0.07420384 0.86035526 0.14433572 0.3665177
000220 9f 62 2e 3d 4f a1 7e 3e 4b ff cb 3b f0 ce 87 3e
       0.04257452 0.24866222 0.0062255017 0.26525068
000230 da c8 a9 bc e2 ea 89 3e b9 f1 87 bd c9 01 7d 3b
       -0.020725656 0.26937014 -0.06637902 0.00386058
000240 d2 4b 50 3e ed eb 90 3d e7 50 36 bd ad 7e e8 3d
       0.20341423 0.07076249 -0.04451075 0.113522865
000250 47 65 bb 3c 6e 63 83 3e
       0.022875441 0.25661796

linear1.bias f4 [15]
000000 b4 5b bb bf d5 bd 2b 3f 93 67 1b 3f bd ff fa be
       -1.463736 0.67086536 0.60704917 -0.49023238
000010 92 26 f0 3e 87 ae eb be 01 27 4d 3f fa e0 25 c0
       0.46904427 -0.4603159 0.8013764 -2.5918565
000020 58 f9 2d be 12 00 94 bc 72 ad 18 3f 84 74 e1 bd
       -0.16989648 -0.01806644 0.59639657 -0.11008552
000030 95 53 a3 3e 8c eb 6e be d2 33 ba be
       0.31899706 -0.23332042 -0.3636766

linear2.weight f4 [10, 15]
000000 4b 95 79 3e bd b4 d2 3c 03 46 c2 3c 6d 84 ba be
       0.24373357 0.025720948 0.023715025 -0.36429158
000010 ea c1 6a 3d de 12 72 be 03 b7 a7 3c c5 db 40 3f
       0.057313837 -0.2364001 0.020473009 0.7533534
000020 9f 41 41 3e 2e 25 79 3d 5f 3a dc 3d a6 79 28 3e
       0.18872689 0.060826473 0.10753321 0.16452655
000030 71 a4 1c bd 61 37 dd 3d 3e d0 42 be 9c 44 80 3e
       -0.03824276 0.10801578 -0.1902475 0.25052345
000040 70 6c b6 bc c0 df 2c bc f0 80 8e be e4 b2 94 3d
       -0.022268504 -0.010551393 -0.27832747 0.07260683
000050 c9 f1 e2 bd 5e 32 05 3c 91 d4 4f 3f 5b 8d 31 3e
       -0.11081273 0.008129684 0.81183726 0.17339079
000060 21 5a 6e 3d c0 3d 12 3e 67 fc 4d 3e 71 f2 fe bc
       0.058191422 0.14281368 0.20115815 -0.031121464
000070 ea fc 54 3d ca c3 91 be 34 20 8c 3e 2d 44 22 bd
       0.05199901 -0.28469688 0.2736832 -0.0396158
000080 29 99 d4 3c fb ce b2 be 5b f2 96 3d 49 cc 40 be
       0.025951939 -0.3492354 0.073704444 -0.18827929
000090 2f fb f9 ba 22 14 47 3f 88 c4 12 3e 47 80 f4 3d
       -0.0019072051 0.77765095 0.14332783 0.119385295
0000a0 80 39 08 3e aa 13 2b 3e 2b 38 b8 bd 43 d9 db 3d
       0.13303185 0.1670672 -0.08995088 0.10734799
0000b0 5c 2d 98 be 9b 24 89 3e d0 e9 c0 bc ce 8a 37 3d
       -0.29722106 0.2678574 -0.02354899 0.04481011
0000c0 e8 72 e2 be 3a ff 85 bc cd 58 a1 be c2 01 cb 3d
       -0.44228292 -0.016357053 -0.31513062 0.09912445
0000d0 7b 32 e0 bf c0 fe 5f 3e e0 2c ca 3b 6e 9d 51 3d
       -1.7515405 0.21874523 0.0061699003 0.051175527
0000e0 09 12 23 3e 9a 88 c0 bd 13 c6 18 be 9f e7 42 be
       0.15924849 -0.09401055 -0.1491931 -0.19033669
0000f0 66 d7 7f bf 72 7c 1c 3d 42 02 82 3d 3e fb ef be
       -0.99938047 0.038204618 0.06348087 -0.4687137
000100 98 c1 8c 3c 9f 57 18 be 1a c7 ba 3c 98 2c 16 c1
       0.017182156 -0.14877175 0.022800017 -9.385887
000110 55 7d c5 3e 31 4b 1a be 24 ee 73 3d 81 79 c6 3e
       0.38572183 -0.15067746 0.05955328 0.38764575
000120 21 3c 28 be a1 a4 77 be c6 92 a4 bb 35 27 9c c0
       -0.16429187 -0.24183895 -0.0050223796 -4.879786
000130 90 49 06 bd fe 17 d0 3d 40 25 fd be f1 d1 61 3e
       -0.032785 0.10160826 -0.49442482 0.22052743
000140 46 b9 ae be 23 43 56 3d e3 6a 04 c2 05 81 ff be
       -0.34125727 0.05231012 -33.10438 -0.49903122
000150 91 68 f9 bd 03 7a f7 3d 24 17 65 be de 5a 96 be
       -0.121781476 0.12083819 -0.22372109 -0.293662
000160 b3 8e 98 be a2 b2 29 be 9d c1 ed c1 c1 0f f2 bc
       -0.2979637 -0.1657205 -29.719538 -0.029548528
000170 7b ae 0d 3e 17 5d f0 be 24 f1 d4 be 39 bc 83 be
       0.1383609 -0.46946022 -0.41590226 -0.2572954
000180 7c 74 24 3e 83 ee d8 bf 5e f4 9a c0 db c0 12 bf
       0.1606006 -1.6947788 -4.84233 -0.57325524
000190 b0 45 50 3d f7 fd 88 c0 fd cd 17 bf cc c4 6a bf
       0.05084771 -4.2810016 -0.5929869 -0.9170654
0001a0 53 45 b8 be 2f 91 43 c0 e6 8a 70 3e 6e c8 86 3d
       -0.3599039 -3.0557363 0.23490486 0.06581198
0001b0 42 e3 80 be 78 a5 f9 c0 00 d3 b0 bd cc 8b eb be
       -0.25173384 -7.801449 -0.08633995 -0.46005094
0001c0 27 36 88 bf 83 7f 0b c2 95 ca 4c bf 6d d1 e8 3d
       -1.0641526 -34.874523 -0.79996616 0.1136807
0001d0 f7 d8 11 c2 59 b9 00 c0 49 56 a0 bf ec 9b 74 be
       -36.46188 -2.0113127 -1.2526332 -0.23887604
0001e0 ca 88 1a be b7 e0 20 3d 52 cd 26 bf 05 a1 f3 be
       -0.15091243 0.039276805 -0.65157044 -0.47583786
0001f0 8e 58 61 c2 e0 e6 e4 be 4f b6 32 c1 3a af 39 bf
       -56.33648 -0.44707394 -11.169509 -0.72533
000200 0b 74 e7 bf ef bd f6 bf ab af 85 be 5c 07 c9 bf
       -1.8082289 -1.9276713 -0.26110587 -1.5705371
000210 f4 f2 be c0 e4 ec 23 c0 a4 a9 d2 bd d3 78 13 be
       -5.9671574 -2.5613337 -0.10286263 -0.1440156
000220 b8 5a 1a c1 96 42 01 c1 16 37 91 be 0f 2c 6d bf
       -9.647148 -8.078756 -0.2836234 -0.92645353
000230 39 5c 4c bd 3b 5c 36 c2 07 ba 5a bf 51 5b 09 bf
       -0.049892638 -45.59007 -0.85440105 -0.5365496
000240 e2 7b a0 c0 c3 05 57 c1 40 86 69 bf 72 53 fb c0
       -5.0151224 -13.438907 -0.91220474 -7.853936
000250 07 ad 69 c0 e1 18 a1 be
       -3.6511858 -0.31464294

linear2.bias f4 [10]
000000 e7 8e e2 3b cf f3 82 3c f3 6b 66 bc 68 d2 41 bd
       0.006914008 0.015985398 -0.014063823 -0.0473198
000010 51 66 1b bd 75 31 8a bc d8 b7 00 bd 41 ab 35 bc
       -0.037939373 -0.016869286 -0.031425327 -0.011088193
000020 f4 87 8f 3c 80 31 d7 3a
       0.017520882 0.001641795
