陈凯迪/week02/model.bin (torch, 2005 bytes, 2 tensors)

linear.weight f4 [5, 5]
000000 c5 e6 a9 40 94 c7 0f c0 57 4d 0c c0 35 68 0c c0
       5.30942 -2.2465563 -2.1922204 -2.1938603
000010 5c 81 01 c0 19 f4 05 c0 2b af a0 40 99 f1 11 c0
       -2.0235205 -2.0930235 5.021383 -2.280371
000020 fe 4b 0c c0 8c 6a 10 c0 ea 24 0a c0 04 22 15 c0
       -2.1921382 -2.256503 -2.158503 -2.3302011
000030 51 c1 9a 40 ef f4 0c c0 eb 41 f8 bf e5 07 05 c0
       4.836098 -2.2024496 -1.9395117 -2.0786068
000040 a7 6a 09 c0 22 cd 0c c0 31 e9 a3 40 79 83 0c c0
       -2.1471345 -2.2000203 5.1222157 -2.1955245
000050 d7 ff 06 c0 c1 80 12 c0 0d f2 0d c0 c3 0c 0c c0
       -2.1093652 -2.2891085 -2.2178986 -2.188279
000060 5e 53 a9 40
       5.2914267

linear.bias f4 [5]
000000 8d 43 e5 bd bb 6c f4 3d 10 f6 22 3e b4 32 4f bd
       -0.11194525 0.11934801 0.15914178 -0.050585464
000010 cd 66 c3 bc
       -0.02385273
