許家偉/week02/model-cross-entropy.bin (torch, 1696 bytes, 2 tensors)

linear.weight f4 [5, 5]
00000000: 28f1 2440 da3d b2bf 2292 8fbf ce6d 8abf
00000010: 1178 9dbf 68a1 b4bf 2288 2340 be8f 97bf
00000020: 63e5 84bf 7b96 c7bf 7126 b6bf 29cf 9bbf
00000030: a748 2e40 9ffc 92bf cdb7 a4bf a47a b0bf
00000040: 8798 b1bf becd 84bf d2e9 3240 bec7 a9bf
00000050: 253d a5bf ce5e 9abf ead5 8dbf ba78 93bf
00000060: d352 1940
2.577219 -1.3925126 -1.1216471 -1.081476 -1.2302266 -1.4111757 2.555184 -1.1840742
-1.0382503 -1.5592798 -1.4230481 -1.2172595 2.7231843 -1.1483344 -1.2868592 -1.3787427
-1.3874673 -1.0375288 2.7955213 -1.3264081 -1.2909285 -1.2060182 -1.1080906 -1.1521218
2.3956802

linear.bias f4 [5]
00000000: 485b 02be cd29 f13d d034 5dbd 06ef cbbd
00000010: b3bd 3f3b
-0.12730134 0.11775551 -0.054005444 -0.099576995 0.0029257357
