陈凯迪/week03/rnn_model.pth (torch, 29163 bytes, 7 tensors)

embedding.weight f4 [28, 20]
0	0x00000000	0.0
1	0x00000000	0.0
2	0x00000000	0.0
3	0x00000000	0.0
4	0x00000000	0.0
5	0x00000000	0.0
6	0x00000000	0.0
7	0x00000000	0.0
8	0x00000000	0.0
9	0x00000000	0.0
10	0x00000000	0.0
11	0x00000000	0.0
12	0x00000000	0.0
13	0x00000000	0.0
14	0x00000000	0.0
15	0x00000000	0.0
16	0x00000000	0.0
17	0x00000000	0.0
18	0x00000000	0.0
19	0x00000000	0.0
20	0x3d6653c5	0.056232233
21	0x3f85d3ad	1.0455223
22	0xbf9454f0	-1.1588421
23	0x3f769a7a	0.9632946
24	0x3f2f9d26	0.68599164
25	0x3f9051a8	1.127492
26	0xbec425fd	-0.38310233
27	0xbfe395f5	-1.7780138
28	0xbf2237d8	-0.6336646
29	0x3f718cfe	0.9435576
30	0xbfaaf569	-1.3356143
31	0x3ed8d514	0.42350066
32	0xbf4e0e47	-0.80490535
33	0xbfd2caab	-1.6468099
34	0x3f31bd2e	0.6942929
35	0xbea201cb	-0.31641993
36	0xbf1d796e	-0.6151341
37	0x3f593890	0.8485193
38	0x3f6646de	0.89951885
39	0x3f2eb726	0.6824821
40	0x3f71e99a	0.9449707
41	0xbf9cc6a6	-1.2248123
42	0xbfba1735	-1.4538332
43	0xbe3d6d5f	-0.18498753
44	0x3ef84846	0.4849264
45	0xbf3bb2e3	-0.73319834
46	0xbf3d7d7e	-0.7401961
47	0xbfa444fc	-1.2833552
48	0xbe52e7e5	-0.20596273
49	0xbf0e0e2f	-0.5549039
50	0x3e9f39f0	0.3109889
51	0xbf167c78	-0.58783674
52	0xbcf0548c	-0.02933719
53	0xbd6f0de5	-0.05836286
54	0xbe8d28ad	-0.27570096
55	0xbdc0d0cf	-0.09414827
56	0x3cffba7a	0.031216849
57	0xbf14e00e	-0.5815438
58	0xbf75f291	-0.9607325
59	0x3fe63a6f	1.7986583
60	0x3f829e0e	1.0204484
61	0xbe5013a4	-0.20319992
62	0x3f8ab821	1.0837442
63	0x3eb2eabc	0.34944713
64	0x3dd2fee8	0.10302526
65	0x3fb54cc3	1.4164051
66	0x3f8ec712	1.1154501
67	0x3f50c13a	0.8154484
68	0xbf3de5e5	-0.74178916
69	0xbe47463a	-0.19460383
70	0xbf7b1de7	-0.980925
71	0x3eb27247	0.34852812
72	0x3fc341da	1.5254471
73	0xbe16b404	-0.14717108
74	0x3d8e06ac	0.06934866
75	0xc0079684	-2.1185617
76	0xbe84798f	-0.25873992
77	0x3fc58532	1.5431273
78	0xbeeb1e91	-0.45921758
79	0x3e8be50d	0.2732319
80	0xbeb7bec8	-0.35887742
81	0x3ea4cbc0	0.321867
82	0x3f3cca38	0.7374606
83	0x3f112a72	0.5670539
84	0x3ed11fc8	0.4084456
85	0xbfca63b1	-1.5811673
86	0xbfdd97c4	-1.731194
87	0x3d13831d	0.03601371
88	0xbeab4076	-0.33447617
89	0x3f91def6	1.1396167
90	0x3f756b03	0.9586641
91	0xc001b99d	-2.026954
92	0xbf2b0886	-0.6680988
93	0x3f00b3f1	0.5027457
94	0xbf41c891	-0.75696665
95	0xbfcf37ad	-1.6188866
96	0xbb9b7996	-0.004744719
97	0xbf177c47	-0.5917401
98	0xbe1776b4	-0.14791375
99	0x3f8cb181	1.099167
100	0xbe0a0c85	-0.13481338
101	0xbe66806d	-0.22509928
102	0x3ddbc675	0.10731212
103	0x3f9a74aa	1.2066853
104	0xbe2bec2c	-0.16789311
105	0x3fb22021	1.3916055
106	0xbf694973	-0.911277
107	0x3f599c4b	0.8500411
108	0xbe88d4d7	-0.26724884
109	0xbf98daba	-1.194175
110	0xbf231948	-0.6371045
111	0xbeb4667b	-0.35234436
112	0x3e8fe2e4	0.2810279
113	0x3afc66ef	0.0019256751
114	0xbf8a47bb	-1.080314
115	0xbdf547b8	-0.1197657
116	0xbf878b97	-1.0589474
117	0xbe8ef332	-0.27919918
118	0x3ed04f37	0.40685436
119	0xc0157e10	-2.3358192
120	0xbeab21ed	-0.3342432
121	0x3e885bcf	0.26632544
122	0x3e53eac5	0.20695026
123	0x3f22a727	0.63536304
124	0xbe5a5c96	-0.21324381
125	0xbfd6f32f	-1.6792964
126	0x3f04ead3	0.51920813
127	0x3e03ca0d	0.12870045
128	0x3faa70b4	1.3315644
129	0x3ed81d3d	0.42209807
130	0xbe841c0b	-0.25802645
131	0xc010b235	-2.260877
132	0x3f828965	1.019818
133	0x3ec05689	0.3756602
134	0x3dfda890	0.12385666
135	0x3e8accb4	0.271093
136	0xbe1092df	-0.14118527
137	0x3e7b0f50	0.2451756
138	0x3e42c0c0	0.19018841
139	0x3fbf0003	1.4921879
140	0xbc959243	-0.01825822
141	0x3f840caf	1.0316371
142	0xbe77a7fe	-0.24185178
143	0x3d0313a0	0.032001138
144	0xbe341384	-0.1758557
145	0x3dbc8f6f	0.09207045
146	0x3e2afffb	0.16699211
147	0xbfc43017	-1.5327176
148	0x3ec6728d	0.3875927
149	0x3f4b8e72	0.7951423
150	0xbebdb2ac	-0.37050378
151	0xbf71e9e9	-0.94497544
152	0xbc51db51	-0.012808637
153	0x3eccb961	0.39985183
154	0xbf8ae399	-1.0850707
155	0x3f08f0ef	0.53492635
156	0xbf1c577a	-0.6107098
157	0xbf1472cc	-0.57987666
158	0xbfb0fb2d	-1.3826653
159	0xbf5235fe	-0.82113636
160	0x3f143e93	0.5790798
161	0xbf2f7cce	-0.6854981
162	0x3f25350c	0.6453407
163	0x3fa16a07	1.2610482
164	0x3daccdd8	0.08437699
165	0x3fc46a91	1.5345021
166	0xbf8c0fb5	-1.0942293
167	0xbfd6dcff	-1.6786193
168	0x3c5c2571	0.013436661
169	0xbed2910f	-0.41126296
170	0xbdf0ae0b	-0.11751946
171	0xbc74778c	-0.01492108
172	0xbf01979d	-0.5062197
173	0x3ea90e03	0.33018503
174	0xbfb956c6	-1.4479606
175	0x3f4588c2	0.771618
176	0xbf6e8dd2	-0.9318515
177	0xbf4f5452	-0.8098804
178	0x3f4be1cd	0.7964142
179	0xbe8f1d0a	-0.27951843
180	0x3dcaf02e	0.09909092
181	0xbe7782a7	-0.24170934
182	0xbf31db12	-0.694749
183	0x3fae1c85	1.3602453
184	0xbd443d15	-0.047909815
185	0xc0012296	-2.017736
186	0x3e831c02	0.25607306
187	0xbf43965e	-0.7640132
188	0xc0102d99	-2.252783
189	0xbd7f8168	-0.06237927
190	0x3fada47b	1.356582
191	0x3f42c73c	0.7608526
192	0xbeace822	-0.33770853
193	0x3f2d570f	0.67710966
194	0x3fbd81ec	1.4805274
195	0xc009bfc3	-2.1523292
196	0xbeee7725	-0.46575275
197	0x3f8719ca	1.0554745
198	0x3e0f01fe	0.13965604
199	0xbda8f524	-0.08249882
200	0xbec413cb	-0.3829635
201	0x3e458e4e	0.19292566
202	0x3f1a19d1	0.6019564
203	0x3e5e1e89	0.21691336
204	0xbeba1f4a	-0.36351997
205	0x3daf971a	0.08573742
206	0x3f2ebf51	0.68260676
207	0xbed0c8d8	-0.40778232
208	0xbf33c159	-0.702169
209	0x3f23ce7f	0.63986963
210	0x3de056c3	0.109540485
211	0xbfa42a64	-1.2825437
212	0xbe3bdaff	-0.18345259
213	0xbf63e63a	-0.8902317
214	0x3f84584f	1.033945
215	0x3f8e652d	1.1124626
216	0x3f162aff	0.58659357
217	0xbf9cd6ac	-1.2253013
218	0xbfa6c65d	-1.3029286
219	0x3f0c28a2	0.547495
220	0xbfb436b3	-1.4079193
221	0xbf06da7e	-0.5267714
222	0x40136cc9	2.3035147
223	0x3e52f6cd	0.2060196
224	0x3f28def9	0.6596523
225	0x3ffe1498	1.9850035
226	0xbe29c697	-0.16579662
227	0xbf2d2bb2	-0.676448
228	0xbf220f4d	-0.633046
229	0x3f7c2da1	0.98507124
230	0x3fe82a6b	1.8137945
231	0xbf342a72	-0.70377266
232	0xbf96f42e	-1.1793268
233	0x3ed502b9	0.4160364
234	0x3fa389b9	1.2776405
235	0x3fce21db	1.6104082
236	0x3fb57b03	1.4178165
237	0x3f4a7d4a	0.79097426
238	0xbf9833e6	-1.1890838
239	0x3fbe3c7c	1.4862208
240	0xbfdf6587	-1.7452859
241	0x3e48b7a4	0.19601303
242	0x3fe79b25	1.8094221
243	0x3ea72484	0.32645047
244	0xbf589338	-0.8459964
245	0xbecf8570	-0.40531492
246	0x3f8e7f3c	1.1132579
247	0xbfbd5af8	-1.4793386
248	0xbf111958	-0.56679296
249	0x3fbd69d3	1.479792
250	0x3f88deea	1.0693028
251	0xbe75d96d	-0.24008723
252	0xbebc4b97	-0.3677642
253	0xbf4a809e	-0.79102504
254	0x3fa2e199	1.2725097
255	0xbf3790d7	-0.71705383

rnn.weight_ih_l0 f4 [64, 20]
0	0x3dca6ac3	0.098836444
1	0xbd15c6f7	-0.0365667
2	0x3d3a7b10	0.045527518
3	0xbe038f84	-0.12847716
4	0xbd9e5a64	-0.077320844
5	0xbcf10483	-0.029421097
6	0x3dc51773	0.09623613
7	0xbcb70c69	-0.022344785
8	0xbdbd5545	-0.092447795
9	0xbe149355	-0.14509328
10	0x3dd67473	0.1047143
11	0xbe0e8fa2	-0.13921979
12	0x3cc81873	0.02442572
13	0x3e449dca	0.19200817
14	0xbc395e11	-0.011313931
15	0x3cf0e78c	0.029407285
16	0x3d66331e	0.056201093
17	0xbcfed90c	-0.031109355
18	0xbdd80092	-0.10546984
19	0xbd3e04ea	-0.046391405
20	0x3d851c6c	0.06499562
21	0x3d19cfa1	0.037551526
22	0xbdb0531a	-0.086096
23	0x3dca8f18	0.09890574
24	0xbdd26a1f	-0.10274147
25	0xbd5b880b	-0.053596538
26	0x3aae9c80	0.0013321787
27	0x3d87b102	0.066255584
28	0xbd3b85f2	-0.045782037
29	0xbca20ecd	-0.019782448
30	0x3d5fcaa2	0.054636605
31	0x3de82855	0.11335818
32	0x3d468459	0.04846606
33	0xbb720746	-0.0036930605
34	0xbdcb63f3	-0.09931173
35	0x3d8a5171	0.06753815
36	0x3da3f914	0.08006492
37	0xbd81fc73	-0.06346979
38	0xbd4c9dce	-0.04995518
39	0x3d329923	0.043603074
40	0xbd1ef5e2	-0.03880871
41	0xbe2418f2	-0.16025141
42	0x3cbf2f21	0.023337903
43	0x395f12b3	0.00021273903
44	0xbcf90cee	-0.030401673
45	0xbe017caa	-0.12645212
46	0xbda5b02c	-0.08090243
47	0x3e1857c4	0.1487723
48	0xbda733c1	-0.08164168
49	0x3d488b58	0.048961014
50	0xbd6e655a	-0.058202125
51	0xbdec6007	-0.11541753
52	0x3c4beee7	0.0124470955
53	0xbd563a56	-0.052301727
54	0xbd32c7ea	-0.043647684
55	0x3cd77e68	0.026305392
56	0x3ded62ae	0.11591087
57	0x3c6af591	0.014340774
58	0xbdc0b5fa	-0.09409709
59	0xbdea8edd	-0.1145303
60	0x3dcb69e0	0.099323034
61	0xbcded1cf	-0.027199654
62	0x3e3b8a55	0.18314488
63	0xbd223106	-0.039597534
64	0xbd2adbfc	-0.0417137
65	0xbd1c964c	-0.03822927
66	0x3d747bd1	0.059688393
67	0x3d92b4e1	0.07163406
68	0xbdb23568	-0.08701593
69	0xbd21e7ab	-0.039527576
70	0x3d2eb1fc	0.042650208
71	0xbd1147a1	-0.0354687
72	0xbd594592	-0.053044863
73	0x3e327577	0.17427622
74	0xbcdfdfe9	-0.027328448
75	0xbd89900a	-0.067169264
76	0x3d36ad63	0.04459895
77	0xbd3c1cc0	-0.045925856
78	0xbd5760ed	-0.05258267
79	0xbe2663af	-0.16248964
80	0x3d600ad5	0.05469783
81	0xbc6754b1	-0.014119313
82	0x3bd30ec1	0.006440968
83	0x3c951388	0.01819779
84	0x3afcf603	0.0019299391
85	0x3d91c204	0.07117084
86	0xbe0ef329	-0.13959946
87	0xbd72c381	-0.05926848
88	0xbd95ffad	-0.07324157
89	0x3dbcc267	0.09216767
90	0xbdecc4aa	-0.11560948
91	0xb90af539	-0.00013252058
92	0x3d3140ec	0.043274805
93	0xbe532054	-0.20617801
94	0x3dd62684	0.10456565
95	0xbdd34623	-0.10316112
96	0xbda5f45e	-0.0810325
97	0x3d8e74ec	0.06955895
98	0x3e20acfd	0.1569099
99	0x3d94f4a5	0.07273225
100	0xbdc0be7a	-0.094113305
101	0x3dfe9809	0.12431342
102	0xbe060784	-0.13088804
103	0x3d99a6a3	0.075024866
104	0x3ca0bcac	0.019621216
105	0x3dde7e22	0.10863902
106	0xbdc8926d	-0.097935535
107	0xbd99b2fa	-0.0750484
108	0xbcedb4c4	-0.02901686
109	0x3e353e5e	0.17699572
110	0xbe2fc60a	-0.1716539
111	0x3ddeda73	0.1088151
112	0x3da164c1	0.078805454
113	0xbe7b4971	-0.24539734
114	0xbd48e414	-0.049045637
115	0x3d636713	0.05551822
116	0xbdae9928	-0.08525306
117	0x3d8cd428	0.06876403
118	0x3e32bf34	0.1745575
119	0x3d325d75	0.04354616
120	0x3de708c0	0.11280966
121	0xbe16fd1e	-0.14744994
122	0xbc69bfaf	-0.014266892
123	0xbdc6c189	-0.09704883
124	0xbd5c4d4f	-0.053784665
125	0xbcce6617	-0.025195165
126	0xbd00142e	-0.031269245
127	0x3dd9492b	0.10609659
128	0x3da4da56	0.08049457
129	0xbd768d1e	-0.060193174
130	0x3c4d5caa	0.0125343
131	0xbdb6ad6a	-0.08919795
132	0x3ddf4dd1	0.10903514
133	0x3e284f63	0.16436534
134	0xbd1b0fc6	-0.03785684
135	0x3d543f20	0.051818013
136	0x3be666e0	0.0070313066
137	0xbe3ff595	-0.18746026
138	0xbde7800c	-0.1130372
139	0x3d2f5a57	0.042810764
140	0x3d3e89dd	0.046518195
141	0xbd6d178d	-0.057883788
142	0x3de00674	0.10938731
143	0xba337e4d	-0.00068471284
144	0xbd832069	-0.06402666
145	0xbd2de473	-0.042454194
146	0x3d8d4f64	0.06899908
147	0x3d64ac4f	0.05582839
148	0xbd15566f	-0.036459383
149	0xbddf2904	-0.10896495
150	0x3d923c6a	0.07140429
151	0xbd3176d0	-0.0433262
152	0xbc22c8c3	-0.009935561
153	0x3df2d3ae	0.11856781
154	0xbdd4ee6c	-0.10397038
155	0x3d18abdc	0.037273273
156	0xbd96feef	-0.073728435
157	0xbd79a896	-0.06095179
158	0x3d8d1f00	0.068906784
159	0x3c686355	0.014183839
160	0xbd841487	-0.06449228
161	0xbdfcd350	-0.12344992
162	0xbd15f465	-0.036610026
163	0xbe3858ab	-0.18002574
164	0xbda948cc	-0.08265838
165	0xbdaab213	-0.08334746
166	0x3d4959d3	0.04915793
167	0x3dde6644	0.10859349
168	0xbd2ebeca	-0.04266242
169	0x398c51db	0.00026763868
170	0x3cbe9129	0.023262577
171	0x3c89a384	0.016801603
172	0x3e0b0ccf	0.13579105
173	0x3c2f1835	0.010686924
174	0x3c5d5d00	0.013510942
175	0xbd0a98be	-0.033837073
176	0xbba081db	-0.0048982925
177	0xbdba0054	-0.09082094
178	0x3d118f27	0.03553691
179	0x3c79e917	0.015253327
180	0xbd85f967	-0.0654171
181	0xbdf262e5	-0.11835269
182	0x3d6402eb	0.055666845
183	0x3d6b5065	0.057449717
184	0x3d7256ad	0.05916469
185	0xbda9ae20	-0.08285165
186	0xbb44c4ca	-0.0030024522
187	0x3ccc53fd	0.024942392
188	0xbd3af5f8	-0.04564473
189	0x3da118fc	0.078660935
190	0xbd3d7f3f	-0.04626393
191	0xbd33465d	-0.043768276
192	0xbd6043ca	-0.05475215
193	0xbd2932f2	-0.04130835
194	0x3ddbeb13	0.10738196
195	0x3d905f01	0.070493706
196	0x3c953077	0.018211586
197	0x3c445a5f	0.011984437
198	0x3db3ddac	0.08782515
199	0x3d1cf36c	0.038318083
200	0xbdd4eef3	-0.103971384
201	0x3b18f5f3	0.0023339957
202	0xbd9dec00	-0.07711029
203	0x3e0abc44	0.1354838
204	0x3d40727e	0.04698419
205	0x3de87503	0.11350443
206	0x3d057015	0.032577593
207	0xbe373aad	-0.17893477
208	0x3d865ee9	0.065610714
209	0x3dcfeaf0	0.10152233
210	0xbd6c35be	-0.05766844
211	0x3cf5d4fc	0.030008785
212	0x3cc87f65	0.024474809
213	0xbd0013df	-0.03126895
214	0x3d98dbad	0.07463775
215	0xbd2e322d	-0.04252832
216	0xbdbfa19a	-0.09356995
217	0x3e1da5c1	0.15395261
218	0x3d22cc5e	0.03974568
219	0xbd74850f	-0.059697207
220	0x3dfa2fe0	0.12216163
221	0xbda790a6	-0.081818864
222	0x3e128f13	0.14312391
223	0x3dad60e8	0.08465749
224	0x3ceb0b06	0.02869178
225	0xbdd6608b	-0.10467633
226	0x3e0710ae	0.13189957
227	0x3e2f97d1	0.17147757
228	0x3dd90d72	0.105982676
229	0xbb561011	-0.0032663385
230	0x3d426907	0.047463443
231	0xbd3d410d	-0.046204615
232	0x3d0ef905	0.034905452
233	0x3de54730	0.111952186
234	0xbd976f23	-0.073942445
235	0x3d005235	0.0313284
236	0x3df6c3fa	0.12049098
237	0x3bdca0e2	0.006733046
238	0xbe50ff63	-0.20409922
239	0xbcd874c8	-0.026422873
240	0xbc3b9a70	-0.011450395
241	0x3e24f93d	0.16110702
242	0xbe1ab346	-0.1510745
243	0xbd3b3854	-0.045708016
244	0x3cc74a50	0.024327427
245	0x3da8ef5d	0.0824878
246	0xbbf64705	-0.0075157904
247	0x3d68147d	0.056660164
248	0xbe075fc5	-0.13220127
249	0x3cbf5a01	0.023358347
250	0xbc54bbe9	-0.012984254
251	0xbcafb2d3	-0.021447575
252	0x39567d2f	0.00020455265
253	0xbe346d8c	-0.17619914
254	0x3d658369	0.056033526
255	0x3c2a89c8	0.010408826

rnn.weight_hh_l0 f4 [64, 64]
0	0x3befe558	0.007321041
1	0x3e263898	0.16232526
2	0x3df60b5f	0.120138876
3	0x3e0e7745	0.13912685
4	0x3e2fc0d4	0.17163402
5	0x3e074520	0.13209963
6	0xbd971091	-0.07376207
7	0xbdaac463	-0.08338239
8	0xbe2b05b0	-0.16701388
9	0xbd5319f7	-0.051538434
10	0xbd5bee7a	-0.053694226
11	0x3da3f509	0.08005721
12	0xbd783dc8	-0.060605794
13	0xbdef74c1	-0.11692191
14	0x3bf65ff0	0.007518761
15	0xbd80f7f8	-0.06297296
16	0xbcaa5e8f	-0.020797042
17	0x3dc0e927	0.0941947
18	0x3e1e9e24	0.15490013
19	0x3e1ad255	0.15119298
20	0x3e09589a	0.13412705
21	0xbda7e5f5	-0.08198158
22	0x390e8cbe	0.00013594606
23	0x3d5cdfb2	0.05392427
24	0xbe0d6c04	-0.13810736
25	0x3e1bdd51	0.15221144
26	0xbd3576ab	-0.044302624
27	0xbc6ec6b5	-0.014573743
28	0x3db27d0e	0.087152585
29	0x3cb6adab	0.022299608
30	0xbbac76ed	-0.0052632005
31	0xbc77e459	-0.015130126
32	0xbd7cc1bc	-0.061708197
33	0x3e20c857	0.15701424
34	0x3e293466	0.16523895
35	0x3cb66375	0.022264222
36	0xbe1eb99e	-0.15500495
37	0x3cf239a0	0.029568493
38	0x3c51200f	0.012763991
39	0xbd7bbf24	-0.061461583
40	0xbe1d8b27	-0.15385114
41	0xbe3fe1ce	-0.18738481
42	0xbd01a94a	-0.031655587
43	0xbda5a2d8	-0.080877006
44	0x3d4c3d95	0.049863417
45	0xbe0a405e	-0.13501117
46	0x3e05af53	0.13055162
47	0x3cabf253	0.020989573
48	0x3c07bef6	0.008285275
49	0x3d6c7f6e	0.057738714
50	0xbda61d34	-0.08111039
51	0xbd742503	-0.05960561
52	0xbd0439e4	-0.03228177
53	0x3d5b4660	0.05353391
54	0xbe4f9159	-0.2027029
55	0x3da9a5ef	0.082836024
56	0xbcd544c4	-0.026033767
57	0xbe111f6b	-0.14172141
58	0xbcab2678	-0.020892367
59	0xbda6a006	-0.08135991
60	0x3ae2633b	0.0017272005
61	0x3d26e812	0.040748663
62	0xbd6b0d98	-0.05738601
63	0xbd9ebaf5	-0.07750503
64	0x3e13bd14	0.14427596
65	0x3def4664	0.11683348
66	0xbcc19fdd	-0.023635799
67	0xbd91ed6a	-0.07125361
68	0xbe11970c	-0.14217776
69	0x3d1155fb	0.035482388
70	0x3db79125	0.08963231
71	0x3e14f8a8	0.1454798
72	0x3dc5952e	0.096475944
73	0x3de15cd9	0.110040374
74	0x3c9a7fdd	0.018859798
75	0x3e0cfd0d	0.13768406
76	0xbd488fbd	-0.048965205
77	0x3e32cfad	0.17462035
78	0x3de20856	0.11036746
79	0x3d15aade	0.036539905
80	0x3c8cd429	0.01719101
81	0x3d0ab5d3	0.033864807
82	0xbdab16f5	-0.08353988
83	0xba45c922	-0.0007544925
84	0xbccb2281	-0.024796726
85	0xbd3856c6	-0.04500463
86	0x3e2acc04	0.16679388
87	0xbcf6c85b	-0.030124834
88	0x3da6cd2b	0.081446014
89	0xbe06b877	-0.13156305
90	0x3d2d2f18	0.04228124
91	0xbd5548be	-0.052071325
92	0xbe3a0687	-0.18166552
93	0xbe109efe	-0.1412315
94	0x3d2fd089	0.042923484
95	0x3d8401a1	0.06445623
96	0x3d7aeaa8	0.061258942
97	0xbe0d60e5	-0.13806494
98	0x3c697f7d	0.014251587
99	0xbad1d65f	-0.0016009322
100	0x3e0f522f	0.13996194
101	0x3e192c0a	0.14958206
102	0x3cc96892	0.024585996
103	0x3c3c0555	0.011475881
104	0xbd0c4a63	-0.03425063
105	0x3c08bc20	0.008345634
106	0x3c731750	0.014837101
107	0x3cf6b649	0.030116217
108	0xbe029bad	-0.12754698
109	0xbd72fdb0	-0.059323967
110	0xbc7313e5	-0.014836286
111	0xbd9868a7	-0.07441836
112	0xbda62560	-0.081125975
113	0x3d97c296	0.07410161
114	0x3e11875b	0.1421179
115	0xbd0d05cf	-0.034429368
116	0xbe57dbd6	-0.21079955
117	0x3da671de	0.08127187
118	0xbd0d2470	-0.034458578
119	0xbe2ca57c	-0.16860002
120	0xbd9d3bdc	-0.07677433
121	0x3c3d6a2e	0.01156096
122	0xbd8bfd24	-0.06835392
123	0xbabacda5	-0.0014251961
124	0x3c993a38	0.018704519
125	0xbe2bde1d	-0.16783948
126	0x3af17741	0.0018422381
127	0x3ddc722b	0.10763963
128	0x3cabc934	0.020969965
129	0xbdd4e978	-0.10396093
130	0xbd9d602b	-0.07684358
131	0xbd1243ba	-0.03570912
132	0xbd7c07cd	-0.061530877
133	0xbc3bd424	-0.0114641525
134	0xbd904997	-0.07045286
135	0x3e2cca61	0.16874076
136	0x3dda5862	0.10661389
137	0xbdaae032	-0.08343543
138	0xbe30d241	-0.17267706
139	0xbd985fb0	-0.07440126
140	0xbc984995	-0.018589774
141	0x3d317552	0.043324776
142	0x3e143459	0.14473094
143	0xbbe14333	-0.006874466
144	0x3e488194	0.1958068
145	0x3d901d37	0.07036822
146	0x3e134fe8	0.1438595
147	0x3d3c66af	0.045996364
148	0xbde1cde2	-0.11025597
149	0xbe236771	-0.15957429
150	0x3ddffe8b	0.10937222
151	0xbd4fb9de	-0.050714366
152	0x3d995bd0	0.07488215
153	0xbe265ad0	-0.1624558
154	0x3ca940ae	0.020660724
155	0x3c623345	0.013806169
156	0xbe414e51	-0.18877532
157	0x3ccc3113	0.024925744
158	0x3c6eb3df	0.014569252
159	0x3d79dc6a	0.06100122
160	0x3e0c6ed3	0.13714151
161	0x3da209f8	0.07912058
162	0xbd515436	-0.0511057
163	0xbdc3b866	-0.095566556
164	0xbe22d644	-0.15902048
165	0x3cc2b11e	0.023766097
166	0x3cfb6931	0.030689808
167	0x3dfbe5b9	0.122996755
168	0x3e087f45	0.133298
169	0x3e44ef75	0.1923197
170	0x3d07cde5	0.03315534
171	0xbc6aa9b4	-0.014322687
172	0xbdbc7f38	-0.092039526
173	0xbe30cd46	-0.17265806
174	0x3dcb15b2	0.099162474
175	0xbdfb7ec9	-0.12280042
176	0x3c5c84a3	0.013459357
177	0x3d7a201d	0.06106578
178	0xbdcff98b	-0.101550184
179	0xbd52bca0	-0.051449418
180	0xbd851f9c	-0.0650017
181	0x3d1037c8	0.035209447
182	0x3c06e99d	0.008234409
183	0xbe30f0ad	-0.1727931
184	0xbd1a8c74	-0.037731603
185	0x3acecf78	0.0015778383
186	0x3dcb6cb5	0.099328436
187	0xbdb363e8	-0.0875929
188	0x3dc710bc	0.09719989
189	0x3b14b48c	0.0022690622
190	0xbe28a0e1	-0.1646762
191	0xbe06b98f	-0.13156722
192	0xbe103eb9	-0.14086427
193	0x3dfc9c22	0.123344675
194	0xbd1c4512	-0.038151808
195	0x3d4c49e9	0.049875174
196	0x3da9631d	0.082708575
197	0xbd84d8c5	-0.06486658
198	0x3d7e2955	0.062051136
199	0x3d6196bb	0.05507539
200	0x3dc6fef7	0.097165994
201	0xbe11fe47	-0.14257155
202	0x3d90bc96	0.0706722
203	0xbd711057	-0.058853474
204	0x3d949a40	0.07255983
205	0x3dff4ac4	0.12465432
206	0x3d97d111	0.07412923
207	0xbcedb964	-0.029019065
208	0x3d8838ca	0.06651457
209	0xbda2a41f	-0.0794146
210	0xbd92c497	-0.07166403
211	0xbb1496ae	-0.002267282
212	0xbdc8ae97	-0.09798925
213	0x3df3cf27	0.119047455
214	0x3e34d680	0.1765995
215	0xbe1491ba	-0.14508715
216	0xbc2ac6fb	-0.010423417
217	0xbdea569b	-0.114423
218	0xbe21358f	-0.15743087
219	0xbbbdd1e1	-0.005792842
220	0xbe4d60ce	-0.2005646
221	0x3e18e0b8	0.14929473
222	0x3dc35882	0.09538366
223	0xbe126b6b	-0.14298789
224	0xbd700c9d	-0.05860578
225	0xbd6d2563	-0.057896983
226	0x3e324453	0.17408876
227	0xbbfc12b6	-0.00769266
228	0xbdfa99bf	-0.12236356
229	0xbd564f4d	-0.05232172
230	0x3dd239c0	0.10264921
231	0x3e26af5c	0.16277832
232	0xbd960456	-0.07325046
233	0x3ccecd9a	0.025244523
234	0x3e4f6d3c	0.20256513
235	0x3a90f962	0.001106065
236	0xbdaeec66	-0.08541183
237	0x3dcd419f	0.10022282
238	0xbd9b64e1	-0.075876005
239	0x3e524c1e	0.20536849
240	0xbe0c07d6	-0.13674864
241	0x3d6a8255	0.0572532
242	0x3dde70d6	0.108613655
243	0x3c5e987a	0.013586158
244	0xbd3e1679	-0.04640815
245	0x3e2f1955	0.17099507
246	0x3d2c6892	0.042091914
247	0xbe1ed8a7	-0.15512334
248	0x3c2cbabd	0.010542569
249	0x3b7f01cb	0.003891098
250	0x3d085bd5	0.033290703
251	0x3cb58c42	0.022161607
252	0xbdf5a333	-0.119940184
253	0xbddaabee	-0.10677324
254	0xbd232cb6	-0.03983756
255	0xbe0f9cac	-0.1402461

rnn.bias_ih_l0 f4 [64]
0	0xbd0b921f	-0.0340749
1	0x3d6d08bc	0.057869658
2	0x3db369b8	0.087603986
3	0x3dd84c6d	0.10561452
4	0xbd38210d	-0.044953395
5	0xbd501d29	-0.05080906
6	0x3d3944f1	0.045231763
7	0x3cea2e07	0.0285864
8	0xbdc72412	-0.09723677
9	0x3dcb91f5	0.099399485
10	0xbd5ca9ec	-0.053872988
11	0x3e14e912	0.14542034
12	0xbddb87d2	-0.10719265
13	0xbd2b1fff	-0.04177856
14	0x3ddc246a	0.10749133
15	0x3be16d92	0.006879517
16	0x3d870f2a	0.06594689
17	0x3da115db	0.07865497
18	0x3d64ee19	0.05589113
19	0x3d82ebce	0.063926324
20	0xbd8d9fa2	-0.06915213
21	0xbdec6907	-0.1154347
22	0x3e40f818	0.1884464
23	0x3c66cd29	0.014087
24	0xbccd5803	-0.025066381
25	0xbca479fd	-0.0200777
26	0xbdcb0775	-0.09913532
27	0x3d5f5e7a	0.05453346
28	0xbc006c6b	-0.007838349
29	0x3d8360e3	0.06414964
30	0x3de62070	0.11236656
31	0x3dd1f3bf	0.10251569
32	0x3d033475	0.03203245
33	0x3dd30074	0.10302821
34	0xbda6ebf7	-0.081504755
35	0x3db5e19c	0.08880922
36	0x3e344de0	0.17607832
37	0x3ad9dcbd	0.0016621571
38	0xbd4a53f3	-0.049396466
39	0xbdb6ef15	-0.0893232
40	0xbdadd6d2	-0.08488239
41	0xbdc860db	-0.09784099
42	0xbe1d6cfe	-0.15373608
43	0xbc8c7144	-0.017143853
44	0xbd292b0f	-0.04130083
45	0x3db6f587	0.089335494
46	0x3d60c511	0.054875437
47	0x3d0bccc0	0.03413081
48	0xbe34a197	-0.17639767
49	0xb9d8125d	-0.00041212412
50	0x3de008cd	0.109391786
51	0x3ccc4806	0.024936687
52	0xbb5b18b1	-0.0033431465
53	0xbce37419	-0.02776532
54	0xbe1620c0	-0.1466093
55	0xbdf5e870	-0.120072246
56	0xbd24fdf9	-0.04028127
57	0x3e2b9ccd	0.16759034
58	0xbe023878	-0.12716854
59	0x3cdab7e4	0.026699014
60	0x3ddc1f87	0.10748201
61	0xbdd877c7	-0.10569721
62	0x3da40ceb	0.080102764
63	0xbad2da96	-0.0016086872

rnn.bias_hh_l0 f4 [64]
0	0x3e1a0f9e	0.1504502
1	0x3d4c98b4	0.049950317
2	0xbd1ad86c	-0.037804052
3	0xbd51952c	-0.051167652
4	0xbd8b82a8	-0.0681203
5	0x3d3753c3	0.044757616
6	0x3dc3f624	0.09568432
7	0xbd8415a8	-0.06449443
8	0xbc7ee7b2	-0.01555817
9	0x3d3ef5a8	0.046620995
10	0xbe27c314	-0.1638301
11	0x3e3aca81	0.18241312
12	0xbe14a8bd	-0.14517494
13	0x3e2549b5	0.16141398
14	0x3e3455d6	0.17610869
15	0x3d43768f	0.04772049
16	0xbde6e182	-0.11273481
17	0xbd930013	-0.071777485
18	0x3d2961a3	0.04135288
19	0x3c24dedb	0.0100628985
20	0xbe02e9a0	-0.12784433
21	0x3d5b3116	0.05351361
22	0x3de40d41	0.111353405
23	0x3d3ad21a	0.045610525
24	0x3e336d03	0.17522053
25	0xbccdc3a0	-0.025117695
26	0x3cc1ee93	0.023673331
27	0xbc8e254a	-0.017351765
28	0xbb5cd800	-0.0033698082
29	0xbdf2527b	-0.11832138
30	0x3e000136	0.12500462
31	0x3ce2b62d	0.027674759
32	0x3ddd4c71	0.10805596
33	0x3dae5a14	0.08513275
34	0x3c8084f6	0.0156884
35	0x3da299e3	0.07939508
36	0x3e146d2e	0.14494774
37	0xbcfab460	-0.030603588
38	0xbe15c40f	-0.14625572
39	0xbe3201a2	-0.17383435
40	0x3bd29526	0.0064264713
41	0xbe1ed91b	-0.15512507
42	0xbda91b04	-0.08257106
43	0xbe01cce4	-0.12675816
44	0x3e34a7f9	0.17642201
45	0x3d55959d	0.052144635
46	0x3dd1b40d	0.1023942
47	0xbd943ae1	-0.07237793
48	0xbd93da0f	-0.07219326
49	0xbe031954	-0.1280263
50	0xbc3ba80b	-0.011453639
51	0xbda5ae08	-0.080898345
52	0x3dffcc3d	0.12490127
53	0x3e18684c	0.14883536
54	0xbc4f5326	-0.0126541015
55	0xbd55522c	-0.05208032
56	0xbc10f4be	-0.008847414
57	0x3d8f95ae	0.07010971
58	0x3dc8d279	0.098057695
59	0xbe464796	-0.19363245
60	0xbd55eb49	-0.05222634
61	0xbe043a03	-0.12912755
62	0x3dfce410	0.12348187
63	0xbe06c950	-0.13162732

classify.weight f4 [6, 64]
0	0xbdc6b907	-0.0970326
1	0x3e0544c3	0.13014512
2	0x3e1cd17b	0.15314285
3	0xbe1fcc61	-0.15605308
4	0xbca6acf8	-0.02034615
5	0xbe5bd410	-0.21467614
6	0x3e59ca4b	0.21268575
7	0xbe1bd24f	-0.15216945
8	0x3c62ab69	0.013834813
9	0x3e159b62	0.14610055
10	0x3df668dd	0.1203172
11	0x3e80aba3	0.25130948
12	0xbdd59aeb	-0.10429939
13	0x3cd5c7c0	0.026096225
14	0x3e00d6e4	0.12581974
15	0xbe790724	-0.2431913
16	0xbdbe287b	-0.09285065
17	0xbe8168e0	-0.25275326
18	0xbe050d6d	-0.12993403
19	0xbe889fba	-0.26684362
20	0x3e5c7466	0.21528777
21	0x3e671418	0.22566259
22	0xbbfeb4db	-0.0077730245
23	0x3e42e4a3	0.1903253
24	0x3e483c08	0.1955415
25	0x3e4a11f1	0.19733407
26	0xbe6a14c4	-0.22859484
27	0x3e4cd9ba	0.20004931
28	0x3e1a71da	0.15082493
29	0x3df80cb7	0.121118
30	0x3d81b769	0.06333811
31	0xbc19061a	-0.009339834
32	0xbe1079d2	-0.14108971
33	0x3c6791d5	0.01413389
34	0xbd8bfba5	-0.06835107
35	0x3db51767	0.08842354
36	0x3dbd9682	0.09257223
37	0xbe20844c	-0.15675467
38	0x3b4d716a	0.0031348118
39	0xbe498e79	-0.19683255
40	0xbded926d	-0.11600194
41	0x3e1e1569	0.15437855
42	0x3da3f50c	0.08005723
43	0xbe32969a	-0.17440262
44	0xbe451f74	-0.1925028
45	0x3ddb730d	0.107153036
46	0xbe328e67	-0.17437135
47	0x3e235016	0.15948519
48	0x3db248fc	0.08705327
49	0xbe41840b	-0.18898027
50	0xbe757732	-0.2397125
51	0xbe3b7b25	-0.18308695
52	0x3e485398	0.19563138
53	0x3e11b456	0.14228949
54	0xbdf6b492	-0.1204616
55	0x3e1ccff1	0.15313698
56	0xbe0399f7	-0.12851702
57	0x3e414b8e	0.18876478
58	0xbe09f8dc	-0.13473839
59	0xbdbcd5ef	-0.09220492
60	0xbe53c64a	-0.2068111
61	0xbe6f20be	-0.23352334
62	0x3e8415ad	0.25797787
63	0xbe60c728	-0.21950972
64	0x3e4f639f	0.20252846
65	0xbdb1acf5	-0.08675567
66	0xbe5abe4d	-0.21361656
67	0xbde5b803	-0.11216738
68	0xbd7818a5	-0.060570378
69	0xbe628878	-0.22122371
70	0xbe573d92	-0.21019581
71	0xbd015a3f	-0.031580206
72	0xbcad0dda	-0.021124769
73	0x3e776f28	0.24163496
74	0xbd585f5b	-0.052825313
75	0x3e4db459	0.20088328
76	0xbe6fe1c6	-0.2342597
77	0x3d3dbbc9	0.046321664
78	0x3e323ece	0.1740677
79	0x3d593e76	0.053038083
80	0x3e1e3463	0.15449671
81	0x3e40fcc1	0.18846418
82	0x3dc5acd0	0.09652102
83	0x3c729b75	0.014807572
84	0xbe0d6ca1	-0.1381097
85	0xbe6b1032	-0.22955397
86	0x3e4ac9be	0.19803521
87	0x3e6b6afc	0.2299003
88	0x3e10f368	0.14155352
89	0xbe58111e	-0.2110028
90	0x3da38c8d	0.07985792
91	0xbe110d2c	-0.14165181
92	0x3d14a8f3	0.036293935
93	0xbe615966	-0.22006759
94	0x3e3238e2	0.17404512
95	0x3e74cbf6	0.2390593
96	0x3e7cde5e	0.24694201
97	0xbe8525bb	-0.2600535
98	0xbd44c779	-0.048041794
99	0xbe361281	-0.17780496
100	0x3d84f171	0.06491364
101	0xbe42c3a4	-0.19019943
102	0x3ce2215c	0.027603798
103	0xbe3db628	-0.18526518
104	0x3e7c8258	0.24659097
105	0xbd1da09d	-0.03848325
106	0xbe037443	-0.12837319
107	0x3da37692	0.079816
108	0x3e8a5ed4	0.27025473
109	0xbba8154f	-0.0051294933
110	0x3e37ec61	0.17961265
111	0xbe342fbc	-0.17596334
112	0xbe57b9a4	-0.2106691
113	0xbe4534c4	-0.1925841
114	0xba3d46b5	-0.0007220314
115	0xbe33e07c	-0.17566103
116	0xbdfc44b1	-0.12317789
117	0xbe82c91d	-0.25544062
118	0x3e395766	0.18099746
119	0xbe220bf5	-0.15824874
120	0x3e5ed1a5	0.2175966
121	0x3e4544c8	0.19264519
122	0x3e1d2c25	0.15348871
123	0xbd75e3d3	-0.060031723
124	0xbc146901	-0.009058238
125	0x3e317590	0.17330003
126	0x3e653793	0.22384481
127	0xbccffa9f	-0.02538806
128	0x3e361fa2	0.17785504
129	0x3da695b3	0.081340216
130	0x3e4c2e34	0.199395
131	0x3e5891e2	0.211494
132	0x3e6a009e	0.22851798
133	0x3e3ecca0	0.18632746
134	0x3d38f0b9	0.045151446
135	0xbe78dc22	-0.24302724
136	0x3dc54bb4	0.0963358
137	0xbd539d0b	-0.05166344
138	0xbc3fbfaf	-0.011703416
139	0xbe009cc8	-0.12559807
140	0x3c2ff702	0.010740044
141	0xbe4968ef	-0.19668935
142	0xbe424eca	-0.18975368
143	0x3e7e70e6	0.24847755
144	0xbe488f9c	-0.19586033
145	0xbe6b77da	-0.22994938
146	0xbe84dfb0	-0.2595191
147	0xbd9c1d0e	-0.07622729
148	0x3e76f3d3	0.24116449
149	0xbd427601	-0.04747582
150	0xbddd9a0d	-0.108203985
151	0x3e53da05	0.20688637
152	0xbe397674	-0.18111593
153	0x3ce16103	0.02751208
154	0x3e68a9c1	0.22721006
155	0x3e39b132	0.18134001
156	0x3db151ec	0.086582035
157	0x3b2ebc1f	0.0026662422
158	0x3e2ac255	0.16675694
159	0x3e5a643a	0.21327296
160	0x3e16a562	0.14711526
161	0x3dc31a94	0.09526554
162	0x3e75927d	0.23981662
163	0x3dfa0267	0.122074895
164	0x3dd7159f	0.10502171
165	0x3e72f902	0.23727801
166	0xbe16930b	-0.1470453
167	0x3e1c04f4	0.15236264
168	0xbdc85264	-0.0978134
169	0xbd39fec2	-0.04540897
170	0xbe2b6f51	-0.16741683
171	0xbe1455e7	-0.14485894
172	0x3e63a7ca	0.22231975
173	0x3db012d7	0.085973434
174	0x3e85c70e	0.2612843
175	0x3dbc587b	0.09196564
176	0xbcb66164	-0.022263236
177	0x3e3bdec5	0.18346699
178	0x3dd6caed	0.10487924
179	0x3e2648b3	0.1623867
180	0x3dd6757d	0.10471628
181	0xbe4f9c4a	-0.20274463
182	0xbe33234c	-0.17493933
183	0x3e3249d5	0.17410977
184	0x3e66abee	0.22526523
185	0x3dd21915	0.1025869
186	0x3e23b2cf	0.15986179
187	0xbc4dcc69	-0.012560942
188	0x3d1db79f	0.038505193
189	0x3de2a41d	0.110664584
190	0xbd952781	-0.072829254
191	0x3e2dfb7f	0.1699047
192	0xbe60b19a	-0.2194275
193	0x3e72780b	0.23678605
194	0xbc91acb5	-0.017782548
195	0x3e3baf90	0.1832869
196	0x3e74423a	0.23853388
197	0x3e3ebe33	0.18627243
198	0xbe516e1c	-0.2045216
199	0x3e6252bf	0.22101878
200	0x3d49f073	0.049301576
201	0xbdff568f	-0.124676816
202	0xbd16017c	-0.03662251
203	0x3dbe0bb1	0.09279574
204	0xbdb0efff	-0.086395256
205	0x3e335989	0.17514624
206	0x3e2e90c0	0.17047405
207	0xbe500519	-0.20314445
208	0x3e00d8c4	0.1258269
209	0x3e3fc30f	0.18726753
210	0x3e3ea0dc	0.1861605
211	0x3db9a1b3	0.09064045
212	0xbb8ef2cd	-0.00436244
213	0x3e0ab4fe	0.13545606
214	0x3d5d3ebf	0.054014917
215	0xbdcfbc8f	-0.101433866
216	0xbcfb422c	-0.030671202
217	0x3dc5fd38	0.09667438
218	0xbe1b8563	-0.15187602
219	0xbe17110c	-0.14752597
220	0xbe79999f	-0.24375008
221	0x3e3d7d6d	0.18504877
222	0x3e5a73a6	0.21333179
223	0xbe0b3736	-0.1359528
224	0x3e495eda	0.19665089
225	0x3dd05826	0.10173063
226	0x3e61b38d	0.2204115
227	0x3e3d3448	0.18476975
228	0xbe4e985a	-0.20175305
229	0x3e723994	0.23654777
230	0x3e53f8d2	0.20700386
231	0x3e655835	0.2239693
232	0x3d1197e7	0.035545256
233	0x3e58db23	0.21177344
234	0x3e249492	0.160723
235	0x3e7451ea	0.23859373
236	0x3e17d53d	0.14827438
237	0xbdc716cc	-0.09721145
238	0x3d9f0103	0.07763865
239	0xbde36529	-0.11103279
240	0xbe190b44	-0.14945704
241	0x3e79c06e	0.24389812
242	0x3dffa11c	0.12481901
243	0x3e316b22	0.17326024
244	0xbe6965c1	-0.22792722
245	0x3e0c851a	0.13722649
246	0x3e670256	0.22559485
247	0xbdd2bbcc	-0.10289726
248	0xbdb7da6e	-0.08977209
249	0xbe2b6a4f	-0.16739772
250	0xbdc8bbb1	-0.09801424
251	0xbe422261	-0.18958427
252	0xbe05c1e8	-0.1306225
253	0xbe6f34cc	-0.23359984
254	0xbcad416f	-0.021149365
255	0xbe69cc04	-0.22831732

classify.bias f4 [6]
0	0xbd22a409	-0.039707217
1	0xbca5aefd	-0.020225042
2	0x3dc86285	0.09784416
3	0xbd9b469e	-0.075818285
4	0x3b7ad6ef	0.0038275083
5	0xbc748fe3	-0.014926883
