許家偉/week03/RNN-model.pth (torch, 47258 bytes, 7 tensors)

embedding.weight f4 [33, 64]
0	0x00000000	0.0
1	0x00000000	0.0
2	0x00000000	0.0
3	0x00000000	0.0
4	0x00000000	0.0
5	0x00000000	0.0
6	0x00000000	0.0
7	0x00000000	0.0
8	0x00000000	0.0
9	0x00000000	0.0
10	0x00000000	0.0
11	0x00000000	0.0
12	0x00000000	0.0
13	0x00000000	0.0
14	0x00000000	0.0
15	0x00000000	0.0
16	0x00000000	0.0
17	0x00000000	0.0
18	0x00000000	0.0
19	0x00000000	0.0
20	0x00000000	0.0
21	0x00000000	0.0
22	0x00000000	0.0
23	0x00000000	0.0
24	0x00000000	0.0
25	0x00000000	0.0
26	0x00000000	0.0
27	0x00000000	0.0
28	0x00000000	0.0
29	0x00000000	0.0
30	0x00000000	0.0
31	0x00000000	0.0
32	0x00000000	0.0
33	0x00000000	0.0
34	0x00000000	0.0
35	0x00000000	0.0
36	0x00000000	0.0
37	0x00000000	0.0
38	0x00000000	0.0
39	0x00000000	0.0
40	0x00000000	0.0
41	0x00000000	0.0
42	0x00000000	0.0
43	0x00000000	0.0
44	0x00000000	0.0
45	0x00000000	0.0
46	0x00000000	0.0
47	0x00000000	0.0
48	0x00000000	0.0
49	0x00000000	0.0
50	0x00000000	0.0
51	0x00000000	0.0
52	0x00000000	0.0
53	0x00000000	0.0
54	0x00000000	0.0
55	0x00000000	0.0
56	0x00000000	0.0
57	0x00000000	0.0
58	0x00000000	0.0
59	0x00000000	0.0
60	0x00000000	0.0
61	0x00000000	0.0
62	0x00000000	0.0
63	0x00000000	0.0
64	0xbf3cd2d6	-0.7375921
65	0xc0376071	-2.8652613
66	0xbfca8eab	-1.5824789
67	0x3ee08ede	0.43859
68	0xbe762d65	-0.24040754
69	0x3e0d7122	0.13812688
70	0x3fda6858	1.7063093
71	0x3f854078	1.0410299
72	0xbf0283ea	-0.50982535
73	0x3d843aa8	0.064565
74	0x3f0e8cce	0.556836
75	0x3f812062	1.0088007
76	0xbed4ed31	-0.41587213
77	0x3f277cb8	0.6542468
78	0x3f9c10e9	1.219266
79	0x4008f8db	2.140189
80	0xbfd1894b	-1.6370023
81	0xc008b5dd	-2.1361
82	0xbdb33388	-0.08750063
83	0xbf4ba105	-0.7954257
84	0xc017c849	-2.3715994
85	0x3f3697aa	0.7132517
86	0xbe69da12	-0.22837093
87	0x3eeef98d	0.46674767
88	0x3ff0138a	1.8755963
89	0xbe6d55ff	-0.23177336
90	0xbf2d2301	-0.67631537
91	0x3fb87dfa	1.4413445
92	0x3f4e1d69	0.80513626
93	0xbe80059d	-0.25004283
94	0x3f094a32	0.5362884
95	0xbfb338c6	-1.4001701
96	0xbf5ce32b	-0.8628413
97	0x3fcbc384	1.5919042
98	0xbf6aeeb8	-0.91770506
99	0xbf175d6c	-0.59126925
100	0x3f08183a	0.53161967
101	0xbf80e17d	-1.0068814
102	0xbf0c32a1	-0.54764754
103	0xbf309fc6	-0.68993795
104	0xbebe4698	-0.37163234
105	0xbea854b9	-0.32877138
106	0x404780c0	3.1172333
107	0xbfc9b6fb	-1.5758966
108	0xbf7fb100	-0.99879456
109	0x3d984cc8	0.0743652
110	0xbf76bd0f	-0.9638223
111	0xbfd37954	-1.6521401
112	0x3e29a686	0.1656743
113	0xbf5b07ea	-0.8555895
114	0x400c2d69	2.1902716
115	0xbe7af60d	-0.24507923
116	0x3ff711aa	1.9302266
117	0xbf034147	-0.5127148
118	0xc0269ddc	-2.603385
119	0x4002f52e	2.0462146
120	0xbe048390	-0.12940812
121	0x3e853ccf	0.26022956
122	0xbf204899	-0.62610775
123	0xbeca096f	-0.39460322
124	0xbccf7a56	-0.025326889
125	0x3fd3f96b	1.6560491
126	0xbe2e34d3	-0.17012338
127	0x3ffbd41c	1.9674106
128	0x3f4bd395	0.79619724
129	0xbec11c47	-0.37716886
130	0x3ea9eb2e	0.3318724
131	0x3f10dee5	0.5659011
132	0x3e89c0d1	0.2690492
133	0x3f370544	0.7149241
134	0xc00f8572	-2.2425199
135	0x3f65d05e	0.8977107
136	0x3fdbc89c	1.7170596
137	0x3f11c4dc	0.5694101
138	0x3f34c04e	0.70605934
139	0x3de18414	0.1101152
140	0xbf335c49	-0.7006269
141	0xc0051303	-2.0792854
142	0x3ee7fcbf	0.45310017
143	0xbf9ed8c1	-1.2409898
144	0xbedc2c31	-0.43002465
145	0x3f09996c	0.5374973
146	0x3fe11fbb	1.7587808
147	0x3f919f65	1.1376768
148	0xbfb33fee	-1.4003885
149	0xbee53f13	-0.44774684
150	0xbf61bed5	-0.8818181
151	0x3e7814a8	0.2422663
152	0x3e07a2bf	0.13245676
153	0x3f581b6a	0.8441683
154	0xbe9c23ee	-0.30496162
155	0x3f390406	0.72271764
156	0x3f1e9828	0.6195092
157	0x3ee27aa9	0.44234207
158	0xbf8490c8	-1.0356684
159	0xbf487b3f	-0.7831306
160	0xbf830a27	-1.0237473
161	0x3f1f7579	0.62288624
162	0x3f2409de	0.64077556
163	0xbe246bd3	-0.16056757
164	0xc03317b6	-2.7983222
165	0xbf2fa15d	-0.68605596
166	0xbfd78080	-1.683609
167	0xbf5851e1	-0.8449994
168	0x3eb2c4b2	0.34915692
169	0xbee24e9d	-0.44200602
170	0xbf332388	-0.6997609
171	0x3ec0202f	0.37524554
172	0xbd8f6615	-0.070018925
173	0x3d207255	0.039171536
174	0x3f712072	0.9419013
175	0x3e2449a6	0.1604372
176	0x3d43be65	0.047788996
177	0xbf8e720b	-1.1128553
178	0x3e8415e9	0.25797966
179	0x3f4703fc	0.77740455
180	0x3e48a91b	0.19595759
181	0xbe82be62	-0.25535876
182	0x3fc3aa88	1.5286417
183	0x3f164ea8	0.5871377
184	0x3e26ad78	0.1627711
185	0x3d1cd57c	0.038289532
186	0xbfbb70fe	-1.4643857
187	0x3ef349c3	0.47517213
188	0xbe099f68	-0.13439715
189	0xbeeb9bdb	-0.46017346
190	0x3ec5a8ad	0.38605252
191	0xbf6e58c4	-0.93104196
192	0xbdef0345	-0.116705455
193	0xbe6117cd	-0.21981736
194	0xc01a524e	-2.4112735
195	0x3f5b9781	0.8577805
196	0xbfa555c2	-1.2916796
197	0xbe7e940d	-0.24861164
198	0xbee195d0	-0.4405961
199	0x3f3960a3	0.7241308
200	0x3e969026	0.29406852
201	0xbf1bef84	-0.60912347
202	0xbe6b0c83	-0.22953992
203	0xbf63420d	-0.8877266
204	0xc00876c8	-2.1322498
205	0xbf80447e	-1.0020902
206	0xbfde5d37	-1.7372197
207	0xbe862f94	-0.26208174
208	0x3ffe278f	1.9855822
209	0xc0013cbd	-2.0193322
210	0x3e0ec1b4	0.1394108
211	0xbf6f6da0	-0.9352665
212	0xbfb82b08	-1.4388132
213	0xbff776b3	-1.9333099
214	0xbea45acc	-0.32100523
215	0x402399ac	2.5562544
216	0x3f7c434c	0.98540187
217	0xbef7e951	-0.48420194
218	0xbfac44f4	-1.3458543
219	0xbfd35f5d	-1.6513478
220	0xbd9725d3	-0.07380261
221	0xbe99fca3	-0.3007556
222	0xbf06fc80	-0.52729034
223	0x3e194d61	0.14970924
224	0x3f296049	0.66162544
225	0x3f947442	1.1597979
226	0xbe27e444	-0.1639567
227	0x3f02427b	0.5088269
228	0x3f9a34f0	1.2047405
229	0xbe149a8d	-0.14512081
230	0xbffc42c7	-1.9707879
231	0x3c9eb772	0.019374583
232	0xbfbb5233	-1.463446
233	0xbd2cb15b	-0.042161327
234	0x3f993da7	1.197194
235	0xbe879e4a	-0.26487952
236	0xc004a842	-2.0727696
237	0xbfd68e00	-1.6762085
238	0x3f7a1a43	0.9769632
239	0xbe3321a0	-0.17493296
240	0xbe481d02	-0.19542316
241	0xbf8cd8be	-1.1003644
242	0xbf0e70dd	-0.55640966
243	0xbfd309b9	-1.6487342
244	0x3fdb2784	1.7121434
245	0xbc3456d0	-0.011007026
246	0xbfef6f8d	-1.8705918
247	0x3eae36f0	0.3402629
248	0xbfe60eb7	-1.7973241
249	0x3f2bf622	0.67172444
250	0x3f88067c	1.0626979
251	0x3eb14098	0.34619594
252	0xbe111b95	-0.14170678
253	0x3fd3831b	1.6524385
254	0xbfd3a2a4	-1.6534009
255	0x402a5d07	2.661928

rnn.weight_ih_l0 f4 [64, 64]
0	0x3cde6fe2	0.02715296
1	0x3d9ef861	0.07762218
2	0x3dc3fb0c	0.09569368
3	0x3d5d8f94	0.054092005
4	0x3d31575a	0.043296196
5	0xbd7668d0	-0.06015855
6	0x3d307504	0.043080345
7	0x3bb664eb	0.0055662296
8	0x3d0047f2	0.031318612
9	0x3d8f0ac2	0.06984474
10	0xbcee9e41	-0.029128196
11	0xbcc5e35a	-0.024156261
12	0x3d6efabb	0.058344584
13	0x3cf68951	0.030094774
14	0x3ca2cf57	0.019874258
15	0x3d74e222	0.05978597
16	0x3cf2f50f	0.029657869
17	0xbe00375e	-0.12521121
18	0xbd85a3ae	-0.0652536
19	0x3d5a7cf0	0.053341806
20	0xbd820409	-0.06348426
21	0xbda5769b	-0.08079263
22	0xbe1d97ba	-0.1538991
23	0x3d00bf64	0.031432524
24	0xbd62c29d	-0.05536138
25	0x3d1e87cf	0.038703736
26	0xbd748fb5	-0.059707362
27	0xbc78bdfa	-0.015182013
28	0xbe1e09f1	-0.1543348
29	0x3d7aebc3	0.061259996
30	0xbcc9b74e	-0.02462354
31	0x3d8fd31e	0.07022689
32	0x3d8eea18	0.069782436
33	0xbc199d34	-0.009375859
34	0xbdbd4fb0	-0.09243715
35	0xbdd04005	-0.10168461
36	0xbce1fd88	-0.027586713
37	0x3d21f7b1	0.039542858
38	0x3ccd9525	0.025095532
39	0x3d3ade32	0.04562206
40	0x3ce04e63	0.027381128
41	0x3d463088	0.048386127
42	0x3c858e9f	0.016303359
43	0xbd0016a7	-0.031271603
44	0x3c6bf0f5	0.01440071
45	0x3d0f209c	0.034943208
46	0x3e11ea15	0.14249451
47	0x3cf10096	0.029419225
48	0xbd8c1568	-0.068400204
49	0xbdb8032a	-0.089849785
50	0xbd889e36	-0.06670801
51	0xbc1c79a9	-0.00955049
52	0x3dc8189d	0.097703196
53	0xbcd614b7	-0.026132924
54	0x3df5d8e5	0.1200426
55	0xbd0aa234	-0.033846095
56	0xbda922b1	-0.0825857
57	0xbd06867a	-0.03284309
58	0x3c406ff1	0.011745439
59	0xbc3c2168	-0.011482574
60	0xbda7b637	-0.081890516
61	0xbdc132f9	-0.094335504
62	0x3cd98b1d	0.026555592
63	0xbdb6eabe	-0.08931492
64	0x3df887ff	0.12135314
65	0x3d8551d7	0.0650975
66	0x3cf7db92	0.030256066
67	0xbcd7bded	-0.02633568
68	0x3d30146a	0.04298822
69	0xbda49a2f	-0.08037221
70	0x3d8b343f	0.067970745
71	0xbd98fb6b	-0.07469829
72	0xbc97175a	-0.018443752
73	0xbda59645	-0.08085302
74	0x3d9a7da0	0.07543492
75	0x3c87a4a6	0.016558003
76	0x3d5c6dc1	0.053815607
77	0xbd2dd3ea	-0.042438425
78	0xbdf1e238	-0.11810726
79	0xbcd1f101	-0.025627615
80	0xbce6aa1e	-0.02815729
81	0x3e0685f2	0.13137034
82	0x3d875ee7	0.06609898
83	0x3e1e43f6	0.15455613
84	0xbb3d2c3b	-0.0028865475
85	0x3d4d2fcc	0.05009441
86	0x3d04ce9c	0.0324236
87	0xbd4be00d	-0.04977422
88	0x3d973637	0.073833875
89	0xbdcb24a0	-0.09919095
90	0xbd032a87	-0.03202298
91	0x3ce79583	0.028269535
92	0xbd2b198e	-0.041772418
93	0x3d8c7c67	0.06859665
94	0x3ca25a43	0.01981843
95	0x3d2904e1	0.04126442
96	0x3ccf439b	0.025300791
97	0xbd61744b	-0.055042546
98	0x3d4e198b	0.05031733
99	0x3deb8da1	0.11501623
100	0xbe140b9a	-0.1445755
101	0xbc523fd2	-0.012832599
102	0x3c62480c	0.013811123
103	0x3dd14e32	0.10219993
104	0xbdd66740	-0.10468912
105	0x3dbb1bf9	0.09136195
106	0xbc347477	-0.0110140955
107	0xbd664b87	-0.056224372
108	0xbd81926c	-0.06326756
109	0x39b36195	0.00034214245
110	0x3e058657	0.13039528
111	0x3c22862e	0.009919686
112	0xbde61e5e	-0.11236261
113	0x3ddeec27	0.10884886
114	0xbda807be	-0.08204602
115	0xbd76e69f	-0.06027853
116	0xbdba8d14	-0.0910894
117	0x3e10c630	0.14138103
118	0xbd62f8d1	-0.05541307
119	0xbdb8e1eb	-0.090274654
120	0xbdd67bce	-0.104728326
121	0x3cf54bbb	0.029943338
122	0x3da600bf	0.08105611
123	0x3c9a6c4f	0.018850474
124	0xbd37fdbd	-0.044919718
125	0x3c0ff1ab	0.0087856455
126	0x3cab3822	0.02090079
127	0x3d10ca46	0.035349153
128	0x3d0069b9	0.031350825
129	0xbd9df263	-0.07712247
130	0x3d373387	0.044726875
131	0x3d106dc2	0.035260923
132	0x3dba2067	0.090882115
133	0xbdc1dc56	-0.09465854
134	0xbbee46d7	-0.0072716284
135	0xbb611836	-0.0034346706
136	0xbdbfc31e	-0.093633875
137	0x3d024e1c	0.031812772
138	0x3d812bce	0.06307183
139	0x3b3b57e8	0.0028586332
140	0xbd22fd7d	-0.039792527
141	0xbda0619b	-0.07831117
142	0xbdadde32	-0.08489646
143	0xbc73ff9f	-0.014892488
144	0x3dc21eed	0.09478555
145	0xbd4c9d8f	-0.049954947
146	0xbd8c5a40	-0.06853151
147	0x3c6e8286	0.014557486
148	0x3c20b88e	0.009809626
149	0x3acdf769	0.0015713993
150	0x3de10dcd	0.109889604
151	0xbd8b0524	-0.0678809
152	0x3df8949d	0.12137721
153	0x3de246ac	0.11048636
154	0xbd89b60b	-0.06724175
155	0x3d030ea7	0.031996395
156	0x3db7fbe1	0.08983589
157	0x3d4d9da6	0.050199173
158	0x3ce872ae	0.028374996
159	0x3ca59013	0.020210302
160	0x3d0bee46	0.034162782
161	0x3c37bbf6	0.011214247
162	0xbdb1b76a	-0.086775616
163	0x3d004f2b	0.0313255
164	0xbd8107f2	-0.063003436
165	0x3d7ee8ae	0.06223362
166	0xb93bab26	-0.00017897467
167	0xbb209879	-0.0024504943
168	0xbd77a52d	-0.06046026
169	0xbccf326c	-0.025292598
170	0x3d9ea001	0.07745362
171	0x3db841b0	0.08996904
172	0x3bb2db74	0.0054582898
173	0x3d84ff70	0.06494033
174	0x3c846451	0.016161116
175	0x3d5d0510	0.053959906
176	0xbdc8b769	-0.09800608
177	0x3d7942cf	0.06085473
178	0x3d61f261	0.05516279
179	0xbc34fe07	-0.011046893
180	0x3db921b5	0.09039632
181	0x3caa3f6b	0.020782193
182	0xbdb62015	-0.08892838
183	0x3d8e4f64	0.06948736
184	0xbdcc66e1	-0.0998056
185	0x3d58c8b9	0.0529258
186	0x3d6bcbfd	0.057567585
187	0x3ca57d19	0.020201253
188	0x3dd22731	0.102613814
189	0xbcef370c	-0.029201053
190	0xbc974680	-0.018466234
191	0xbd8e9ddd	-0.06963704
192	0xbdea143c	-0.11429641
193	0x3cd45a2d	0.025921905
194	0xbc8c7a16	-0.017148059
195	0xbc854838	-0.016269788
196	0x3d49bec6	0.0492542
197	0x3db7439c	0.08948442
198	0xbdd338d5	-0.10313574
199	0xbdf1e53d	-0.11811302
200	0xbe0de736	-0.13857731
201	0x3d07d31a	0.033160307
202	0x3d668efd	0.056288708
203	0xbd728e3c	-0.059217677
204	0x3db47d61	0.08812977
205	0xbd870760	-0.065932035
206	0xbc596e3f	-0.013270914
207	0xbd8c298f	-0.06843864
208	0x3d2666e6	0.040625475
209	0x3d6b72f8	0.05748269
210	0xbd3296e6	-0.04360094
211	0xbd2609a5	-0.04053654
212	0x3dd4874f	0.103773706
213	0xbd815e9f	-0.06316876
214	0x3db81a2d	0.08989368
215	0xbd02fce1	-0.031979445
216	0xbd176d32	-0.03696937
217	0xbd0e07d6	-0.03467544
218	0x3c57fc3c	0.013182696
219	0xbc1e06fd	-0.009645221
220	0x3da4ceb9	0.08047242
221	0xbcb6a4d1	-0.022295387
222	0xbdd64037	-0.10461467
223	0x3d28043c	0.041019663
224	0xbcd5877b	-0.026065579
225	0xbd08f8a5	-0.03344025
226	0x3e07a085	0.13244827
227	0x3c7a8d25	0.015292441
228	0x3b4bc1ac	0.003109078
229	0x3d0a618e	0.03378444
230	0x3dbe9e05	0.093074836
231	0x3ca589b4	0.020207264
232	0xbccf281c	-0.02528768
233	0xbc0541e7	-0.008133388
234	0x3d9bd042	0.076080814
235	0x3c74db4c	0.014944863
236	0x3c9acb61	0.018895807
237	0x3d83b60f	0.06431209
238	0x3d82c264	0.06384733
239	0x3daa24ed	0.08307824
240	0xbd8e8179	-0.06958289
241	0xbce0d1f6	-0.027443867
242	0xbd11be8c	-0.03558211
243	0x3d036df0	0.032087266
244	0x3d6a29d8	0.05716881
245	0xbd861ea8	-0.06548816
246	0x3d68f633	0.05687542
247	0x3ce72183	0.028214222
248	0x3d53cbb7	0.05170795
249	0x3d6986c1	0.057013277
250	0xbd1ffe6b	-0.03906099
251	0x395a7ada	0.00020835866
252	0xbd984279	-0.07434554
253	0xbcc52378	-0.024064764
254	0x3dbcfb29	0.092275925
255	0x3db0e1c6	0.08636813

rnn.weight_hh_l0 f4 [64, 64]
0	0xbe012bad	-0.12614317
1	0x3c6dc940	0.014513314
2	0x3e1cd8a1	0.15317012
3	0xbe0fc423	-0.14039664
4	0xbd018fe8	-0.03163138
5	0xbdb3d0f9	-0.08780093
6	0x3e49b42f	0.19697641
7	0xbcdb3ab2	-0.026761387
8	0x3dfdb209	0.12387473
9	0x3e2352c9	0.15949549
10	0x3d851fd2	0.0650021
11	0xbc5f4ab4	-0.01362865
12	0x3e30ccf7	0.17265688
13	0xbde462c1	-0.11151648
14	0xbbbab297	-0.005697559
15	0xbdabf4bf	-0.08396291
16	0xbe0c8996	-0.1372436
17	0x3bed6a0f	0.007245309
18	0xbdb32379	-0.08747
19	0x3e1213ad	0.14265318
20	0x3d958d24	0.07302311
21	0x3d775b81	0.06039
22	0x3d545e3b	0.051847678
23	0xbc727ed2	-0.014800744
24	0x3b53e351	0.0032331536
25	0x3dc6d89a	0.09709282
26	0xbdacee45	-0.08443884
27	0xbc95be6d	-0.018279279
28	0x3cedb7e2	0.029018346
29	0x3e4fc0d3	0.202884
30	0xbd04b27e	-0.032396786
31	0x3b282150	0.0025654621
32	0x3dd982a8	0.10620624
33	0x3e119cc6	0.1421996
34	0x3e10b64d	0.14132042
35	0x3de40e50	0.111355424
36	0x3e4c81d1	0.19971396
37	0xbe170bd5	-0.14750607
38	0x3b69f2cc	0.0035697697
39	0x3cc6031e	0.024171408
40	0x3e030adf	0.12797116
41	0xbd0886c2	-0.03333164
42	0x3e25f2dd	0.16205926
43	0x3e58e5de	0.21181437
44	0xbe011434	-0.12605363
45	0x3df7f698	0.12107581
46	0x3dcb9046	0.09939627
47	0x3df3e470	0.11908805
48	0x3d2ccffb	0.042190533
49	0x3dcad6ed	0.09904275
50	0xbabe3377	-0.0014511187
51	0xbdded3c3	-0.10880234
52	0xbe303820	-0.1720891
53	0xbc2e46f4	-0.010637034
54	0x3dbb827d	0.09155748
55	0xbd7bffb7	-0.061523166
56	0x3e6eb042	0.23309425
57	0xbe30f596	-0.17281184
58	0x3e4efad0	0.20212865
59	0xbe0d5670	-0.13802505
60	0x3e52b70d	0.20577641
61	0xbe067523	-0.13130622
62	0xbe3870ab	-0.1801173
63	0x3dc7a516	0.097482845
64	0x3d8cfe33	0.06884422
65	0x3e1a89be	0.15091607
66	0x3c2b7cb1	0.0104667405
67	0xbda41b6d	-0.080130436
68	0x3dad24d5	0.08454291
69	0x3dcb6b87	0.099326186
70	0xbe4ffb1f	-0.20310639
71	0x3d9bb8c4	0.076036006
72	0x3e12d531	0.14339139
73	0x3ddd33b8	0.1080088
74	0xbe244f35	-0.1604584
75	0x3def14d4	0.116738945
76	0x3e0675a6	0.13130817
77	0xbd74ef72	-0.059798665
78	0xbda26e37	-0.07931178
79	0xbccb04ee	-0.024782624
80	0xbd00d770	-0.031455457
81	0xbe0b0498	-0.13575971
82	0x3da51466	0.08060531
83	0xbbfcd08e	-0.0077152913
84	0x3d8dc01c	0.069214076
85	0x3e63d296	0.22248301
86	0x3ceb7653	0.028742945
87	0x3e3bd037	0.18341146
88	0x3e09479d	0.13406225
89	0x3e086d5e	0.1332297
90	0x3d0b659f	0.03403246
91	0xbd25a100	-0.040436745
92	0x3d481c40	0.048855066
93	0x3b80bfd6	0.0039291186
94	0x3e20422c	0.15650243
95	0x3e19f9a3	0.15036635
96	0xbdef744d	-0.116921045
97	0xbd8fdce6	-0.07024555
98	0x3d8f992f	0.07011639
99	0xbd553563	-0.052052867
100	0x3e4ce91e	0.20010802
101	0xbe62b836	-0.22140583
102	0x3dd7c2e5	0.1053522
103	0x3d0565a4	0.032567635
104	0xbd11a41b	-0.035556894
105	0xbe140502	-0.14455035
106	0xbde3f581	-0.111308105
107	0x3e089a09	0.1334001
108	0xbdf73970	-0.12071502
109	0xbe0dc505	-0.13844688
110	0x3dabd0a0	0.083894014
111	0xbe1b6106	-0.1517373
112	0xbd2276fe	-0.03966426
113	0xbd332908	-0.043740302
114	0xbe0d7402	-0.13813785
115	0x3dc1ee5f	0.09469294
116	0xbdbc1f01	-0.09185601
117	0x3d1a1f13	0.03762729
118	0xbdddf166	-0.10837059
119	0xbda90f39	-0.082548566
120	0x3e2ad55e	0.16682956
121	0xbddd3349	-0.108007975
122	0xbe7592b7	-0.23981749
123	0x3dbaf012	0.09127821
124	0xbc3667b1	-0.01113312
125	0xbde45173	-0.11148348
126	0x3e21c86a	0.15799108
127	0xbcfb8231	-0.030701729
128	0xbe2ceafb	-0.16886513
129	0x3d8ea6ff	0.06965446
130	0x3dac3951	0.0840937
131	0xbe2c4ed1	-0.16826941
132	0xbde70f92	-0.11282267
133	0x3e296de6	0.16545829
134	0x3e449e8f	0.1920111
135	0x3d9b8cc9	0.07595212
136	0x3df0f853	0.11766114
137	0x3d50d44b	0.05098371
138	0x3ce76bdd	0.028249675
139	0xbcb9b393	-0.022668635
140	0xbd8e213b	-0.06939932
141	0xbd48d0ed	-0.049027372
142	0x3dcf0d4f	0.1010996
143	0x3d4572e7	0.048205283
144	0x3ad0df6a	0.0015935723
145	0x3d2c4c94	0.042065218
146	0x3dccfde0	0.1000936
147	0xbda5278c	-0.080641836
148	0x3d846453	0.06464448
149	0xbe080a47	-0.1328517
150	0x3dfb1f33	0.1226181
151	0xbc9401e2	-0.018067304
152	0x3dbea8e8	0.0930956
153	0x3cab81f9	0.020936
154	0x3e2c5bb3	0.16831855
155	0x3da182a5	0.078862466
156	0xbc83561c	-0.016032271
157	0xbdb9a79f	-0.09065174
158	0xbe6fa7ea	-0.23403898
159	0xbe580d72	-0.21098879
160	0x3e320a0c	0.17386645
161	0x3c11e6bd	0.00890511
162	0x3ca7561d	0.020426804
163	0xbbfd8db0	-0.0077378377
164	0x3bf9dd19	0.007625234
165	0x3d0e2533	0.034703445
166	0xbccc31c0	-0.024926066
167	0x3de41f39	0.11138768
168	0x3cf82b9b	0.03029423
169	0xbc9df560	-0.019282043
170	0xbc21d2ef	-0.009876951
171	0xbd9a2523	-0.075266145
172	0x3df585e4	0.11988428
173	0x3c32ebe3	0.010920498
174	0x3d69f481	0.057117943
175	0x3e04c087	0.12964068
176	0x3dd12756	0.10212581
177	0xbe261214	-0.16217834
178	0xbe2ce93e	-0.1688585
179	0x3d3f0ad6	0.046641193
180	0xbe1797c9	-0.14803995
181	0x3d43d6f5	0.04781242
182	0x3c67279d	0.014108566
183	0x3d756e72	0.059919782
184	0xbc9d8856	-0.01923005
185	0x3e425f16	0.18981585
186	0xbd11adf2	-0.035566278
187	0xbd7e15f1	-0.062032644
188	0x3e3276dd	0.17428155
189	0xbe6cca5b	-0.23124067
190	0xbdca307e	-0.098725304
191	0x3dcfb4d3	0.10141911
192	0xbe254768	-0.1614052
193	0xbe20d5ae	-0.15706512
194	0x3e34389a	0.17599717
195	0xbc625149	-0.013813325
196	0xbd8b132c	-0.06790766
197	0xbd82b915	-0.06382958
198	0x3d84d0ec	0.06485161
199	0x3d96a53b	0.07355734
200	0xbe27aa8f	-0.16373657
201	0x3ce42ab2	0.02785239
202	0x3e0d732f	0.1381347
203	0xbd7b7d02	-0.061398514
204	0xbd8b3418	-0.067970455
205	0x3d55324d	0.052049924
206	0x3b053e28	0.0020331237
207	0x3d52ab83	0.051433098
208	0xbe0c31ba	-0.13690844
209	0x3e1f4faf	0.1555774
210	0xbe020f46	-0.12701139
211	0x3e05a878	0.13052547
212	0xbe15afcf	-0.14617847
213	0xbe6a5e71	-0.22887589
214	0x3db3bd12	0.08776297
215	0xbd1e67b8	-0.038673133
216	0x3d699e18	0.057035536
217	0x3d17a906	0.037026428
218	0xbd10fde3	-0.035398375
219	0xbd805f36	-0.0626816
220	0xbc3a168e	-0.0113579165
221	0x3d6fe17e	0.058564655
222	0xbcb000b8	-0.021484718
223	0xbe0352e3	-0.12824588
224	0x3e07fdcd	0.13280411
225	0x3d9f8173	0.07788362
226	0x3e1015ac	0.14070767
227	0xbc83f3e6	-0.01610751
228	0xbdde833a	-0.10864873
229	0xbd320aa5	-0.043467183
230	0xbe41f402	-0.18940738
231	0xbcc11763	-0.023570722
232	0xbcc70af3	-0.024297213
233	0xbe264598	-0.16237485
234	0x3e7a5d0a	0.24449554
235	0xbd8b568b	-0.06803616
236	0xbcc3bb15	-0.023892919
237	0x3e31e4f6	0.17372498
238	0xbe037b9e	-0.12840125
239	0x3dfefc7d	0.12450502
240	0xbad0ad2b	-0.0015920749
241	0xbdcb250b	-0.09919175
242	0xbdb721e2	-0.089420095
243	0x3db66068	0.08905107
244	0x3e2eec24	0.17082268
245	0x3d33aa66	0.043863676
246	0xbe00ebe7	-0.1258999
247	0xbe3d0524	-0.18458992
248	0xbdb72945	-0.089434184
249	0x3de4b9b0	0.111682296
250	0x3e47acd6	0.19499525
251	0x3df0d4a6	0.117593095
252	0x3e07375c	0.13204712
253	0x3e311e6e	0.17296764
254	0x3dd49377	0.10379689
255	0xbd6377d4	-0.0555342

rnn.bias_ih_l0 f4 [64]
0	0x3dafbee9	0.08581335
1	0x3e11a13a	0.1422166
2	0x3dcee23e	0.10101746
3	0xbd095375	-0.033526856
4	0x3ba1b331	0.0049346914
5	0x3d8a626c	0.06757054
6	0xbb26d689	-0.0025457463
7	0xbc4e83e5	-0.012604688
8	0x3d067228	0.03282371
9	0x3d94a7c7	0.072585635
10	0xbda87173	-0.08224764
11	0x3e131ddd	0.1436686
12	0x3e3fb4e1	0.18721344
13	0x3d840bc0	0.06447554
14	0xbd1cf89d	-0.038323034
15	0x3b28c73a	0.0025753514
16	0x3e3e6e34	0.18596727
17	0xbe2dd986	-0.1697751
18	0x3e400a17	0.18753849
19	0x3b29c1ca	0.002590286
20	0x3ddb3489	0.1070338
21	0x3e14f051	0.14544798
22	0xbd68de8d	-0.056852866
23	0x3e03a37e	0.12855336
24	0x3df9da5f	0.12199854
25	0xbd2bfeb9	-0.04199097
26	0xbe1569c7	-0.14591132
27	0xbd110db7	-0.03541347
28	0x3ab611ba	0.0013890781
29	0xbcba6c6f	-0.022756783
30	0xbc9c7b94	-0.019101895
31	0x3e2a3bfb	0.16624443
32	0xbdc78c81	-0.09743596
33	0xbd019797	-0.031638708
34	0xbd782e6a	-0.06059114
35	0x3ca0cf6c	0.019630156
36	0x3e417924	0.18893868
37	0xbdf41b3c	-0.11919257
38	0xbdb544d5	-0.08851019
39	0xbddf8f42	-0.10915996
40	0xbdf136c8	-0.11778027
41	0x3948b8c4	0.00019142317
42	0xbc2e36d9	-0.010633194
43	0x3d1c7583	0.038198005
44	0xbd22807d	-0.039673317
45	0xbdba42db	-0.09094783
46	0x3e25bc53	0.16185121
47	0x3d92feb9	0.07177491
48	0xbdb4851e	-0.088144526
49	0xbe0ff1ed	-0.14057131
50	0xbda248c7	-0.079240374
51	0x3c911ba4	0.017713375
52	0xbdcd3ff9	-0.100219674
53	0x3da5a71d	0.08088515
54	0xbc96429e	-0.018342312
55	0xbce788a3	-0.028263396
56	0x3d106ea6	0.035261773
57	0xbc9fb5b0	-0.019495815
58	0xbe1eef8e	-0.1552107
59	0x3d37ee7c	0.04490517
60	0xbdc5f266	-0.096653745
61	0xbdf1dbd8	-0.1180951
62	0x3db97aa4	0.09056595
63	0x3dff03a7	0.124518685

rnn.bias_hh_l0 f4 [64]
0	0x3e09ea6b	0.1346833
1	0x3bae8472	0.0053258473
2	0x3d7a15f8	0.061056107
3	0x3d5e7384	0.054309383
4	0x3deb449f	0.11487698
5	0xbd8ae23b	-0.06781431
6	0xbdd0a953	-0.10188546
7	0x3d1909ee	0.037362985
8	0x3dcf2d72	0.1011609
9	0xbdf24462	-0.11829449
10	0xbd1b3dd2	-0.037900753
11	0x3e1be67b	0.1522464
12	0x3d7f56e5	0.06233873
13	0x3dde080a	0.10841377
14	0x3e44768b	0.19185846
15	0xbce20187	-0.027588619
16	0x3e433f1a	0.1906704
17	0xbdd8f900	-0.10594368
18	0x3b9bc2d2	0.004753449
19	0x3dc361e6	0.09540157
20	0x3d1b28df	0.037880775
21	0x3d502b4f	0.050822552
22	0x39a3c0a8	0.00031233323
23	0x3dad6344	0.08466199
24	0x3d97c891	0.07411302
25	0xbd8ee02e	-0.06976353
26	0xbdae146a	-0.084999874
27	0x3d99f5e4	0.07517603
28	0xbdcd2dbf	-0.10018491
29	0x3d6bfac3	0.057612192
30	0xbdb55a76	-0.08855145
31	0x3e28f64a	0.16500202
32	0xbdd1f4fd	-0.10251806
33	0xbd939bff	-0.07207488
34	0xbd0cdd20	-0.03439057
35	0x3d9cdf84	0.0765982
36	0x3e2d406b	0.16919105
37	0x3d0de8bf	0.034645792
38	0x3d617e4f	0.055052098
39	0xbcfaa4c0	-0.030596137
40	0x3d295ffc	0.041351303
41	0x3b2f5c84	0.0026758024
42	0xbe0ddfc6	-0.13854894
43	0x3a02796b	0.0004977199
44	0xbd39432f	-0.045230087
45	0xbdec438c	-0.11536321
46	0x3d4c6cc6	0.049908422
47	0xbe0e29b9	-0.13883103
48	0xbd40ff08	-0.047118217
49	0xbe01cccf	-0.12675785
50	0xbdd50b7a	-0.104025796
51	0xbda154fd	-0.07877538
52	0x3d4d7450	0.050159752
53	0xbdea32ac	-0.11435446
54	0x3dc13a9e	0.094350085
55	0xbd254781	-0.040351395
56	0xbd34eb96	-0.044169985
57	0x3e17ebc6	0.14836034
58	0xbd66cf0d	-0.056349803
59	0xbd57a0c4	-0.052643552
60	0xbcab56a6	-0.02091534
61	0x3d596802	0.053077705
62	0xbd054e3b	-0.03254531
63	0x3b0cc44f	0.0021479314

classify.weight f4 [10, 64]
0	0xbd908cd1	-0.070581086
1	0x3e2a0baa	0.16606012
2	0x3ded4923	0.11586215
3	0xbc2a029f	-0.0103766015
4	0x3cce297c	0.025166266
5	0x3e4776ca	0.19478908
6	0xbe4bffb1	-0.19921757
7	0x3e6e7b51	0.23289229
8	0xbdb5253a	-0.08844991
9	0xbdba7879	-0.091050096
10	0xbe58e525	-0.21181162
11	0xbe3503a9	-0.17677177
12	0x3d706ce7	0.058697607
13	0xbe10f870	-0.14157271
14	0x3e12e855	0.1434644
15	0xbe45ac69	-0.1930405
16	0xbc06a108	-0.008217104
17	0xbcd9e630	-0.02659902
18	0x3e128678	0.14309108
19	0x3e7dedca	0.2479774
20	0x3e195490	0.14973664
21	0x3cee487a	0.029087294
22	0xbe51e648	-0.20498002
23	0xbdd39622	-0.1033137
24	0x3e0856ac	0.13314313
25	0xbdb96266	-0.09051971
26	0xbe2f0c64	-0.1709457
27	0xbe350f1d	-0.17681547
28	0x3e844dae	0.25840515
29	0xbd7d2d1f	-0.06181061
30	0xbcdeb358	-0.027185127
31	0x3e50bbc1	0.20384122
32	0x3c97276e	0.018451419
33	0x3de9ad53	0.11410012
34	0x3e4aba4f	0.19797634
35	0xbe1c2e16	-0.15251955
36	0xbc71ae8b	-0.014751087
37	0x3dfce324	0.12348011
38	0x3e183875	0.14865287
39	0x3ab29b51	0.001362661
40	0xbd852f1f	-0.06503128
41	0xbdef1466	-0.116738126
42	0xbcf3c050	-0.029754788
43	0xbe18516a	-0.14874807
44	0xbe184c9b	-0.14872973
45	0xbddd1d60	-0.107966185
46	0x3ddd3ddf	0.108028166
47	0xbdeebe7b	-0.11657425
48	0xbe365945	-0.17807491
49	0xbe4fc8bd	-0.2029142
50	0xbe385336	-0.18000492
51	0xbe24ae52	-0.16082123
52	0xbe24cbd4	-0.1609338
53	0x3e7f0e12	0.24907711
54	0xbdbf0f5d	-0.09329102
55	0x3e0b0e1c	0.13579601
56	0x3df4a4ad	0.11945472
57	0x3e0edcf1	0.1395147
58	0x3e05eef2	0.13079432
59	0x3debd6af	0.11515557
60	0xbe41a83e	-0.18911836
61	0xbe1c0d9b	-0.15239565
62	0xbe432a06	-0.19059
63	0xbe0f75aa	-0.14009729
64	0xbcbd791d	-0.02312904
65	0xbd316807	-0.0433121
66	0x3d514cc7	0.05109861
67	0xbe4626d9	-0.19350757
68	0x3d713702	0.05889035
69	0xbe420da4	-0.18950516
70	0xbe6c1ccb	-0.23057859
71	0xbd977aa5	-0.073964395
72	0xbe141b51	-0.14463545
73	0x3ca58f9d	0.020210082
74	0xbe7e6dfb	-0.24846642
75	0xbe06a74f	-0.1314976
76	0x3e4f6957	0.20255028
77	0xbe18533a	-0.14875498
78	0x3df4ee1c	0.11959478
79	0xbe1c41f4	-0.15259534
80	0x3c5345dc	0.012895074
81	0x3cb154ed	0.021646941
82	0x3e6a227f	0.22864722
83	0xbe635ac3	-0.22202592
84	0xbe44ff9d	-0.19238134
85	0x3de87a09	0.11351401
86	0xbe1cbd8d	-0.15306683
87	0x3e2deac3	0.16984086
88	0x3d66116a	0.05616895
89	0x3e136b25	0.14396341
90	0xbe3838b1	-0.17990376
91	0x3e397006	0.1810914
92	0xbddb4c2e	-0.107078895
93	0xbdba0539	-0.090830274
94	0xbdcc37da	-0.0997159
95	0xbe731ba2	-0.2374101
96	0xbe41fc3d	-0.18943878
97	0x3e1ebf7b	0.15502732
98	0x3e3f13bd	0.18659873
99	0xbe1879ea	-0.14890257
100	0x3d971f84	0.07379058
101	0x3c6ed7ee	0.014577849
102	0xbe644986	-0.22293672
103	0x3df16e92	0.11788668
104	0xbe099824	-0.13436943
105	0xbdbdf864	-0.092758924
106	0xbe512c47	-0.20427047
107	0x3dc12621	0.09431101
108	0x3e201cc5	0.15635975
109	0xbbe42d1a	-0.0069633843
110	0xbc92ca23	-0.017918652
111	0xbddad76f	-0.10685622
112	0x3db0a6c9	0.08625562
113	0xbe2f5811	-0.17123438
114	0xbe58aa09	-0.21158613
115	0x3e5b13d8	0.21394289
116	0xbde27861	-0.11058117
117	0xbe6f04cf	-0.23341678
118	0x3c87b3ed	0.016565287
119	0x3e13011a	0.14355889
120	0x3dc718a1	0.097214945
121	0x3e03b7b3	0.12863044
122	0xbdcd5af7	-0.10027116
123	0xbdd9f07f	-0.10641574
124	0xbe2f120f	-0.17096733
125	0x3c45f277	0.012081734
126	0xbd3b6f32	-0.04576034
127	0xbd13566d	-0.035971094
128	0x3dc477db	0.09593173
129	0x3e89cf1f	0.26915833
130	0x3e5cd6af	0.2156627
131	0xbe2edc47	-0.17076217
132	0xbe0ecc9a	-0.13945237
133	0xbe3e965e	-0.18612048
134	0x3e1095d2	0.14119652
135	0xbe2bedcd	-0.16789933
136	0xbd29acae	-0.041424446
137	0xbdab92cd	-0.083776094
138	0xbe269a20	-0.16269732
139	0x3e648d7f	0.22319601
140	0x3e5a0d79	0.21294202
141	0xbc947302	-0.018121246
142	0x3e25a62c	0.16176671
143	0xbd5a027d	-0.05322503
144	0x3de61597	0.11234587
145	0x3dc5fc04	0.09667209
146	0x3db4547b	0.08805176
147	0x3e4914b3	0.19636802
148	0x3ccbc2d0	0.024873167
149	0x3dfd2a73	0.12361612
150	0x3df06730	0.117384315
151	0x3e230618	0.15920293
152	0xbe1f836d	-0.15577479
153	0xbe3c596b	-0.18393485
154	0xbdb91dd4	-0.090388924
155	0x3e251731	0.16122128
156	0xbe1675ad	-0.14693327
157	0x3e154614	0.14577514
158	0xbe072116	-0.13196215
159	0xbd3dbb2b	-0.046321075
160	0xbdee1275	-0.11624614
161	0xbd0e0b21	-0.034678582
162	0xbdc42ea4	-0.095792085
163	0xbb60b90d	-0.0034289986
164	0x3d46326a	0.048387922
165	0x3df34201	0.118778236
166	0xbdf0c05f	-0.11755442
167	0xbe803a93	-0.2504469
168	0xbddb2182	-0.106997505
169	0x3e66ac44	0.22526652
170	0xbdbdcbd2	-0.09267391
171	0xbdb5e6da	-0.08881922
172	0x3e4fb1bb	0.20282643
173	0x3d520c53	0.051281285
174	0x3dbef344	0.09323743
175	0x3ddfc20f	0.109256856
176	0xbe06d010	-0.13165307
177	0xbca022b0	-0.01954779
178	0x3e803f46	0.25048274
179	0xbe09e007	-0.13464366
180	0xbd9579ff	-0.072986595
181	0xbe3cdda5	-0.18443926
182	0x3e4959d7	0.19663177
183	0x3df532bf	0.1197257
184	0xbe54c319	-0.20777549
185	0x3e16abc0	0.14713955
186	0x3e42aa75	0.19010337
187	0xbdf920ff	-0.12164497
188	0xbe2c7734	-0.16842347
189	0xbe12a3c2	-0.14320281
190	0xbe254dff	-0.16143034
191	0xbaef1ac4	-0.001824223
192	0x3c0d66d6	0.008630475
193	0x3e127742	0.14303306
194	0xbde4096a	-0.11134608
195	0xbd087d22	-0.03332246
196	0xbc51bb96	-0.012801072
197	0x3d5b8a61	0.053598765
198	0x3e5be04a	0.21472278
199	0x3e0a1bbe	0.13487145
200	0x3e758ab0	0.23978686
201	0x3e83e88f	0.25763366
202	0xbcf1753e	-0.02947485
203	0x3d934787	0.07191377
204	0x3db29950	0.08720648
205	0x3d56481c	0.052314863
206	0x3e15a99b	0.1461548
207	0x3dda5536	0.10660784
208	0xbe43c2b8	-0.19117248
209	0xbe48e90d	-0.19620152
210	0x3e1c2dea	0.1525189
211	0x3e2f7344	0.17133814
212	0x3d27b537	0.040944304
213	0x3c8f5733	0.017497635
214	0x3dec28f2	0.11531247
215	0x3dd7acaa	0.1053098
216	0x3c1e3d3c	0.009658154
217	0xbe4882fe	-0.1958122
218	0x3e1d13b3	0.15339546
219	0xbd90a742	-0.07063152
220	0xbe35aa4a	-0.17740741
221	0xbe4c6974	-0.19962102
222	0x3e4d8161	0.20068885
223	0x3df6c19c	0.12048647
224	0x3e07e693	0.13271551
225	0xbe457528	-0.19282973
226	0xbe33e4cd	-0.1756775
227	0x3dc0a020	0.094055414
228	0x3e3db62a	0.18526521
229	0xbd27f5e0	-0.04100597
230	0x3d7cd679	0.061727975
231	0x3e0e71ed	0.13910647
232	0xbdbcb931	-0.0921501
233	0x3e4bff07	0.19921504
234	0xbe3ba864	-0.18325955
235	0xbe052d00	-0.13005447
236	0xbdfda059	-0.123840995
237	0xbe1d066f	-0.15334485
238	0x3e22f8c8	0.15915215
239	0x3d47071d	0.048590768
240	0xbdb386ea	-0.08765967
241	0xbe13ed31	-0.1444595
242	0xbdb85e1a	-0.090023234
243	0xbde70145	-0.11279539
244	0xbe3658ff	-0.17807387
245	0x3e5a40f7	0.21313845
246	0xbdb2b117	-0.087251835
247	0xbe582bec	-0.21110505
248	0x3e2a68aa	0.16641489
249	0xbde7d56c	-0.11320004
250	0x3e28ab79	0.16471662
251	0xbe23f7b0	-0.16012454
252	0x3e3c700e	0.1840212
253	0xbdca8800	-0.09889221
254	0xbe4b7828	-0.19870055
255	0x3e274c17	0.1633762

classify.bias f4 [10]
0	0xbda9c733	-0.08289947
1	0xbd4d4878	-0.05011794
2	0xbca64296	-0.020295423
3	0x3d28f9d5	0.041253883
4	0xbd4c5e77	-0.049894776
5	0xbdc80a27	-0.097675614
6	0x3d53df4a	0.051726617
7	0xbb0a506e	-0.0021105069
8	0x3d34fe7d	0.04418801
9	0xbe2a5d18	-0.16637075
