汪桓玉/week02/week02model.bin (torch, 2512 bytes, 4 tensors)

linear1.weight f4 [10, 5]
00000000: 0c77 99be 7c53 62bd 4b87 0fbe 8c85 1bbe
00000010: a9d5 7a3e e72d cebe a8fe 763e 4762 983d
00000020: 83c4 e13d 30e2 c6be 6b2e a23d 12c2 c73e
00000030: 1e69 59be 4c86 c23e 792e 1dbe 835b b03d
00000040: 1b50 0e3d 7d5c 0b3f 0553 0dbe 42e3 3d3d
00000050: 9c18 143e 5d56 64bd 518d c43e aef1 bc3e
00000060: be98 7d3e d0e4 bc3e adfa 38be 297a 21bd
00000070: f7bd b43e c99a 47be 5fe1 c23e 29c7 353f
00000080: df99 74bc 727d 82be b76b 13be 4716 0a3f
00000090: 6f8a 0bbe 6997 f63e 0c9e 4abe b1e5 87be
000000a0: efee 093f 877a 0ebe a208 6ebe b4cf 54be
000000b0: 30b4 fd3e 4962 c63e 9ab6 963d b164 143e
000000c0: eb34 3c3e 1bc6 9fbe
-0.29973638 -0.0552554 -0.14016454 -0.15187663 0.24495567 -0.40269396 0.24120581 0.0744062
0.1102381 -0.38844442 0.0791901 0.3901525 -0.21231505 0.37993085 -0.15349759 0.086112045
0.034744363 0.54438 -0.138012 0.046359308 0.14462513 -0.055746425 0.38389066 0.36903137
0.24765298 0.3689332 -0.18064375 -0.03942314 0.35301182 -0.1949264 0.3806257 0.7100702
-0.014929264 -0.25486332 -0.14396559 0.5394024 -0.13627027 0.48162392 -0.19786853 -0.26542428
0.5388021 -0.13913928 -0.2324548 -0.20782357 0.49551535 0.3874686 0.07359047 0.14491536
0.18379562 -0.3120583

linear1.bias f4 [10]
00000000: 0877 c13e 3d95 36be 1d0c dabe 96df 57be
00000010: 06ee f23e 5d0e 053e 7b66 64be 8010 9fbd
00000020: e568 97be 8a33 31be
0.37786126 -0.17830367 -0.42587367 -0.21081385 0.47447222 0.1299376 -0.22304718 -0.07766819
-0.29572216 -0.17304817

linear2.weight f4 [5, 10]
00000000: 820e 41be 6695 b5bc c89d 7cbd 7a17 b5be
00000010: 87f9 83be c929 763e 18d8 393e e959 fc3e
00000020: 510e 833e b799 473d b481 0cbe 226b ae3c
00000030: 0d93 033e 664c f9bd 46eb a2bd ca29 02bf
00000040: c457 143f 9bf6 2cbe b521 84be 58ad 343e
00000050: 9601 3ebe c527 273e 5688 d6bd 9451 b73e
00000060: af71 863d f000 f2be 19d7 17be 42b8 c03e
00000070: 3cc6 b7be 16fe 1f3e b1bb 403e ee7d 0c3e
00000080: 3318 1e3e faf6 b7be 6834 a13e 9c8c b13e
00000090: b0b8 ccbd 640e 2ebe cda5 adbe 3de4 8c3d
000000a0: dde0 ab3e 3690 bebd 3b26 bdbc a3fd 17bd
000000b0: 3155 7f3e 074d f0be 3307 70bd 2cec 3dbe
000000c0: 8511 d03e ad1a 7abe
-0.1885319 -0.022165965 -0.06167391 -0.35369474 -0.25776312 0.24039377 0.1814884 0.49287346
0.2559686 0.04873058 -0.13721353 0.02129132 0.12849064 -0.12172775 -0.07955031 -0.50845015
0.5794642 -0.16890948 -0.25806966 0.1764425 -0.18555292 0.16323765 -0.10475223 0.35804427
0.06564652 -0.4726634 -0.14828147 0.37640578 -0.35893428 0.1562427 0.18821599 0.13719913
0.15438919 -0.35930616 0.31485295 0.3467759 -0.09996164 -0.16997677 -0.33915558 0.068794705
0.33569995 -0.0930485 -0.023089519 -0.03710712 0.24934842 -0.46933767 -0.058600616 -0.18547124
0.40638366 -0.24424239

linear2.bias f4 [5]
00000000: 0e1a 953d d750 7d3e 4254 b2bd 7d1a cebe
00000010: b075 2dbd
0.0728036 0.24737869 -0.08707477 -0.40254584 -0.042348564
