李康/week02/model.bin (torch, 7552 bytes, 4 tensors)

linear.weight f4 [128, 5]
-0.17959656 -0.32382038 0.4561553 -0.36251456 -0.916811 -0.27569064 0.95140404 0.2593013
0.46826577 -0.33712506 0.7744426 0.3242499 -0.42343757 -0.50393236 0.5322366 -0.59786534
0.6980251 0.70599276 -0.085813224 -0.24323873 0.34084865 0.5791126 -0.6918819 0.7084403
-0.76294637 0.2863948 -0.34459752 -0.6639267 0.36145577 0.008123232 -0.8010193 0.48735088
0.7968354 0.1934068 0.7022659 -0.4943375 0.23974788 0.2769005 -0.2486604 0.8470818
0.00085395254 -0.50712144 -0.41929787 0.63893527 0.9010104 -0.48510817 0.7082829 0.68917733
-0.53779453 0.9261369 0.8221613 0.7899941 -0.6387928 -0.3112628 0.5205478 -0.72400343
-0.099640094 0.040271703 0.50122434 -0.3630112 0.4495263 -0.1855433 -0.6769472 0.36868048
0.56678516 0.7315113 -0.23394921 0.19404475 0.78673255 -0.3843534 -0.6989713 0.640821
-0.6557969 0.7023148 0.4125471 -0.5748321 0.4074546 -0.3543399 0.3966568 0.7089099
-0.20401283 -0.77998763 -0.123669654 0.86510265 0.6826763 0.56331205 0.2882543 0.405158
-0.96868557 0.123371415 0.7797642 -0.06907118 -0.29683027 0.71400666 -0.3244981 0.7027102
0.02384066 -0.5863649 -0.5465458 0.61999744 -0.05767332 -0.14780372 0.20135729 -0.57244796
0.90719754 -0.7147911 0.6203419 0.03691289 0.7215073 0.03723397 0.89260596 -0.70274514
0.01358347 0.520693 0.6779061 -0.50671935 0.7986671 -0.5615814 0.744846 -0.41684958
0.098943345 0.5488491 0.6084481 0.96527034 -0.42468205 0.7643684 -0.24116942 0.63860124
-0.31437153 -0.54899156 0.2189253 0.075440526 0.20282842 -0.7456792 0.0036389795 0.45890468
-0.4775867 0.36568454 0.04862578 0.8042248 -0.69132674 -0.020580515 -0.16548227 0.48319474
-0.45449927 0.02518385 0.9275314 -0.52637196 0.5839561 -0.02723924 0.8014303 0.4424345
-0.01681675 0.5108155 -0.6263663 0.75961155 0.64402914 -0.82735306 0.6717932 0.08407139
-0.09756195 0.72454214 -0.8614278 0.49524012 0.5006665 -0.7968105 0.4905106 0.72145903
0.11225867 -0.16043216 0.91593665 -0.077622816 -0.4083342 0.8490777 -0.22067831 -0.4386534
0.9527186 -0.4091411 -0.061680466 0.8725223 -0.35686558 0.37364855 -0.5295631 0.49391505
0.65040326 0.6875008 -0.2796275 0.058895692 -0.4573429 0.5979755 -0.90066534 0.34921402
0.29064718 0.0025754645 0.4121896 0.5180502 0.27108613 -0.5018515 -0.25894606 -0.37344727
-0.48706034 0.4046611 0.6480449 0.9135692 0.24866933 0.75193226 0.25853577 0.45340744
0.57710546 -0.7388044 0.064717196 -0.12453867 0.71127313 0.7585585 -0.017995164 0.8370199
-0.3366413 -0.27079442 0.13847958 0.22088714 0.69249433 0.05325294 0.1831353 -0.86060447
0.8905937 -0.50679255 0.56179774 0.6846014 0.1713458 0.5930974 -0.36101934 0.89430594
-0.38098463 -0.4413598 0.23665176 0.13043587 -0.48924455 0.59203357 -0.63461405 -0.74272364
-0.514704 -0.5333027 -0.11738109 0.875243 -0.70900446 0.41772625 0.7022684 0.39731857
-0.64668804 0.5558652 -0.33675578 -0.64470226 0.75037605 0.5094166 0.8981134 0.7725862
00000000: 29e8 37be c9cb a5be 308d e93e 829b b9be
00000010: 20b4 6abf 5327 8dbe 378f 733f 24c3 843e
00000020: 88c0 ef3e a89b acbe df41 463f 1504 a63e
00000030: cfcc d8be b601 01bf a840 083f b40d 19bf
00000040: c6b1 323f f1bb 343f d8be afbd 9313 79be
00000050: b783 ae3e b940 143f 2c1f 31bf 585c 353f
00000060: 7450 43bf 57a2 923e 166f b0be 1af7 29bf
00000070: bb10 b93e 4e17 053c 9a0f 4dbf 0e86 f93e
00000080: 68fd 4b3f 6f0c 463e b3c7 333f ce19 fdbe
00000090: 7880 753e e7c5 8d3e d5a0 7ebe 5ada 583f
000000a0: c9db 5f3a b6d2 01bf 36ae d6be 4391 233f
000000b0: 9ea8 663f 1960 f8be 0752 353f ed6d 303f
000000c0: e7ac 09bf 4f17 6d3f 2a79 523f 0e3d 4a3f
000000d0: ed87 23bf d65d 9fbe 9f42 053f 4a58 39bf
000000e0: 1b10 ccbd f1f3 243d 3d50 003f 9bdc b9be
000000f0: 5028 e63e 10ff 3dbe 694c 2dbf b0c3 bc3e
00000100: d518 113f 5344 3b3f 6290 6fbe abb3 463e
00000110: 4e67 493f f8c9 c4be c8ef 32bf d80c 243f
00000120: 4ee2 27bf e7ca 333f 6039 d33e 3228 13bf
00000130: e49d d03e 0a6c b5be 9a16 cb3e 1f7b 353f
00000140: bde8 50be 45ad 47bf 8446 fdbd 5e77 5d3f
00000150: e0c3 2e3f 3835 103f 1196 933e df70 cf3e
00000160: c7fb 77bf 27aa fc3d a09e 473f 3175 8dbd
00000170: 23fa 97be 24c9 363f 9d24 a6be d1e4 333f
00000180: 7d4d c33c 031c 16bf 6dea 0bbf 27b8 1e3f
00000190: dc3a 6cbd dc59 17be 9b30 4e3e f38b 12bf
000001a0: 193e 683f 8dfc 36bf bace 1e3f f831 173d
000001b0: b4b4 383f a682 183d d381 643f 1be7 33bf
000001c0: 348d 5e3c 234c 053f 418b 2d3f 5cb8 01bf
000001d0: 7275 4c3f ccc3 0fbf 3aae 3e3f 4f6d d5be
000001e0: cfa2 ca3d 6081 0c3f 41c3 1b3f f51b 773f
000001f0: ed6f d9be a6ad 433f 1ef5 76be 5f7b 233f
00000200: 4ef5 a0be b68a 0cbf f42d 603e 9080 9a3d
00000210: 41b2 4f3e d5e4 3ebf f27b 6e3b 8ef5 ea3e
00000220: 3e86 f4be 013b bb3e d32b 473d ade1 4d3f
00000230: cafa 30bf 7898 a8bc 2f74 29be 4d65 f73e
00000240: 21b4 e8be 5d4e ce3c b372 6d3f 50c0 06bf
00000250: 267e 153f d424 dfbc 892a 4d3f c686 e23e
00000260: 48c3 89bc cec4 023f 8b59 20bf e775 423f
00000270: 18df 243f 69cd 53bf a4fa 2b3f 9f2d ac3d
00000280: 8fce c7bd 987b 393f 8886 5cbf 1d90 fd3e
00000290: ae2b 003f c6fb 4bbf 3524 fb3e 8ab1 383f
000002a0: e0e7 e53d 5448 24be d37a 6a3f b6f8 9ebd
000002b0: 2e11 d1be 285d 593f 7ff9 61be 2e97 e0be
000002c0: 5ee5 733f f17a d1be a8a4 7cbd 9f5d 5f3f
000002d0: 16b7 b6be dd4e bf3e 7391 07bf 6fe2 fc3e
000002e0: d480 263f 0d00 303f 562b 8fbe 9c3c 713d
000002f0: d928 eabe ec14 193f 0192 66bf 2ecc b23e
00000300: b5cf 943e 20c9 283b 840a d33e f09e 043f
00000310: cdcb 8a3e 5779 00bf 9494 84be 7b34 bfbe
00000320: f95f f9be bd2f cf3e 45e6 253f acdf 693f
00000330: 2ca3 7e3e a27e 403f cd5e 843e 0525 e83e
00000340: 2fbd 133f 4922 3dbf 738a 843d 210e ffbd
00000350: ff15 363f e430 423f 986a 93bc f046 563f
00000360: 405c acbe 91a5 8abe 97cd 0d3e 3d30 623e
00000370: 4f47 313f c11f 5a3d d287 3b3e 9350 5cbf
00000380: f3fd 633f 28bd 01bf fad1 0f3f 0a42 2f3f
00000390: 4675 2f3e 3bd5 173f 87d7 b8be 3cf1 643f
000003a0: 6b10 c3be e9f9 e1be d754 723e fb90 053e
000003b0: 437e fabe 838f 173f 1176 22bf 2323 3ebf
000003c0: a4c3 03bf 8786 08bf 7f65 f0bd ed0f 603f
000003d0: 5181 35bf 37e0 d53e ddc7 333f 576d cb3e
000003e0: 598d 25bf 2f4d 0e3f 416b acbe 350b 25bf
000003f0: a518 403f 2069 023f c3ea 653f 36c8 453f

linear.bias f4 [128]
-0.16408584 -0.15906782 0.13091314 0.14609502 0.38413867 -0.28338492 0.25186205 0.11494399
0.034242276 -0.0150906565 0.08666095 0.57202107 0.17028168 -0.057463508 0.43506536 0.09559332
0.14660369 0.49749497 0.4225514 0.46735385 0.29763475 0.13205835 -0.034927882 0.28422096
-0.21931435 0.23800468 -0.40427342 0.4140798 0.19102694 -0.09277543 0.04923938 0.14323896
0.1352273 0.46757185 -0.1504289 -0.024555067 0.35879326 0.12512073 0.57906634 -0.24293369
0.2967855 0.13057749 0.15396091 0.04939852 0.19450699 0.02991129 0.23965782 -0.4114157
-0.0804323 -0.11298268 0.02460681 0.033643175 -0.2187574 0.23032121 0.11448575 0.39412928
0.24271345 -0.29828098 0.49323592 0.55185527 -0.069728725 -0.5847114 0.17037065 0.046471294
0.2759799 0.13026279 -0.03021596 -0.037594795 0.48924416 0.26984063 -0.55411315 0.031429026
0.4285027 0.24975172 0.07606785 -0.45938343 0.3219919 -0.056565028 0.35582802 0.44116125
0.035219323 0.36559796 0.24839129 0.5684474 -0.01747895 0.10211898 0.09358081 -0.16157538
-0.045075916 0.45349628 0.031469222 -0.24023071 -0.10280211 -0.5353255 0.43298784 -0.057936374
0.2651874 -0.10697321 0.37439108 -0.11366732 -0.6164501 0.17542502 0.14368737 0.41102272
-0.110636435 0.1573719 0.08000278 -0.09737342 0.25388643 -0.003768937 0.32725453 0.25357223
0.4969867 0.5164372 0.073705524 -0.021901738 0.3738617 0.30745164 -0.5173684 0.109346665
0.025464823 0.05816181 0.5803454 -0.107216194 0.24289648 -0.4287389 -0.12531058 0.51809776
00000000: 1e06 28be ade2 22be 180e 063e ef99 153e
00000010: d3ad c43e d417 91be 10f4 803e c167 eb3d
00000020: a141 0c3d cd3e 77bc 4c7b b13d f96f 123f
00000030: 525e 2e3e db5e 6bbd e3c0 de3e 6ec6 c33d
00000040: 471f 163e a9b7 fe3e a858 d83e 0149 ef3e
00000050: 9563 983e 4e3a 073e 8a10 0fbd 6985 913e
00000060: f193 60be 80b7 733e edfc cebe 4402 d43e
00000070: 919c 433e 0b01 bebd 3baf 493d 3cad 123e
00000080: 0679 0a3e 9465 ef3e 090a 1abe b527 c9bc
00000090: c0b3 b73e a61f 003e b13d 143f 9cc3 78be
000000a0: 45f4 973e 1bb6 053e eea7 1d3e 1a56 4a3d
000000b0: d72c 473e 8608 f53c dc68 753e 14a5 d2be
000000c0: b1b9 a4bd 7763 e7bd 3994 c93c 6dcd 093d
000000d0: f101 60be 53d9 6b3e 8177 ea3d 50cb c93e
000000e0: e089 783e 49b8 98be 6b89 fc3e 6346 0d3f
000000f0: efcd 8ebd a5af 15bf a575 2e3e af58 3e3d
00000100: 3d4d 8d3e 9c63 053e 7687 f7bc 00fd 19bd
00000110: 367e fa3e 8d28 8a3e 5cda 0dbf b9bb 003d
00000120: b564 db3e eabe 7f3e 76c9 9b3d 4e34 ebbe
00000130: 1fdc a43e bbb0 67bd 172f b63e e3df e13e
00000140: 2342 103d a82f bb3e 495a 7e3e c585 113f
00000150: 0430 8fbc c123 d13d 4ca7 bf3d 0474 25be
00000160: 86a1 38bd aa30 e83e dfe5 003d 0aff 75be
00000170: ea89 d2bd 180b 09bf 95b0 dd3e b14e 6dbd
00000180: a5c6 873e c514 dbbd 30b0 bf3e 69ca e8bd
00000190: accf 1dbf 9ea2 333e c822 133e 9271 d23e
000001a0: 5b95 e2bd 1926 213e 7fd8 a33d b76b c7bd
000001b0: 67fd 813e 4500 77bb e88d a73e 38d4 813e
000001c0: 0a75 fe3e 3a35 043f ecf2 963d 466b b3bc
000001d0: cd6a bf3e 4d6a 9d3e 4172 04bf 25f1 df3d
000001e0: 9b9b d03c 143b 6e3d 8491 143f 2a94 dbbd
000001f0: dbb9 783e aa83 dbbe 6b51 00be 0ea2 043f

hid.weight f4 [5, 128]
-0.090735435 -0.6314763 0.5625252 -0.6971731 0.18201956 0.30590498 -0.46779412 -0.74303997
-0.15198976 -0.63188004 0.47479793 -1.1884534 0.21924575 0.44811368 -0.5610825 -0.968363
-0.07145586 0.4020379 0.31721076 0.55549616 -0.051158495 -0.72505295 0.48514003 -0.5021559
-0.025903415 0.6224525 0.056189965 0.17724998 -0.6591499 -0.21249327 0.52627575 0.34579948
-0.11791394 -0.73996025 0.56801105 -0.7939231 -0.20266677 0.59968156 -0.92242986 0.5522424
-0.21981676 0.39332908 -0.010392128 0.81115645 0.3433879 -0.41026095 -0.3113422 0.13604571
-0.25984114 0.15819228 -0.3179658 0.52223957 0.14001486 0.47803974 -0.16061178 0.41270694
-0.3863576 -0.23786193 0.28739184 0.20081307 0.506792 -0.2041556 0.03228248 -0.7256694
-0.51348865 -0.59423035 -0.4028865 -0.0029416303 0.34616068 0.35979292 -0.5173589 -0.6881092
-0.9629137 0.060535267 0.03547448 -0.19678517 -0.504694 1.2496516 -0.12897886 1.0286484
-0.7321723 -0.15211108 0.5892696 -0.13966566 0.6137202 -0.60635304 0.38912684 0.102066405
0.13770515 -0.5707965 0.16198052 0.20239334 -0.28261897 0.068780735 0.41923612 0.2655876
-0.17642544 0.23976299 -0.24631949 -0.4865804 -0.067195155 -0.18998083 0.4349775 0.35527533
-0.075234026 0.7308439 0.1676397 -0.4752423 -0.097843304 0.3270227 0.27482074 -0.116108924
0.43191993 0.2631426 0.21472524 0.20803766 0.11611389 0.030507041 -0.23777615 -0.31263873
0.71189046 0.32212624 0.009805184 0.36235192 0.8552936 0.18787578 0.035550565 -0.043572593
-0.16827884 0.65949553 0.1478525 0.532103 0.26629972 -0.32012582 0.2229596 0.082742095
-0.8212337 0.42310426 0.47610354 0.10135794 -0.2485157 -0.49753925 0.37827855 0.22606462
-0.9620196 0.2578315 -0.001993474 0.12605654 -0.136259 0.33992374 -0.7598014 0.61554176
0.17790407 -0.3386072 0.030746108 -0.13129765 -0.1631186 0.5902312 0.2503479 0.26400423
0.35227478 0.41568524 -0.29476294 0.7197363 0.25256315 -0.56077105 0.3236376 -0.37288487
0.15502337 0.091094725 -0.032702945 -0.74291104 -0.046112012 0.24905004 0.9206965 -0.21162935
-0.2684244 0.30692068 -0.80599236 -0.30541426 -0.70666707 0.52218807 0.32070315 -0.6759479
0.31999093 -0.118484505 0.66847914 -0.25779825 -0.42494944 -0.15977953 0.68753904 -0.12022821
-0.73995495 0.30514243 0.013743925 -0.79838747 0.08607122 -0.9076761 0.0992843 0.8189323
0.29025155 0.49684057 -0.9101976 0.0747481 -0.18316863 -0.38375175 -0.40454754 -0.5684939
-0.19621478 0.48574966 -0.36230025 -0.756291 -0.43878424 0.5414371 -0.5543101 0.5241531
-0.14126128 0.64696866 0.10183925 -0.09209028 -0.4521792 -0.25106686 -0.23643881 0.4023493
0.31858453 -0.039353926 0.23166081 -0.7217871 -0.26731277 0.132959 0.5353447 0.059212767
-0.19970922 0.47926426 -0.64406973 0.37736315 -0.8943756 -0.6384299 0.21589622 -0.9744981
-0.45058396 0.3760364 0.20319276 -0.60958856 0.42032254 0.14499614 -0.28892252 0.085494645
-0.8944441 0.41705802 0.22471333 0.47381878 -0.013395632 0.22255668 0.45441297 0.19740109
00000000: 80d3 b9bd 6ea8 21bf a701 103f f079 32bf
00000010: 5663 3a3e 949f 9c3e b682 efbe de37 3ebf
00000020: 34a3 1bbe e4c2 21bf b718 f33e 3e1f 98bf
00000030: f581 603e 286f e53e 1aa3 0fbf a3e6 77bf
00000040: 7357 92bd e9d7 cd3e 7369 a23e ff34 0e3f
00000050: 928b 51bd 129d 39bf 4664 f83e 4a8d 00bf
00000060: 6633 d4bc 0c59 1f3f 7327 663d 0581 353e
00000070: 0cbe 28bf d697 59be 02ba 063f a10c b13e
00000080: dd7c f1bd 096e 3dbf 2c69 113f 8b3e 4bbf
00000090: e187 4fbe bb84 193f 5d24 6cbf c25f 0d3f
000000a0: a517 61be 6e62 c93e be43 2abc f3a7 4f3f
000000b0: 8ad0 af3e b90d d2be 3f68 9fbe 914f 0b3e
000000c0: e609 85be 28fd 213e 6acc a2be 7eb1 053f
000000d0: 0e60 0f3e a0c1 f43e 6a77 24be 534e d33e
000000e0: aad0 c5be 1492 73be 0625 933e f1a1 4d3e
000000f0: 1fbd 013f 2a0e 51be a23a 043d 78c5 39bf
00000100: fe73 03bf 7b1f 18bf 2447 cebe 5ec8 40bb
00000110: f93b b13e c736 b83e a271 04bf ed27 30bf
00000120: 8381 76bf d4f3 773d b04d 113d 0d82 49be
00000130: a033 01bf 95f4 9f3f 0913 04be c0aa 833f
00000140: a56f 3bbf 02c3 1bbe 5fda 163f 8404 0fbe
00000150: c41c 1d3f f439 1bbf a23b c73e 3108 d13d
00000160: 9402 0d3e b81f 12bf 39de 253e 3340 4f3e
00000170: 6fb3 90be eadc 8c3d 1ea6 d63e 19fb 873e
00000180: dfa8 34be 6e84 753e 2d3b 7cbe 1121 f9be
00000190: 9d9d 89bd 568a 42be 5fb5 de3e a6e6 b53e
000001a0: 4c14 9abd 9618 3b3f bea9 2b3e f552 f3be
000001b0: 1262 c8bd 856f a73e 4eb5 8c3e 84ca edbd
000001c0: 9c24 dd3e a0ba 863e efe0 5b3e d307 553e
000001d0: 1fcd ed3d e7e9 f93c 977b 73be 2f12 a0be
000001e0: 743e 363f bbed a43e eca5 203c 3186 b93e
000001f0: 85f4 5a3f 8262 403e 789d 113d 2d79 32bd
00000200: 4a51 2cbe b3d4 283f a566 173e e737 083f
00000210: 7058 883e 88e7 a3be 854f 643e b074 a93d
00000220: 5f3c 52bf 1fa1 d83e d8c3 f33e c094 cf3d
00000230: e67a 7ebe 77bd febe baad c13e 7c7d 673e
00000240: eb46 76bf 7e02 843e f2a4 02bb f714 013e
00000250: 7b87 0bbe 7c0a ae3e 5882 42bf 2594 1d3f
00000260: 7c2c 363e ec5d adbe 43df fb3c e472 06be
00000270: 9008 27be 6419 173f 9a2d 803e 902b 873e
00000280: 5c5d b43e b2d4 d43e 2beb 96be a340 383f
00000290: f54f 813e b18e 0fbf d4b3 a53e c4ea bebe
000002a0: 72be 1e3e df8f ba3d 86f3 05bd 6b2f 3ebf
000002b0: f3df 3cbd f906 7f3e c4b2 6b3f 5db5 58be
000002c0: ec6e 89be b524 9d3e 8455 4ebf 425f 9cbe
000002d0: 22e8 34bf 1eae 053f 3433 a43e ec0a 2dbf
000002e0: dad5 a33e 01a8 f2bd 7321 2b3f 22fe 83be
000002f0: f992 d9be 3f9d 23be 8f02 303f 353a f6bd
00000300: b06d 3dbf a13b 9c3e 332e 613c 1f63 4cbf
00000310: 1c46 b03d 765d 68bf 9155 cb3d 8ca5 513f
00000320: da9b 943e e361 fe3e b602 69bf 8815 993d
00000330: 8f90 3bbe 1c7b c4be db20 cfbe d188 11bf
00000340: 87ec 48be 2eb4 f83e 6b7f b9be 499c 41bf
00000350: 54a8 e0be 9f9b 0a3f 44e7 0dbf e62e 063f
00000360: cca6 10be bd9f 253f 1991 d03d d499 bcbd
00000370: 0884 e7be d68b 80be 041d 72be ba00 ce3e
00000380: 831d a33e 9531 21bd 7e38 6d3e 0ac7 38bf
00000390: 38dd 88be 6726 083e 5a0c 093f 1689 723d
000003a0: 9380 4cbe 2062 f53e c1e1 24bf be35 c13e
000003b0: cdf5 64bf 2470 23bf e613 5d3e b578 79bf
000003c0: f1b2 e6be d887 c03e c311 503e ff0d 1cbf
000003d0: 8434 d73e de79 143e a7ed 93be d117 af3d
000003e0: 4afa 64bf a188 d53e 401b 663e 6098 f23e
000003f0: 5a79 5bbc e6e5 633e d1a8 e83e 8323 4a3e

hid.bias f4 [5]
0.1241916 0.08018871 0.12414674 0.13568258 0.10362336
00000000: 2a58 fe3d fa39 a43d a540 fe3d 60f0 0a3e
00000010: 7c38 d43d
