邓元璋/week03/model.pth (torch, 5306 bytes, 5 tensors)

layer.weight_ih_l0 f4 [6, 20]
00000000: 51b5 99bc 13cf 853b bf3c 363e 45ea 483c
00000010: 5b3d 43be 4df8 d13c 8ae2 3c3b 7682 ae3d
00000020: 8009 cfbc 36fb cf3b b2dc 383d a79e cebd
00000030: ac44 633d 4ce0 6fbd 378f 04be 503a d63d
00000040: dfb8 203e 5f16 903d 5a31 053d e613 9f3c
00000050: a862 f6bc 6838 3ebe 5bb4 133e 7852 33be
00000060: 405e 28be 3db1 0dbe 22e3 293b c534 0ebe
00000070: 7c9f b0bd a94e 0abd 9161 933b dbba a3be
00000080: 98f4 a53d 7551 8cbd 6213 68bd 09c0 f43d
00000090: 13dc ba3d 5f36 003d c0bf 2cbd e759 bc3d
000000a0: 238d c9be 42aa 9dbe df66 b53e 3f12 a13e
000000b0: 89ae 90be 9458 703e 998a cabe 70a9 c8be
000000c0: 4945 88bc 6c1f 33be c7ac c43d ec21 b4be
000000d0: 976f 923d 36f5 bf3e 1265 c73e 19d9 a1be
000000e0: 97a6 edbd ddf0 05bd c1bf 8cbd f728 1fbe
000000f0: 7aca 443e 1590 e73d 5d27 1ebe 9ed0 b33d
00000100: 3995 ac3d 0087 2d3d 228a 033e 8c8a aa3e
00000110: 9282 10be 38ba 923d 17cd aabb 7f4a 913e
00000120: 5cc7 06bd f35d 72be 2911 dfbd 325e 9bbb
00000130: d724 003e 92ae 9c3c 8f92 3b3e 3ebf f9bc
00000140: 4801 cc3e 83f9 ecbc 06c7 0c3d 3264 4a3e
00000150: 5dd7 57be f927 243d 5c17 07be c9b5 093f
00000160: 7421 b9be f475 1ebe 75f0 bdbc 0f63 9ebd
00000170: 633d 913d aa14 f6be 1e95 d3be f638 d93e
00000180: b48b 1f3f 7c82 5e3e 5acc 2b3e 7b71 773e
00000190: 5fda 0e3e 0e62 d23e e41a e5be 60e8 55be
000001a0: 135d f53e 74d0 05be 6109 5c3e 5173 a43e
000001b0: 220d 853e c567 203e 01e4 90bd 4272 093f
000001c0: fd9f a6bd bee8 55bd c8f6 2ebe d84f 3abd
000001d0: 1488 f9bd f3bf 42bd 35f8 903d de06 ecbd
-0.018763216 0.004083523 0.1779661 0.012262885 -0.19066374 0.025631094 0.0028821551 0.08520977
-0.025273085 0.0063470853 0.045132346 -0.10088854 0.055485412 -0.058563516 -0.12945257 0.10460341
0.15695523 0.07035517 0.03251777 0.019418668 -0.03007634 -0.18576205 0.14424269 -0.17511928
-0.16442204 -0.13837142 0.0025922735 -0.13887317 -0.08624169 -0.033766422 0.004497715 -0.31978497
0.08103293 -0.06851474 -0.05665911 0.1195069 0.09124007 0.031301852 -0.042175055 0.09196835
-0.3936549 -0.3079396 0.35430047 0.31459233 -0.2825816 0.2347129 -0.39558867 -0.3919177
-0.0166346 -0.17492455 0.09603267 -0.3518213 0.0715019 0.3749177 0.38944298 -0.31610945
-0.1160404 -0.03270041 -0.06872512 -0.1554297 0.19217864 0.11306778 -0.15444703 0.08780025
0.084268995 0.042365074 0.12845662 0.33308828 -0.14112309 0.07164425 -0.005212437 0.28377149
-0.032904968 -0.23668651 -0.10891945 -0.0047414536 0.12514053 0.01912621 0.18317626 -0.0304867
0.39844728 -0.02892757 0.03436949 0.19764784 -0.21078248 0.040077183 -0.13192505 0.5379301
-0.36158335 -0.15474683 -0.023185948 -0.07733738 0.07091787 -0.4806264 -0.41324705 0.4242627
0.62322545 0.21729463 0.16777173 0.24164383 0.1395049 0.41090435 -0.44747078 -0.20889425
0.47922572 -0.130678 0.21487953 0.3211923 0.25986582 0.15664585 -0.07074738 0.5368997
-0.08135984 -0.052223913 -0.17086327 -0.0454863 -0.12184158 -0.04754634 0.07078592 -0.11524747

layer.weight_hh_l0 f4 [6, 6]
00000000: e1d1 4bbf 719c 0640 e677 81be 186b 443f
00000010: eb63 8c3e fafa 683e 71bc 32be e0e7 65bf
00000020: 8d1f 25bf 8425 0ac0 e80f 4fbf f9f9 ea3e
00000030: 383e e1bf 8c50 233e d174 ffbd 9495 a3bf
00000040: fa85 3d3f 40ce 3d3f acf7 e83d 60b2 f23e
00000050: 8d40 5d3f c528 2cbf a7de d43e 65b9 0e40
00000060: 619f 3a3f 89fc 783e 569d 98bf 7a06 bebe
00000070: bfea cd3f e9e6 0b3f 2717 dc3f 7044 193f
00000080: 716b 30bf 4e8f 15bf 33c9 963f 614e a93e
-0.79617125 2.1032984 -0.25286788 0.7672591 0.2741998 0.2275199 -0.17454697 -0.8980694
-0.6450127 -2.1585398 -0.80883646 0.4589384 -1.7597113 0.15948695 -0.12473453 -1.2780023
0.74032557 0.7414284 0.11375365 0.47401714 0.8642662 -0.6724971 0.4157612 2.2300656
0.7289944 0.24315085 -1.1923015 -0.37114316 1.6087264 0.54649216 1.7194566 0.5987005
-0.6891394 -0.5842179 1.1780151 0.3306761

embedding.weight f4 [28, 20]
00000000: 0000 0000 0000 0000 0000 0000 0000 0000
00000010: 0000 0000 0000 0000 0000 0000 0000 0000
00000020: 0000 0000 0000 0000 0000 0000 0000 0000
00000030: 0000 0000 0000 0000 0000 0000 0000 0000
00000040: 0000 0000 0000 0000 0000 0000 0000 0000
00000050: 2329 dd3e 09e4 07bf ffcf 963e aa71 773f
00000060: d750 9dbf 1f64 733e 627b 88be 3be3 b23f
00000070: e890 35bf 36cf e7be ee90 6abf 4f91 4bbf
00000080: b5dd e73e 5321 abbf b5bb d3be 0956 c23f
00000090: 2c79 0b40 db34 2e3f d208 853f 873f 3c3f
000000a0: 9774 2a3d 2f11 b9bf b32e 1abf a049 893f
000000b0: d69a 053f 8328 45bf 5576 97be 83fe 76be
000000c0: 6b4a 823e 2b5e 78bd 6f89 953e 6e4d 8abf
000000d0: 32fa 903f 5389 2240 2314 e1be 6ebe a83f
000000e0: 42fa a13e b7e2 0f3d a668 22bf bd09 e23e
000000f0: a9c4 d23e 77f6 edbf 73a1 683f ba51 533e
00000100: b97d 42bf c914 89bf 26be de3d cb8c 853f
00000110: 42a7 a43f 0b1e e6be 89d1 d4be 6b25 6ebf
00000120: 5807 ebbe 2e75 8b3f 0860 163f efd1 933e
00000130: 2ba0 babf b8ac 1a40 bf41 a83d 40c8 dabf
00000140: b7ac 003f fa27 c3be d351 b53f 5f9c 163f
00000150: 8b49 6ebf 3ef3 c93e e667 0b3f 6257 01bf
00000160: 5a3a cfbd 6852 a03e 5c67 8f3f 5227 94bf
00000170: 7de2 57bf 4850 d0bd 0e0e 43bf 0734 0ac0
00000180: 3317 9cbf a656 71bf 0335 2abd c0b0 ce3e
00000190: 0a69 e4bf 58af 90bf 72ca f43e d1e3 d93d
000001a0: ad1e d0bd d4dd bebe 2641 c3be f894 0fbf
000001b0: 044d 933b 9796 90bf 356d 923f c3e4 7d3d
000001c0: acf0 f1bd fbf1 013e 95d0 76bf 9eb9 6abd
000001d0: 494a 81bf ffb7 96bf efca d13e 279b a03f
000001e0: c1de 9abe f5a3 3bbf 6065 2a3e 4b4d 03bf
000001f0: 054f 95bf 6efe f8be 74a8 d0be 09b9 863f
00000200: 55a8 913f 6529 8f3f 5633 2e3f 04c0 79bf
00000210: 6d36 36be fecf 893e 2fc2 e03f fc12 bbbf
00000220: 6930 11be 5638 153f 7e69 3dbf 0056 b93f
00000230: 3b7a d63f b450 493f e500 0a40 e9f5 b4be
00000240: a1df 29be e00f 91bc 46dc 8bbf a466 0fbf
00000250: dd25 083f 4097 14bf f056 d63e d95c d2be
00000260: 7ccf ea3f 9514 ce3e 71f3 f4bc 341c b3bf
00000270: 7932 9bbf 9bb6 213f 828b de3b 8537 203e
00000280: 2ebd 24bf 25d0 4abe 35ba c93f a939 09bf
00000290: 39d9 99bf f459 a23e ac77 5dbe 6311 8bbf
000002a0: d209 953d 59f1 833f 13ff 213f 62f7 613f
000002b0: 8737 fb3e cfd7 833e f945 513f d880 473f
000002c0: 2eee 16be 0efc a53f 2886 2fbd 8a6a 8ebf
000002d0: 5302 35bf 6af8 2ebf 5cc0 183f 9184 603f
000002e0: f25c 94bf b99f 80be 230d bdbc f28b dbbf
000002f0: e277 02bd a325 0bbe 21c4 9bba 03e3 963e
00000300: a338 1a3e 308c b2bd c282 4e3e 6ba9 883f
00000310: 9576 60bf 70ae 6cbf c655 983c 4471 11bf
00000320: 9c74 78bf b292 acbf 7609 11be 82e8 0a3e
00000330: 6b38 4b3f d445 673f 2369 8c3e e1e7 5dbf
00000340: 2c0f 8bbe aeb0 a7bd 3c3a df3e 8915 46be
00000350: 8e62 59be e3c7 0b40 786e 5c3f 042b 5d3f
00000360: 0fb3 493f 5b29 1540 5f61 4abe e8cf b43e
00000370: 522a 923f c771 91bf 6cdc a13c b192 bebe
00000380: 47ac 05be 87fb c3bc 3d89 08c0 f685 0cc0
00000390: 70f1 c33e e31a 23bf a1cd 9d3f 6a43 ae3e
000003a0: be13 b23d 7aa8 843e 5294 c6bd 8362 d8be
000003b0: 4d72 0abf 4e4e 263f 51a4 97bd 743c d73e
000003c0: 9236 d1bf 84b1 dbbd 9606 5b3f d8b2 41be
000003d0: 3988 3b3e d81d a23f 0068 87bf d795 193e
000003e0: 1aba fabd 2277 c7be 7e1c ca3f 496a 0bbf
000003f0: 969f 9b3e 7da7 203f 6902 6ebf cfd1 aa3f
0.0 0.0 0.0 0.0 0.0 0.0 0.0 0.0
0.0 0.0 0.0 0.0 0.0 0.0 0.0 0.0
0.0 0.0 0.0 0.0 0.43195447 -0.5308233 0.29455563 0.9665781
-1.2290295 0.23768662 -0.26656634 1.3975595 -0.70924234 -0.45275277 -0.91627395 -0.795186
0.45286337 -1.3369545 -0.41354147 1.5182506 2.1792707 0.680494 1.0393317 0.73534435
0.041615095 -1.4458369 -0.6022751 1.0725594 0.52189386 -0.7701494 -0.29582468 -0.24120526
0.254474 -0.06063668 0.29206416 -1.080488 1.1326354 2.5396316 -0.43960676 1.3183115
0.31636244 0.03512832 -0.6344093 0.44148055 0.41165665 -1.859084 0.9087135 0.20636645
-0.7597309 -1.0709468 0.10876112 1.0433592 1.2863543 -0.44944796 -0.41566113 -0.93025845
-0.4590404 1.0895135 0.5874028 0.28871104 -1.4580129 2.416792 0.08215665 -1.7092361
0.5026354 -0.38116437 1.4165596 0.58832353 -0.9308097 0.39443392 0.5445541 -0.5052396
-0.101185516 0.3131287 1.1203418 -1.15745 -0.8432997 -0.101715624 -0.7619332 -2.1594255
-1.219458 -0.9427284 -0.041554462 0.40369225 -1.7844555 -1.1303511 0.47810704 0.10639156
-0.10162101 -0.37278616 -0.38135642 -0.56086683 0.004495265 -1.1295956 1.1439577 0.061985742
-0.11813483 0.12689964 -0.9641202 -0.057305925 -1.0100795 -1.1774901 0.4097514 1.2547349
-0.30248073 -0.73297054 0.16640234 -0.51289815 -1.166474 -0.48631614 -0.4075352 1.0525218
1.1379496 1.1184508 0.6804708 -0.9755862 -0.177942 0.26916498 1.755926 -1.4615169
-0.14178623 0.58289087 -0.73989093 1.447937 1.6756052 0.7863877 2.1563046 -0.35343865
-0.16589214 -0.017707765 -1.0926597 -0.5601599 0.53182775 -0.5804329 0.41863203 -0.41086462
1.8344569 0.40250078 -0.029901238 -1.3992982 -1.2124778 0.6316926 0.006791533 0.15646179
-0.64351165 -0.19805963 1.5759951 -0.5360361 -1.2019416 0.31709254 -0.21627682 -1.0864681
0.07277264 1.0308028 0.6327984 0.882681 0.49065802 0.25750586 0.81747395 0.77930975
-0.14739296 1.2967546 -0.04285255 -1.1126263 -0.7070667 -0.683478 0.5966852 0.8770228
-1.1590865 -0.2512186 -0.023077553 -1.7152083 -0.03185261 -0.13588576 -0.0011884012 0.2947007
0.15060668 -0.08718145 0.20167068 1.0676702 -0.8768094 -0.9245367 0.018595587 -0.56813455
-0.9705293 -1.3482268 -0.14163765 0.13565257 0.7938296 0.90340924 0.27423963 -0.86681944
-0.27160013 -0.08187996 0.43599117 -0.19344153 -0.21229002 2.184075 0.8610606 0.8639376
0.78788847 2.3306491 -0.19763707 0.3531487 1.1419165 -1.1362847 0.019758426 -0.37221292
-0.13054 -0.023923649 -2.1333764 -2.1956763 0.3827014 -0.637129 1.2328378 0.34035808
0.08695172 0.25909787 -0.096962586 -0.42262658 -0.5408066 0.64963233 -0.07404388 0.4203831
-1.6344779 -0.10727218 0.85556924 -0.1891588 0.18313684 1.2665358 -1.0578613 0.14998566
-0.12242527 -0.3895808 1.5789945 -0.54459053 0.30395192 0.62755567 -0.9297243 1.3345279

classify.weight f4 [6, 6]
00000000: 63c9 c5bf 000c 4840 fc3b 5e40 23f7 50c0
00000010: fd25 78bf 3bd5 31c0 b2b2 76c0 7d58 7bc0
00000020: 733c 94c0 7da1 a6bf 3e4d 08c0 4170 c9bf
00000030: 6463 1140 189e 57c0 fed4 6240 8138 4540
00000040: 9a36 dbbf 0c8b f6bf b1ee 2bc0 1f80 ef3f
00000050: 5f5b eb3f 4a85 4b40 4d85 8a3f a118 9640
00000060: f7af 5440 688a e9bf daea 203e c427 66c0
00000070: 6196 de3f 0d7a 8940 1806 5440 c97b 4a40
00000080: df0d 86c0 58be 0a40 9ae7 a23f d0a2 f2bf
-1.5452083 3.1257324 3.4724112 -3.265084 -0.96932966 -2.7786396 -3.8546567 -3.927276
-4.632379 -1.3018032 -2.1297145 -1.5737382 2.2716913 -3.3690243 3.54425 3.0815737
-1.7126038 -1.9261184 -2.6864436 1.8710974 1.8387259 3.1800103 1.082193 4.6905065
3.32324 -1.8245363 0.15714589 -3.596177 1.7389642 4.296149 3.312872 3.1638052
-4.1891932 2.1678677 1.2726929 -1.8955936

classify.bias f4 [6]
00000000: 64fe ac3d e3ce 51bd c4cb 843e fae8 2fbd
00000010: 129a 9f3c 348c 8ebe
0.08446959 -0.051222693 0.2593671 -0.042946793 0.019482646 -0.27841341
