houyuanzhi/model.pth (torch, 4102 bytes, 2 tensors)

embedding.weight f4 [28, 20]
0.0 0.0 0.0 0.0 0.0 0.0 0.0 0.0
0.0 0.0 0.0 0.0 0.0 0.0 0.0 0.0
0.0 0.0 0.0 0.0 -1.0643166 -2.8801036 -1.5486795 -0.93760055
-0.83693874 1.5278639 -0.4745238 2.167379 0.86450446 2.4434206 1.8989025 -0.2454735
0.10869168 -1.6050477 2.440966 -0.49137136 2.2405677 1.6362106 2.1656704 0.6069009
-1.8887446 -2.1906993 -1.8228632 -1.465692 0.58291113 1.3021075 -0.7369493 2.538623
2.4125462 1.180951 1.7484382 -0.63895875 -1.0912946 -2.19152 0.6764853 -0.5057127
1.4165337 1.0962286 1.0928451 1.9545301 -1.7011678 -1.4058883 -2.1498635 -1.8407079
-0.1964171 1.1742876 -1.531727 0.8920347 2.1481907 0.68908685 2.3340535 -0.66023874
-2.2604864 0.75436306 1.6935579 -0.49985725 0.83794504 2.7858243 1.0712324 1.0387478
-0.26838538 -0.87127775 0.26623598 1.8088864 1.719698 -0.48505327 0.26645976 0.33937436
0.5281723 -2.4839997 0.5380886 0.8495647 -0.21733141 -0.9111709 0.21691516 1.1631837
0.9700408 0.15041363 -1.3304296 -0.50658196 0.6892533 0.30963817 0.6236904 -0.50470936
0.08281483 0.065925494 0.5400152 -0.5483489 -0.0064179376 -0.3058975 0.18022688 -0.23572506
-1.3394608 -0.8430632 -0.71189374 1.4173508 -0.4400234 -0.98882747 0.13091737 0.7530616
1.1450336 -0.69640297 0.36607394 -0.22602504 -1.3121756 -0.28412494 -1.1894869 1.3723402
-0.12050269 -0.4083699 -1.281843 0.104354516 0.16383997 -1.6338474 -0.1957492 0.24711804
-0.53659636 0.0097776465 -0.4346832 -2.296576 0.7951404 1.1058738 -1.053366 -0.36972672
-1.4904739 0.98494905 -0.43979108 -0.6168046 -0.7965039 1.1285169 -0.34855366 0.86462903
-0.71811026 -0.78156567 -0.6496191 1.8230782 -0.20879266 -1.0367919 -1.3790423 -1.311065
0.55841005 0.0768898 0.73048013 -0.7714645 -0.87851775 -0.08560627 0.8568995 0.15589775
0.24353443 -1.695864 0.9430977 0.95983565 1.4190028 1.971491 1.0624394 -0.5548432
-0.026068423 0.42789537 -0.59128314 -0.5725252 0.8022541 -1.2046674 -1.259677 -0.31890857
0.9307722 -0.4097689 0.33281767 -0.46604744 0.2774148 -0.18483357 -1.026064 -1.2852404
0.72105765 1.0607783 -0.15907027 -0.5368899 -0.46889028 -0.2899958 -0.09144338 -0.37034282
0.26079553 0.7359653 1.3323386 -0.42073187 0.6367684 -0.3894305 -0.8683296 -0.8786861
0.64439815 0.3867439 0.16115941 -0.7947884 -0.5587183 0.8729308 -0.6871207 1.4193382
-0.25079906 0.23379762 0.94235873 -0.21992178 -1.6966913 -0.49122828 0.60002244 -0.5357743
1.0078717 -2.154902 -1.1555959 0.122411236 -0.14426892 1.7530042 0.4359807 0.4437104
-0.6134872 0.20645691 -0.9029434 1.0003548 0.65833265 0.27241728 -2.9282699 -3.1901543
0.123322524 0.43007526 0.57021856 1.3775778 -0.70915616 -1.5531688 -1.0594537 0.44181055
0.356745 0.17363185 0.28772265 0.33732548 0.36401296 0.15807536 -0.4749455 -0.21513003
00000000: 0000 0000 0000 0000 0000 0000 0000 0000
00000010: 0000 0000 0000 0000 0000 0000 0000 0000
00000020: 0000 0000 0000 0000 0000 0000 0000 0000
00000030: 0000 0000 0000 0000 0000 0000 0000 0000
00000040: 0000 0000 0000 0000 0000 0000 0000 0000
00000050: 873b 88bf 9e53 38c0 213b c6bf 9706 70bf
00000060: 9e41 56bf 0b91 c33f c9f4 f2be 56b6 0a40
00000070: 2a50 5d3f 0161 1c40 3d0f f33f 685d 7bbe
00000080: be99 de3d 3472 cdbf c938 1c40 0795 fbbe
00000090: 7665 0f40 596f d13f 589a 0a40 db5d 1b3f
000000a0: 62c2 f1bf 6b34 0cc0 9553 e9bf cc9b bbbf
000000b0: aa39 153f 75ab a63f b6a8 3cbf cd78 2240
000000c0: 2867 1a40 6729 973f d3cc df3f cd92 23bf
000000d0: 8baf 8bbf dd41 0cc0 242e 2d3f 6376 01bf
000000e0: fa50 b53f 3851 8c3f 59e2 8b3f 0b2e fa3f
000000f0: debf d9bf 26f4 b3bf 5d97 09c0 519c ebbf
00000100: 9021 49be 0e4f 963f a10f c4bf 635c 643f
00000110: f57b 0940 ff67 303f 2261 1540 6805 29bf
00000120: cfab 10c0 f01d 413f 81c6 d83f 4aed ffbe
00000130: 9183 563f f24a 3240 251e 893f b0f5 843f
00000140: cf69 89be 0f0c 5fbf 1550 883e 9789 e73f
00000150: 101f dc3f e758 f8be 6a6d 883e 7ac2 ad3e
00000160: 4d36 073f daf9 1ec0 2dc0 093f 127d 593f
00000170: 208c 5ebe 7f42 69bf 021f 5e3e 34e3 943f
00000180: 9854 783f 0806 1a3e 844b aabf 5baf 01bf
00000190: e772 303f e588 9e3e 2daa 1f3f a234 01bf
000001a0: d29a a93d f203 873d 703e 0a3f 9860 0cbf
000001b0: 904d d2bb 999e 9cbe 658d 383e e961 71be
000001c0: 7473 abbf fdd2 57bf ab3e 36bf c06b b53f
000001d0: bf4a e1be cc23 7dbf 340f 063e a5c8 403f
000001e0: 7690 923f 7747 32bf 0b6e bb3e 1c73 67be
000001f0: 5ff5 a7bf d378 91be 1b41 98bf d8a8 af3f
00000200: 1dca f6bd dc15 d1be 6e13 a4bf d2b7 d53d
00000210: aac5 273e e921 d1bf 7a72 48be 830c 7d3e
00000220: 615e 09bf 6c32 203c cc8e debe 1afb 12c0
00000230: 528e 4b3f 468d 8d3f b2d4 86bf d24c bdbe
00000240: d9c7 bebf 9f25 7c3f 4c2c e1be e8e6 1dbf
00000250: aee7 4bbf 3e73 903f a075 b2be 5458 5d3f
00000260: 13d6 37bf b014 48bf 704d 26bf a05a e93f
00000270: becd 55be 99b5 84bf 7584 b0bf fad0 a7bf
00000280: f6f3 0e3f 6678 9d3d bf00 3b3f b37e 45bf
00000290: 8ae6 60bf 5752 afbd c45d 5b3f a9a3 1f3e
000002a0: 1761 793e 1212 d9bf da6e 713f cab7 753f
000002b0: e2a1 b53f d159 fc3f 04fe 873f 340a 0ebf
000002c0: 728d d5bc 1a15 db3e 555e 17bf 0391 12bf
000002d0: 8660 4d3f 8b32 9abf 193d a1bf fc47 a3be
000002e0: 1647 6e3f 3bcd d1be 1467 aa3e c59d eebe
000002f0: 5009 8e3e 0345 3dbe 1156 83bf c282 a4bf
00000300: 3c97 383f 95c7 873f 51e3 22be 9e71 09bf
00000310: 6312 f0be 547a 94be ab46 bbbd 939d bdbe
00000320: fe86 853e 3968 3c3f 128a aa3f 2b6a d7be
00000330: 4103 233f 6f63 c7be d94a 5ebf 92f1 60bf
00000340: 47f7 243f 4c03 c63e f906 253e 4177 4bbf
00000350: 2a08 0fbf 6578 5f3f 24e7 2fbf e0ac b53f
00000360: bc68 80be a568 6f3e 6c3e 713f 2d33 61be
00000370: 2e2d d9bf 4682 fbbe 129b 193f 8128 09bf
00000380: f101 813f eae9 09c0 91ea 93bf beb2 fa3d
00000390: 3bbb 13be 7162 e03f dd38 df3e 022e e33e
000003a0: 7f0d 1dbf 7169 533e 4c27 67bf a00b 803f
000003b0: 7d88 283f 477a 8b3e c668 3bc0 7d2b 4cc0
000003c0: 8590 fc3d d332 dc3e d8f9 113f 7854 b03f
000003d0: 428b 35bf 3cce c6bf 2e9c 87bf fe34 e23e
000003e0: 48a7 b63e 8ccc 313e 6250 933e edb5 ac3e
000003f0: e85f ba3e 82de 213e 0e2c f3be 0c4b 5cbe

classify.weight f4 [1, 20]
-0.6474466 -0.6167257 -0.8545457 -0.89495647 -0.02339067 0.7189329 -0.2225019 0.85598844
0.46298906 0.57648754 0.8730768 -0.13145594 -0.6241076 -0.4914244 0.71475667 -0.21590154
0.75580806 1.0442413 0.7193855 0.3576983
00000000: 0fbf 25bf bce1 1dbf 82c3 5abf de1b 65bf
00000010: ca9d bfbc fd0b 383f 8ad7 63be 0f22 5b3f
00000020: e70c ed3e b094 133f f681 5f3f 639c 06be
00000030: 84c5 1fbf fb9b fbbe 4bfa 363f 4b15 5dbe
00000040: a37c 413f b3a9 853f a629 383f 3b24 b73e
