谢鸿志/week03/model.pth (torch, 9079 bytes, 7 tensors)

embedding.weight f4 [28, 20]
0.0 0.0 0.0 0.0 0.0 0.0 0.0 0.0
0.0 0.0 0.0 0.0 0.0 0.0 0.0 0.0
0.0 0.0 0.0 0.0 -0.50453234 0.47805658 -0.18808538 2.2991424
3.3588734 -0.07465042 0.86262095 1.6565095 -0.6490667 2.0651052 0.07280951 1.7307223
0.4489311 -1.0297848 -1.176768 -0.977448 -0.90664667 1.2987062 1.3416245 1.0719277
0.19572964 -1.5318645 0.22855568 0.11443877 1.0656645 -0.2718382 0.07732619 -0.056522254
-0.20427617 0.38413364 0.5765859 0.34897697 0.18658936 -0.57969445 -0.4748328 0.38384086
0.12706265 -1.9025716 0.11520469 -0.6010184 -0.710018 0.19186139 1.8017061 -0.73240846
1.2955849 0.4694423 1.485274 -1.5582972 0.8468697 2.530321 0.49406338 1.0336821
-1.2391667 -0.5040924 -1.9634756 0.033344254 2.3756838 -0.053991206 -0.2800139 -0.026503254
-0.26389086 -1.1753234 0.547387 -0.013991989 0.1929044 -0.34709382 1.471814 0.07043772
0.89703065 -0.55088764 0.4927665 -1.6000779 0.7467327 0.092208825 -0.6797047 0.32839993
-0.38816306 0.89416116 0.27941456 0.6815944 -0.58092695 -0.063672975 0.8430905 -1.0039594
-0.15530884 -0.9749324 -1.2303367 -0.031611703 0.21114112 0.6888614 -0.9878755 -0.041665807
-0.38989076 -0.38692236 -0.8145565 -0.14803879 0.36505553 -0.38377512 0.79504454 0.3671424
0.16969222 -1.6219561 1.232302 -0.01768383 -0.49618945 -0.8774123 -1.1509904 -0.9743628
0.2345884 1.1075821 0.8831894 -0.269489 0.31307825 -1.8339262 -1.1382116 0.227879
0.31924862 1.0414544 -2.010574 0.329694 -0.45488146 0.02186927 -0.19395044 -1.2674376
1.5356189 0.7939256 -1.5301777 0.081007704 0.92600507 -0.3985582 -1.672872 -0.13259411
0.08176757 0.15861742 0.82336116 -0.785563 -0.16361983 0.07460366 -0.09762039 -0.198039
-0.353368 -0.5260051 1.0846096 -1.6254183 1.0506593 0.5220955 0.6772058 -0.62200594
-0.15949667 0.0021859226 -0.6162699 -0.5675958 0.7642257 1.3893446 -1.4711393 -0.11779684
-1.4539438 0.44282892 -1.2145981 -0.24366614 0.58350897 0.3187641 1.6789458 0.7840868
2.3863566 0.44642684 -1.1300771 -0.020502478 1.3167953 -0.4130858 0.49741563 -1.1197398
0.69950145 0.27018845 -2.7494028 -0.35140568 1.0690451 0.54770786 -0.25852033 1.2309616
-0.3029252 -0.8379206 -0.025006933 -0.15063208 0.82009685 -0.15593034 -0.28989163 -1.2102047
0.6685428 -1.5581453 -0.9514454 0.7554903 1.5579383 0.4375174 1.2777318 -0.42362052
0.7749853 -0.5585754 0.767857 -0.015042797 1.2016014 -0.28760564 -1.3884577 -0.5498552
-1.523224 -0.12892032 0.85535336 0.12807173 1.3398192 -0.72641057 -0.37179226 0.79396826
0.39083132 -0.45428798 0.009444912 0.36870694 -0.99817806 1.9886888 -1.2408857 -0.054973934
-0.10485721 1.4058697 0.7289955 0.4584657 0.8550074 0.56043965 -0.25797948 -1.0954552
-0.18406996 0.3593455 0.20233187 -0.17481518 0.8414377 0.7723684 1.0874834 -1.5444126
00000000: 0000 0000 0000 0000 0000 0000 0000 0000
00000010: 0000 0000 0000 0000 0000 0000 0000 0000
00000020: 0000 0000 0000 0000 0000 0000 0000 0000
00000030: 0000 0000 0000 0000 0000 0000 0000 0000
00000040: 0000 0000 0000 0000 0000 0000 0000 0000
00000050: 0829 01bf d5c3 f43e 7499 40be 2625 1340
00000060: c8f7 5640 52e2 98bd bad4 5c3f 8108 d43f
00000070: 3c29 26bf af2a 0440 271d 953d 4f88 dd3f
00000080: 4cda e53e fdcf 83bf 55a0 96bf 083a 7abf
00000090: ff19 68bf 013c a63f 5aba ab3f ed34 893f
000000a0: 5a6d 483e 2314 c4bf 800a 6a3e e05e ea3d
000000b0: b267 883f 602e 8bbe 325d 9e3d e183 67bd
000000c0: c62d 51be 2aad c43e 229b 133f 1cad b23e
000000d0: 4811 3f3e db66 14bf 491d f3be ca86 c43e
000000e0: b61c 023e 7787 f3bf 70f0 eb3d 58dc 19bf
000000f0: bdc3 35bf 5077 443e 4e9e e63f 1f7f 3bbf
00000100: bad5 a53f be5a f03e 751d be3f 4876 c7bf
00000110: 74cc 583f c7f0 2140 e0f5 fc3e b24f 843f
00000120: 049d 9ebf 330c 01bf 2b53 fbbf fc93 083d
00000130: 340b 1840 e225 5dbd fb5d 8fbe 5a1d d9bc
00000140: b41c 87be ff70 96bf 8e21 0c3f a83e 65bc
00000150: bb88 453e 48b6 b1be 6764 bc3f a741 903d
00000160: cda3 653f f906 0dbf e44b fc3e 5acf ccbf
00000170: e029 3f3f fbd7 bc3d 2101 2ebf 0924 a83e
00000180: 4fbd c6be bfe7 643f 6d0f 8f3e f87c 2e3f
00000190: a1b7 14bf fa66 82bd c7d4 573f be81 80bf
000001a0: 4809 1fbe 2b95 79bf ac7b 9dbf 467b 01bd
000001b0: 6135 583e 3959 303f 69e5 7cbf c4a9 2abd
000001c0: c39f c7be b01a c6be c686 50bf 7b97 17be
000001d0: 8fe8 ba3e 2c7e c4be 0a88 4b3f 17fa bb3e
000001e0: ccc3 2d3e 429c cfbf 12bc 9d3f aedd 90bc
000001f0: 8b0c febe 189e 60bf a753 93bf d76f 79bf
00000200: f137 703e 40c5 8d3f b318 623f 76fa 89be
00000210: cb4b a03e 18be eabf ebb0 91bf 1d59 693e
00000220: 8e74 a33e 614e 853f 3fad 00c0 a7cd a83e
00000230: 39e6 e8be 2f27 b33c f29a 46be 653b a2bf
00000240: 298f c43f b53e 4b3f dddc c3bf 5ee7 a53d
00000250: ab0e 6d3f d20f ccbe ab20 d6bf c0c6 07be
00000260: c175 a73d 9b6c 223e ccc7 523f a81a 49bf
00000270: f58b 27be cec9 983d 33ed c7bd bcca 4abe
00000280: a7ec b4be 45a8 06bf 7dd4 8a3f b50d d0bf
00000290: 017c 863f 0da8 053f 5c5d 2d3f c83b 1fbf
000002a0: 1853 23be b241 0f3b ddc3 1dbf f54d 11bf
000002b0: 4ca4 433f 0bd6 b13f 4b4e bcbf 783f f1bd
000002c0: d51a babf 79ba e23e f377 9bbf 9e83 79be
000002d0: d860 153f 0c35 a33e b2e7 d63f eab9 483f
000002e0: 11ba 1840 0f92 e43e 5ea6 90bf d0f4 a7bc
000002f0: c08c a83f fb7f d3be 43ad fe3e a253 8fbf
00000300: 8712 333f 2456 8a3e 37f6 2fc0 72eb b3be
00000310: 78d6 883f 9536 0c3f c75c 84be 2690 9d3f
00000320: 0319 9bbe f781 56bf 57db ccbc 4c3f 1abe
00000330: def1 513f 34ac 1fbe ad6c 94be fde7 9abf
00000340: 9f25 2b3f 4e71 c7bf ed91 73bf d067 413f
00000350: 866a c73f 4802 e03e b78c a33f cae4 d8be
00000360: 7065 463f ccfe 0ebf 4792 443f 1076 76bc
00000370: 13ce 993f 0c41 93be fbb8 b1bf 4fc3 0cbf
00000380: 01f9 c2bf b003 04be 70f8 5a3f 3c25 033e
00000390: 327f ab3f 0bf6 39bf 8e5b bebe 8141 4b3f
000003a0: 0b1b c83e 6f98 e8be d5be 1a3c 28c7 bc3e
000003b0: 9988 7fbf 5b8d fe3f 58d5 9ebf 592c 61bd
000003c0: 60bf d6bd 8af3 b33f 739f 3a3f 04bc ea3e
000003d0: c4e1 5a3f f978 0f3f e315 84be e037 8cbf
000003e0: d67c 3cbe 22fc b73e 1630 4f3e c002 33be
000003f0: 7668 573f efb9 453f a832 8b3f 50af c5bf

rnn.weight_ih_l0 f4 [20, 20]
-0.016586455 0.009481179 -0.093296774 0.085427925 0.14032145 -0.06548591 0.098073035 0.11858132
-0.17460194 0.0010885379 0.06292873 0.1592494 -0.005587137 0.12692001 -0.14822935 0.023972858
0.13385864 -0.06254853 -0.049262054 0.042899463 0.020008564 -0.21056709 0.00030064644 -0.010779143
0.14751674 -0.078873836 0.11234032 -0.092177354 -0.05099911 0.008048072 -0.1058725 0.038116544
-0.031299688 -0.034230758 -0.097157635 -0.11309617 -0.044482656 -0.09364496 0.005654912 -0.046453826
-0.053149883 -0.10844765 0.04745529 -0.10759166 -0.018314531 -0.02763095 -0.045346487 -0.16590999
0.1536995 -0.15786265 0.02692567 -0.15075828 -0.011948356 -0.18205278 -0.029571123 -0.16579686
0.0015259555 -0.1621019 -0.24745055 -0.03029553 0.052655704 -0.091727905 -0.032637816 -0.12474024
-0.035846937 -0.09278122 -0.1187282 0.15710221 -0.0696747 0.020105358 0.18299331 0.0044343695
-0.12039901 -0.046298053 0.05065255 -0.04026392 -0.021524558 -0.018749408 0.11954961 0.008264019
-0.034401342 0.23306026 0.054774377 -0.08201411 0.034305986 -0.12107533 -0.16501164 0.08748372
0.15875398 0.042204306 0.2093297 0.08821234 0.02073169 -0.07232488 0.15762545 0.06393253
-0.060483407 0.2682179 -0.11894061 0.059636783 0.1617784 -0.06552385 0.14093216 0.04003392
0.08314094 0.04540447 0.008942306 -0.038231723 0.058039863 0.07117215 -0.08131675 -0.0057263914
-0.0037700003 -0.20073892 -0.007285811 -0.09626028 -0.14095655 -0.030114437 -0.13782573 0.12867002
0.030420799 0.16161655 -0.105884 -0.0020376304 0.01826949 -0.04991324 0.08970974 -0.15540473
0.09930132 -0.09416598 -0.033678096 -0.12189664 -0.015826952 -0.12001839 0.15561679 0.07618076
0.14896785 -0.061399937 -0.021868266 0.0032269207 -0.15806821 0.014623491 0.024132768 -0.019349609
-0.12591648 0.07178008 0.071071 -0.21775894 0.13153048 -0.025479237 -0.14159752 0.04793174
0.000118403805 -0.16616353 0.0071760514 -0.047683623 -0.0269387 0.060401633 -0.1421453 0.13645138
0.07224268 0.10970128 0.015093918 -0.068688504 -0.18196107 0.16179869 0.06335186 -0.18147102
0.011461486 -0.079147324 -0.07903607 -0.16133282 -0.086984485 -0.009978915 -0.038438376 0.030577019
0.03430246 -0.02321286 0.07050274 -0.020293094 -0.027959768 -0.037715808 -0.010064303 -0.011981
-0.1270086 -0.032883927 0.10478607 0.09446479 -0.116219245 0.08847558 0.06419088 -0.1776208
0.105144195 0.033148345 0.062164247 0.02379539 0.08449549 -0.073046535 0.038082782 0.13981652
0.19004597 0.087162755 -0.23631886 -0.1704741 -0.046329886 -0.0011235068 0.15323265 0.21480066
-0.12596141 0.027130263 0.09790308 0.14913666 0.07480327 -0.18369068 -0.07714445 -0.041717075
-0.04162898 0.22009623 0.16425006 0.13099022 0.103865996 -0.17766468 -0.0027579297 0.044233497
0.17986901 0.17600928 -0.007669902 -0.09158803 -0.1297205 -0.13019069 -0.04527522 -0.07933641
-0.011098074 -0.15240608 -0.13248108 -0.0651263 0.011537663 0.10041801 0.018414162 0.031570066
-0.22987148 0.053345367 0.08175843 -0.13432124 -0.19420573 0.23121524 -0.13335964 -0.079109415
0.1302367 -0.15855072 0.04722426 0.04010891 0.15700409 -0.060416605 -0.09119394 0.026135635
00000000: 51e0 87bc f256 1b3c 6112 bfbd d6f4 ae3d
00000010: 6db0 0f3e 7a1d 86bd 84da c83d c3da f23d
00000020: daca 32be 45ad 8e3a c7e0 803d 4612 233e
00000030: 4d14 b7bb 52f7 013e 6fc9 17be ba62 c43c
00000040: 3d12 093e 7219 80bd 02c7 49bd 59b7 2f3d
00000050: 00e9 a33c e69e 57be 15a0 9d39 019b 30bc
00000060: a10e 173e 9b88 a1bd af12 e63d 7bc7 bcbd
00000070: 71e4 50bd 10dc 033c aed3 d8bd 1820 1c3d
00000080: 1a34 00bd 8d35 0cbd 95fa c6bd f79e e7bd
00000090: 7233 36bd eec8 bfbd d74c b93b 5e46 3ebd
000000a0: b1b3 59bd cd19 debd 7a60 423d 0459 dcbd
000000b0: 5b08 96bc 4d5a e2bc 3dbd 39bd 4fe4 29be
000000c0: 6763 1d3e bfa6 21be 3993 dc3c 6160 1abe
000000d0: 0ac3 43bc 0b6c 3abe 243f f2bc a7c6 29be
000000e0: 9202 c83a 0afe 25be ad63 7dbe 552e f8bc
000000f0: 82ad 573d d7db bbbd 3baf 05bd d077 ffbd
00000100: 3dd4 12bd 1504 bebd c527 f3bd 67df 203e
00000110: 9cb1 8ebd feb3 a43c 9962 3b3e 304e 913b
00000120: c293 f6bd 07a3 3dbd 0c79 4f3d c8eb 24bd
00000130: 4554 b0bc 5c98 99bc 6dd6 f43d cf65 073c
00000140: 6ce8 0cbd 59a7 6e3e 195b 603d 04f7 a7bd
00000150: 6f84 0c3d 58f6 f7bd d0f8 28be aa2a b33d
00000160: 6790 223e 6cde 2c3d 865a 563e aca8 b43d
00000170: 81d5 a93c 111f 94bd 9168 213e 0fef 823d
00000180: 73bd 77bd db53 893e 2297 f3bd b345 743d
00000190: 3da9 253e 5e31 86bd 8550 103e 9cfa 233d
000001a0: cc45 aa3d 0afa 393d c082 123c de98 1cbd
000001b0: 35bb 6d3d b4c2 913d 6589 a6bd 74a4 bbbb
000001c0: 1c12 77bb 818e 4dbe d0bd eebb 1c24 c5bd
000001d0: ea56 10be 8db2 f6bc 3022 0dbe 13c2 033e
000001e0: 0a35 f93c cf7e 253e b6d9 d8bd c489 05bb
000001f0: e6a9 953c d371 4cbd bdb9 b73d 6b22 1fbe
00000200: 7e5e cb3d 18da c0bd 0bf2 09bd f2a4 f9bd
00000210: 86a7 81bc 34cc f5bd 025a 1f3e a904 9c3d
00000220: 078b 183e 807e 7bbd 1425 b3bc bf7a 533b
00000230: a2dc 21be 5e97 6f3c 15b2 c53c 1283 9ebc
00000240: 40f0 00be 6f01 933d ac8d 913d 33fc 5ebe
00000250: edaf 063e d5b9 d0bc f1fe 10be 1254 443d
00000260: 8f4f f838 c626 2abe 1525 eb3b e74f 43bd
00000270: 8cae dcbc b467 773d 8a8e 11be e9b9 0b3e
00000280: f8f3 933d 11ab e03d 7b4c 773c 8fac 8cbd
00000290: 0154 3abe 8eae 253e 9fbe 813d 8ad3 39be
000002a0: f5c8 3b3c fe17 a2bd aadd a1bd 6e34 25be
000002b0: ec24 b2bd 9a7e 23bc 8f71 1dbd a87c fa3c
000002c0: bc80 0c3d e528 bebc be63 903d b43d a6bc
000002d0: e20b e5bc e47b 1abd bfe4 24bc f54b 44bc
000002e0: 8b0e 02be 4cb1 06bd 149a d63d c176 c13d
000002f0: 5b04 eebd af32 b53d 8276 833d 3ae2 35be
00000300: d755 d73d 8fc6 073d f09f 7e3d 8dee c23c
00000310: f90b ad3d 6c99 95bd b1fc 1b3d 102c 0f3e
00000320: 699b 423e 6382 b23d 92fd 71be c390 2ebe
00000330: 68c4 3dbd a242 93ba 05e9 1c3e b4f4 5b3e
00000340: 07fc 00be 4940 de3c 6981 c83d 48b7 183e
00000350: 7532 993d 6919 3cbe e9fd 9dbd 86df 2abd
00000360: 2683 2abd e860 613e 2b31 283e 4d22 063e
00000370: b2b7 d43d bbed 35be 62be 34bb 2f2e 353d
00000380: 952f 383e c73b 343e cd53 fbbb 8192 bbbd
00000390: 73d5 04be b550 05be 8272 39bd 217b a2bd
000003a0: b2d4 35bc 5710 1cbe 1fa9 07be f060 85bd
000003b0: 7708 3d3c f5a7 cd3d 4cd9 963c 9d4f 013d
000003c0: 6e63 6bbe ac80 5a3d f770 a73d 828b 09be
000003d0: dedd 46be b0c3 6c3e 6e8f 08be 1e04 a2bd
000003e0: c55c 053e 1f5b 22be 3a6e 413d 3e49 243d
000003f0: aec5 203e 6777 77bd e3c3 babd 661a d63c

rnn.weight_hh_l0 f4 [20, 20]
-0.037331384 0.39167163 -0.31004068 0.07383212 0.38312745 0.14896199 -0.24013425 -0.4434007
0.51957273 -0.0031337424 -0.19877973 -0.09515262 -0.5825596 0.28805536 -0.33352017 0.15784116
0.01624177 0.32074198 -0.28024828 0.04036949 -0.4973097 0.065186895 0.3185458 -0.11168734
-0.4839004 -0.19077848 0.08307386 0.35993484 -0.00687976 -0.21396327 -0.079423234 0.3830223
0.48643026 -0.6377868 -0.121905014 0.31857708 0.038094714 0.25424975 -0.31147283 -0.12113905
-0.0045850137 -0.31353807 -0.006707192 -0.03828835 0.09530659 -0.1764432 -0.26467752 0.202045
0.22759794 0.33040422 -0.49054384 -0.47462043 -0.116072066 -0.17994319 -0.13327669 0.42370948
0.60151994 -0.021440864 -0.15650336 -0.043910783 -0.37955746 0.451291 0.09440384 0.17228746
0.08541131 0.21771808 0.19614248 0.13756905 0.48918697 -0.36544394 -0.2516277 0.06306071
0.05357739 -0.44005573 -0.21912621 0.4241181 0.13234678 -0.04633111 -0.03560072 0.2526379
-0.027507296 0.27171522 -0.06653475 0.34312314 0.17760526 0.3647794 -0.23898484 -0.013499345
0.07385358 -0.38238892 0.004867739 0.41154101 -0.12706968 -0.22068837 -0.3132519 -0.3051781
-0.03503863 -0.1805337 -0.19710499 0.11265774 0.08956651 0.05665011 0.34744614 0.060244925
-0.18325318 -0.34010056 0.09229797 0.18382642 -0.47402602 -0.29457232 -0.06730677 0.43878123
0.36782512 -0.09470365 0.3950192 -0.031130062 -0.40987536 -0.23475139 -0.22585037 -0.3493409
0.16077583 -0.25656313 -0.009985122 0.3648234 -0.043512505 -0.2640946 -0.30261344 -0.033181556
-0.29420352 0.040416308 -0.16778953 0.11545917 0.109371275 0.010218046 0.51450527 -0.22678384
0.01603493 -0.32264268 -0.4474879 -0.3102978 -0.3666354 -0.2447337 0.3369396 -0.6105132
-0.026069928 0.2883027 0.070978686 0.34235403 -0.058401704 0.4476709 -0.26540893 -0.27071908
0.24888794 -0.000701047 0.23276193 -0.00407954 0.38827738 0.087042466 0.22282207 0.20842868
-0.36539337 0.41148508 -0.3559403 0.081622615 -0.1196103 0.43181515 0.03760121 0.12835304
-0.057662908 -0.3963383 0.38395655 0.38353816 -0.2613121 -0.37606913 -0.13154572 -0.29249147
0.050134435 -0.2976433 -0.31661075 0.24288045 0.26821527 -0.12202772 -0.119454585 -0.13070327
0.20379536 0.25361457 -0.017875187 -0.51040584 0.054248214 -0.1740777 0.38388377 -0.38441774
-0.33874747 0.54505867 0.16210362 -0.53252226 -0.0347158 0.11290272 0.299168 0.2784026
0.2126589 -0.35210443 0.2589163 0.33961016 -0.16098717 -0.584103 -0.048624832 0.12436906
-0.2538715 0.11924635 -0.021253029 0.1247721 0.47743696 -0.18013194 -0.15937978 0.08961797
0.098071024 -0.106019646 -0.16818169 -0.45359516 -0.40603963 0.03483571 0.15620722 -0.1555957
-0.15601888 -0.36105072 -0.06256715 0.20203051 0.1872651 0.36316672 -0.28002 0.11596901
0.107038654 -0.36212188 -0.22028184 0.44571966 0.4026422 0.2832886 -0.12057835 -0.35886976
0.09400269 -0.2469424 -0.123166986 -0.18806453 -0.056583203 -0.22767664 -0.26725256 0.25206995
0.31992158 0.5672119 -0.19007026 -0.3288199 -0.07553232 -0.12495973 -0.21562786 0.50904334
00000000: cbe8 18bd 2f89 c83e a7bd 9ebe 4b35 973d
00000010: 4829 c43e 7e89 183e c1e5 75be 6b05 e3be
00000020: b802 053f 795f 4dbb ea8c 4bbe 60df c2bd
00000030: a022 15bf fe7b 933e 28c3 aabe 1da1 213e
00000040: 760d 853c 4b38 a43e b47c 8fbe 7a5a 253d
00000050: 619f febe b580 853d 6f18 a33e 55bc e4bd
00000060: cbc1 f7be 6f5b 43be a122 aa3d 6149 b83e
00000070: 9c6f e1bb 3019 5bbe a6a8 a2bd 801b c43e
00000080: 630d f93e ff45 23bf 56a9 f9bd 891c a33e
00000090: 3409 1c3d 062d 823e 5e79 9fbe c017 f8bd
000000a0: e23d 96bb 1088 a0be 01c8 dbbb 3fd4 1cbd
000000b0: 1a30 c33d 87ad 34be d083 87be e2e4 4e3e
000000c0: 6f0f 693e be2a a93e 9028 fbbe 7301 f3be
000000d0: 31b7 edbd 0743 38be af79 08be 73f0 d83e
000000e0: 36fd 193f c0a4 afbc 6b42 20be cbdb 33bd
000000f0: 5b55 c2be 9d0f e73e cd56 c13d 206c 303e
00000100: 20ec ae3d 7df1 5e3e 93d9 483e e7de 0c3e
00000110: b776 fa3e 781b bbbe 59d5 80be f925 813d
00000120: f773 5b3d fc4e e1be 9f62 60be 0226 d93e
00000130: ea85 073e b1c5 3dbd 10d2 11bd c159 813e
00000140: fb56 e1bc 421e 8b3e 5f43 88bd d6ad af3e
00000150: 27de 353e 5ec4 ba3e 71b8 74be 5b2c 5dbc
00000160: 8c40 973d 7bc8 c3be 8e81 9f3b 81b5 d23e
00000170: 8e1e 02be 22fc 61be 8e62 a0be 4e40 9cbe
00000180: ab84 0fbd d4dd 38be e4d5 49be 1ab9 e63d
00000190: a56e b73d f209 683d 76e4 b13e 62c3 763d
000001a0: b9a6 3bbe a921 aebe b806 bd3d fe3c 3c3e
000001b0: 8ab3 f2be 2fd2 96be 22d8 89bd efa7 e03e
000001c0: 9353 bc3e fdf3 c1bd f53f ca3e 7904 ffbc
000001d0: 2fdb d1be ab62 70be 5245 67be cfdc b2be
000001e0: 6ba2 243e 3e5c 83be a398 23bc 22ca ba3e
000001f0: 2b3a 32bd 6837 87be 26f0 9abe 62e9 07bd
00000200: d8a1 96be 928b 253d 05d1 2bbe db75 ec3d
00000210: 0cfe df3d 9769 273c 9eb6 033f 063a 68be
00000220: af5b 833c 6c31 a5be 221d e5be 5adf 9ebe
00000230: a3b7 bbbe 799b 7abe 5983 ac3e 984a 1cbf
00000240: 9a90 d5bc 699c 933e 465d 913d 0749 af3e
00000250: a036 6fbd 1f35 e53e aee3 87be b19b 8abe
00000260: 7bdc 7e3e 78c6 37ba 2559 6e3e a9ad 85bb
00000270: 4bcc c63e 5243 b23d 782b 643e 546e 553e
00000280: d714 bbbe 2cae d23e cf3d b6be c229 a73d
00000290: 3ff6 f4bd e016 dd3e ba03 1a3d fb6e 033e
000002a0: f12f 6cbd dbec cabe f495 c43e 1d5f c43e
000002b0: b3ca 85be 228c c0be ecb3 06be 71c1 95be
000002c0: c459 4d3d b464 98be ce1a a2be a7b5 783e
000002d0: 8353 893e abe9 f9bd 9ba4 f4bd 14d7 05be
000002e0: bbaf 503e c5d9 813e fc6e 92bc f5a9 02bf
000002f0: 6033 5e3d 6d41 32be 6a8c c43e 67d2 c4be
00000300: 4f70 adbe f788 0b3f 7efe 253e 6153 08bf
00000310: 2832 0ebd 8b39 e73d 8c2c 993e c98a 8e3e
00000320: 41c3 593e 0847 b4be ad90 843e 62e1 ad3e
00000330: d2d9 24be c687 15bf d52a 47bd 35b5 fe3d
00000340: 72fb 81be 6e37 f43d d51a aebc 8488 ff3d
00000350: 9e72 f43e 8274 38be 7434 23be a089 b73d
00000360: 76d9 c83d d420 d9bd d237 2cbe a03d e8be
00000370: 6de4 cfbe e4af 0e3d c9f4 1f3e 7b54 1fbe
00000380: 6ac3 1fbe a4db b8be 3523 80bd 16e1 4e3e
00000390: 6cc2 3f3e fdf0 b93e c85e 8fbe 2981 ed3d
000003a0: 1537 db3d 0a68 b9be 9091 61be 5e35 e43e
000003b0: 1e27 ce3e 340b 913e c8f1 f6bd c7bd b7be
000003c0: 7b84 c03d 78de 7cbe f93e fcbd fd93 40be
000003d0: cac3 67bd 1124 69be 54d5 88be 500f 813e
000003e0: c3cc a33e cd34 113f c7a1 42be 155b a8be
000003f0: b0b0 9abd e3ea ffbd 8dcd 5cbe aa50 023f

rnn.bias_ih_l0 f4 [20]
0.057319142 0.09460852 0.15125383 -0.2608366 0.013475009 0.23065872 -0.12312246 0.47784024
-0.020206958 0.14695024 -0.17563154 0.009183582 0.32853806 -0.32304943 0.27245262 0.33963183
0.06503527 0.076404594 0.004926471 0.1770701
00000000: 7ac7 6a3d 1dc2 c13d 49e2 1a3e 608c 85be
00000010: 49c6 5c3c cd31 6c3e a127 fcbd 7aa7 f43e
00000020: 1089 a5bc 207a 163e c1d8 33be bc76 163c
00000030: 2436 a83e bc66 a5be e97e 8b3e 39e4 ad3e
00000040: 3631 853d 037a 9c3d 3c6e a13b dd51 353e

rnn.bias_hh_l0 f4 [20]
0.09492535 0.26815036 0.36744124 -0.2893386 -0.25563392 0.24869256 -0.17619704 0.39869004
0.16501142 -0.22822994 -0.023088822 0.18988696 0.24677503 -0.16734712 0.23243128 0.36164832
0.29888353 -0.05843582 0.090450175 0.32722536
00000000: 3968 c23d 014b 893e 4221 bc3e 3024 94be
00000010: 73e2 82be 43a9 7e3e ff6c 34be 1a21 cc3e
00000020: c1f8 283e 1cb5 69be c524 bdbc ba71 423e
00000030: 98b2 7c3e 0b5d 2bbe 7702 6e3e f829 b93e
00000040: 4307 993e 665a 6fbd f13d b93d 158a a73e

classify.weight f4 [6, 20]
0.2835939 0.4422164 0.37126464 0.5472774 0.06919477 -0.4495833 -0.1955998 0.21737874
0.39300376 -0.2283138 -0.14712523 0.39562935 0.23627721 -0.23083678 0.43011698 0.37130287
-0.06296107 0.46087897 -0.06638184 -0.12703587 -0.630253 0.22545968 -0.44243142 0.16870728
0.0031528787 0.4447616 -0.0015270932 0.25689286 0.35362417 0.03350521 -0.051083807 -0.26752472
-0.27002916 -0.4830248 -0.5481869 0.44713384 0.47687557 0.1939226 -0.5738493 0.24601549
-0.5097656 0.29713076 0.28717166 -0.44084454 -0.3690548 0.27753705 0.47055206 0.2778906
-0.36431733 -0.14167756 0.48079047 0.3296112 0.1419917 0.01788285 0.41055024 -0.29307476
-0.39838666 -0.034266442 0.42006877 0.17125349 0.31559464 -0.5053632 0.20858587 -0.2699916
-0.43592748 -0.5501724 -0.11852901 0.33089116 -0.5203536 0.6448698 -0.26086888 0.09074436
0.26608762 -0.12448641 0.422708 0.038682185 0.3078857 -0.50620705 0.13820153 -0.5797545
0.33255032 -0.4763486 -0.32754523 -0.1375068 0.34631142 0.07201395 0.41451526 -0.48059073
0.31168953 0.35699382 -0.05432109 -0.51520425 -0.33888087 0.41231462 -0.09799635 0.14922324
0.25295547 0.38486606 0.65069175 0.1596662 0.3433507 0.35453212 -0.44668502 0.35166347
0.30353054 0.18497328 -0.14372276 -0.5813891 -0.32598415 -0.28419632 0.44295058 0.24148493
-0.5192462 0.44324115 -0.16227484 -0.5113514 -0.18381886 -0.42299545 -0.4651583 -0.2695808
00000000: 3833 913e 306a e23e 6616 be3e 5f1a 0c3f
00000010: fdb5 8d3d c82f e6be 504b 48be 8898 5e3e
00000020: ca37 c93e 18cb 69be ffa7 16be ee8f ca3e
00000030: a7f2 713e 7a60 6cbe 4b38 dc3e 691b be3e
00000040: bcf1 80bd 54f8 eb3e 34f3 87bd b115 02be
00000050: 4358 21bf e7de 663e 5f86 e2be 9ac1 2c3e
00000060: 87a0 4e3b cbb7 e33e bf28 c8ba 7687 833e
00000070: 3a0e b53e c23c 093d 413d 51bd 00f9 88be
00000080: 4341 8abe 074f f7be fa55 0cbf baee e43e
00000090: 0929 f43e a593 463e cae7 12bf 7ceb 7b3e
000000a0: 0080 02bf 8621 983e 2a08 933e 60b6 e1be
000000b0: c0f4 bcbe 5619 8e3e 33ec f03e ad47 8e3e
000000c0: cd87 babe ec13 11be 2b2a f63e cdc2 a83e
000000d0: 4666 113e 0e7f 923c a433 d23e e50d 96be
000000e0: 56f9 cbbe f85a 0cbd 4113 d73e 135d 2f3e
000000f0: 9f95 a13e 7c5f 01bf 8997 553e 573c 8abe
00000100: e331 dfbe 19d8 0cbf 56bf f2bd 916a a93e
00000110: e535 05bf 3016 253f 9b90 85be 2ed8 b93d
00000120: a33c 883e bbf2 febd 2f6d d83e 3671 1e3d
00000130: 32a3 9d3e c996 01bf b484 0d3e ca6a 14bf
00000140: 0944 aa3e f7e3 f3be 02b4 a7be 95ce 0cbe
00000150: bb4f b13e 0d7c 933d 583b d43e fd0f f6be
00000160: c595 9f3e e5c7 b63e cb7f 5ebd 6de4 03bf
00000170: cb81 adbe e71a d33e 4fb2 c8bd facd 183e
00000180: 6183 813e 2a0d c53e bc93 263f 897f 233e
00000190: aacb af3e 3c85 b53e e6b3 e4be 3c0d b43e
000001a0: 5b68 9b3e a369 3d3e 0f2c 13be ebd5 14bf
000001b0: 65e7 a6be 2e82 91be 6bca e23e d347 773e
000001c0: 52ed 04bf 81f0 e23e 602b 26be ede7 02bf
000001d0: 033b 3cbe dc92 d8be 3b29 eebe 7f06 8abe

classify.bias f4 [6]
0.12355035 0.06186622 -0.10228764 -0.1510015 0.04954995 -0.1593817
00000000: f707 fd3d 6f67 7d3d 2f7c d1bd 23a0 1abe
00000010: e3f4 4a3d f534 23be
