廖文波/week03/model.bin (torch, 8900 bytes, 7 tensors)

embedding.weight f4 [29, 20]
000000 00 00 00 00 00 00 00 00 00 00 00 00 00 00 00 00
       0.0 0.0 0.0 0.0
000010 00 00 00 00 00 00 00 00 00 00 00 00 00 00 00 00
       0.0 0.0 0.0 0.0
000020 00 00 00 00 00 00 00 00 00 00 00 00 00 00 00 00
       0.0 0.0 0.0 0.0
000030 00 00 00 00 00 00 00 00 00 00 00 00 00 00 00 00
       0.0 0.0 0.0 0.0
000040 00 00 00 00 00 00 00 00 00 00 00 00 00 00 00 00
       0.0 0.0 0.0 0.0
000050 02 2f 6e bf 3b 85 73 3f e6 89 2c 3f be d7 c7 be
       -0.9304048 0.9512517 0.67397916 -0.39031786
000060 f7 28 ea bd f5 8b dc be 8e 11 ef bc 96 6c b7 3f
       -0.11433595 -0.4307553 -0.029183175 1.4330013
000070 49 13 03 bf ad 66 c9 3c 54 af bc 3e 3e b1 a8 3e
       -0.512013 0.024585092 0.36852515 0.32947725
000080 a6 d4 93 be d7 ce 99 3f 0d 36 e7 3d 60 bd 8c 3d
       -0.28873175 1.2016248 0.11289606 0.06872058
000090 fb c9 c7 3e 59 3d af bf ae d7 b2 3f 93 78 29 bf
       0.39021286 -1.3690597 1.397207 -0.66199607
0000a0 5b 64 92 3e 88 a0 f3 3e 9e 58 37 bf bf 67 ba 3d
       0.2859219 0.47583413 -0.71619594 0.09101819
0000b0 11 d6 bc 3f bf b6 d6 3e 1b 11 9f bf e2 6b f0 3e
       1.4752828 0.419363 -1.2427095 0.46957308
0000c0 17 f5 8b 3f 86 0e 87 be d2 ad 9f bf 73 61 a7 bf
       1.093417 -0.26378268 -1.2474921 -1.3076614
0000d0 fc 57 65 bf ef f9 30 bf 12 58 4a 3f 97 fc 1b 3f
       -0.8958738 -0.6913137 0.79040635 0.60932297
0000e0 96 b1 09 3f a4 11 92 bf 5c bd 7a bf 17 15 36 bf
       0.537866 -1.1411633 -0.9794519 -0.7112593
0000f0 cc fd a2 3e 4c 91 6f bf 94 b8 8b bf 05 8a a4 3e
       0.31834257 -0.9358108 -1.0915704 0.3213655
000100 c9 4d a3 bd 04 84 5a bf 6d 96 8d 3f 1a b5 ec 3e
       -0.07973821 -0.8535769 1.1061531 0.4623192
000110 c2 ee 80 bf 29 bd 8c 3c 8b 69 31 be 98 e7 11 bf
       -1.0072863 0.017180042 -0.17325418 -0.5699401
000120 3e 6e 5b bf 46 cf b9 bf 7c 31 8c be 2a fd ec 3f
       -0.8571509 -1.451638 -0.27381504 1.851476
000130 ef ae bc 3f 9f 0d 54 3f c5 95 6c bf dd db 37 bf
       1.4740885 0.82833284 -0.9241603 -0.7181986
000140 2e ea 7f bf 36 6d fd 3e 8e 7a 8b 3f d3 e9 04 bf
       -0.99966705 0.49497384 1.0896776 -0.5191929
000150 3d db 47 3f 40 cf 53 3f 39 5b 2f 3f 23 33 c6 bf
       0.78068906 0.82738113 0.6849857 -1.5484356
000160 ae e4 a4 3e 20 e2 e0 3f 64 68 11 c0 3e 49 9e 3e
       0.3220572 1.7569008 -2.2719965 0.30915254
000170 3d b9 3f 3e 61 55 0d bf 30 4d 8a bf 58 e5 bf be
       0.18723007 -0.552084 -1.0804806 -0.37479663
000180 f2 ce a9 3e 3f fd b7 3f f8 14 ee 3e 00 a2 3e 3f
       0.331657 1.437416 0.46500373 0.7446594
000190 3c 5d 1c be 96 90 1c bf d1 40 94 3f 4b 32 31 3e
       -0.15269941 -0.6115812 1.158228 0.17304341
0001a0 87 94 08 3f ea 06 c9 bf 82 b4 4c 3d 58 27 56 bf
       0.53351635 -1.5705235 0.049976833 -0.83653784
0001b0 f4 ba 5f bf 66 53 67 bf a6 67 d1 3e e7 6e fc bf
       -0.8739464 -0.9036163 0.4089939 -1.9721345
0001c0 ce 11 de be df 32 8d 3f 15 4e 6e 3f b7 b4 8c 3d
       -0.4337296 1.103115 0.93087894 0.06870406
0001d0 b7 b7 49 3f c4 bd a4 3d ba b2 b5 3e c7 38 81 bf
       0.7879595 0.080440074 0.3548792 -1.0095452
0001e0 c2 5f 22 bf 28 ad 22 3f 7f 5c 0e 3e 36 e4 d8 bf
       -0.63427365 0.63545465 0.13902472 -1.6944644
0001f0 01 47 5f bf 45 1a 46 bf f9 82 85 bc b3 ac 96 bf
       -0.8721772 -0.77383834 -0.016297804 -1.1771454
000200 dc 80 4f bf 82 24 b1 bf ef f6 86 bf f7 c5 0e 3d
       -0.81056 -1.3839266 -1.0544108 0.034856763
000210 9e 0a ce 3b ec 7f b4 3f 4a 08 3f 40 ff f9 c7 be
       0.0062878868 1.4101539 2.984881 -0.3905792
000220 95 02 b1 3f 04 f2 82 bf 60 79 46 3f 64 55 28 bf
       1.3828913 -1.0230107 0.77528954 -0.65755296
000230 79 a8 fd bd ad 20 80 bf e5 e0 a3 bf c0 a4 f5 bd
       -0.12385649 -1.0009972 -1.2803007 -0.11994314
000240 64 c3 09 be 29 e3 32 3f 87 ea 90 be aa ce 2b be
       -0.13453442 0.6987787 -0.2830393 -0.16778055
000250 cf c7 e3 be 9d 4e 29 3f 41 2c 87 bf c6 6b 52 3e
       -0.4448838 0.6613558 -1.056038 0.20548925
000260 50 9c 27 3f 01 9a 35 be fe ac c6 be 91 c4 9e be
       0.6547289 -0.17734529 -0.38803858 -0.31009343
000270 d8 06 3a bf 45 99 96 bf b1 8f b4 bf ee 79 84 bf
       -0.7266669 -1.1765524 -1.4106351 -1.034971
000280 89 07 d0 bf b9 06 c9 bf 3c 0e f0 be 4f e3 89 bf
       -1.62523 -1.5705177 -0.4688586 -1.0772494
000290 2f 96 b9 be e3 ec ef bd 86 30 a4 3f da cb a4 3f
       -0.36247393 -0.117151044 1.2827308 1.287471
0002a0 5e 5d d7 3f 04 99 0c 3f d2 3d b1 3f d4 6f 14 bf
       1.6825368 0.54920983 1.3846991 -0.57983136
0002b0 c8 9b 98 bf 59 79 92 3f 0d 1d 82 bf c1 d9 6f 3f
       -1.1922541 1.1443282 -1.0165116 0.9369164
0002c0 e3 61 1d 40 2b fc 34 bf f5 4e 3c bf bb 31 29 be
       2.4590995 -0.7069728 -0.7355798 -0.16522877
0002d0 83 93 0e bc 4f 9e 44 3f aa f7 5e bf 9f 84 4c bf
       -0.008702162 0.7680406 -0.87096655 -0.79889864
0002e0 02 09 64 be e2 cb 9b 3e 4e 03 58 3e 71 88 74 3e
       -0.22269061 0.30428988 0.2109501 0.23880173
0002f0 07 aa 54 bf c6 ba 09 40 54 1f 79 be 43 4c 0c bf
       -0.8307194 2.1520247 -0.24328357 -0.54803866
000300 d4 3c d8 bf f2 70 5e 3f d1 29 3d 3f 42 26 6f bf
       -1.6893563 0.8689109 0.7389193 -0.9341775
000310 a0 6b 99 bf 76 9a 23 3f a9 db 5f bf c2 89 99 bd
       -1.198597 0.63907564 -0.8744455 -0.07496978
000320 31 b8 1a 3f 93 10 a5 be 97 08 7d 3f 9a 75 14 3f
       0.60437304 -0.32239208 0.9884123 0.57991946
000330 cd 8e db be ab f9 08 bf 94 9a d2 be ba 3f 64 3e
       -0.42882386 -0.53505963 -0.4113356 0.22289935
000340 d9 e0 02 c0 aa f4 06 c0 6b 2e f3 bf b4 69 3e bf
       -2.0449736 -2.108683 -1.8998541 -0.7438004
000350 b2 f3 69 be 27 2d b8 bf c6 8d 17 3f 07 08 8b be
       -0.22846869 -1.4388779 0.59200704 -0.27154562
000360 ab 11 62 bf 03 f2 1c 3f bb 50 dd be 5d c6 a0 3e
       -0.8830821 0.6130678 -0.43225655 0.3140134
000370 d3 9e 2c bf f0 e7 83 3f 76 3d a2 3e 81 53 97 3e
       -0.67429847 1.0305157 0.31687516 0.29555896
000380 a0 e4 f1 3d f3 90 29 bf b8 22 1d c0 c9 37 ba 3f
       0.11811185 -0.662368 -2.455244 1.4548274
000390 10 5f b3 bd b9 30 4c 3f 80 c0 8f bf 2d 50 58 bf
       -0.08758366 0.79761845 -1.1230621 -0.8449734
0003a0 a0 ab 1e c0 d6 a1 e1 3f 4a 3c 90 be ed f3 41 3e
       -2.4792252 1.7627513 -0.28170997 0.18940707
0003b0 54 ea 9a bf d8 29 87 be 18 72 51 3f 27 48 ac 3e
       -1.2102761 -0.26399112 0.8181472 0.33648798
0003c0 4a 7b ae 3f 72 0d 6d 3e 83 99 a3 be d0 1b 4b 3f
       1.3631375 0.2314966 -0.31953058 0.79339314
0003d0 10 5b 06 bf 5c eb 9e 3e 20 76 32 be f9 4c ea 3c
       -0.524827 0.3103894 -0.17427874 0.028601157
0003e0 db 19 21 3f 92 57 35 bf 1f ef 86 3e 55 14 ac 3f
       0.6293008 -0.70836747 0.2635431 1.3443705
0003f0 87 d3 31 3f 7b 75 c5 be 8e 12 0d bf b6 b6 65 bf
       0.6946339 -0.38566193 -0.5510644 -0.8973192

classify.weight f4 [7, 20]
000000 f0 42 93 3e c9 e9 49 be e0 84 1d be 7b 8c ba be
       0.28762007 -0.19718088 -0.15382719 -0.36435303
000010 8c 60 dd be ea b1 bb 3e 10 f9 19 bf f7 5a dd 3e
       -0.43237722 0.36659175 -0.60145664 0.43233463
000020 5f dc d1 bd 55 4c e3 be 7a 7a 68 3e 53 2c 85 3e
       -0.102471106 -0.44394174 0.22702971 0.2601038
000030 76 d6 34 3e 44 bc a3 be b0 31 80 3e b1 4c 36 3e
       0.17659935 -0.31979573 0.2503791 0.17802693
000040 e1 5b aa be 40 1e f0 be c7 5f 22 3e de a9 06 be
       -0.33273223 -0.4689808 0.15856849 -0.13150737
000050 0d ef a3 bc 39 c6 ce be d4 56 15 be e5 4c 01 3f
       -0.02001145 -0.40385607 -0.14583904 0.50507957
000060 d0 5d 7a be 8b df cb 3e 08 fa ce 3e d8 48 17 bf
       -0.24449849 0.39818987 0.40425134 -0.59095526
000070 b6 2c d4 be 3e 62 c6 3e 61 85 b7 3d c1 a1 4c 3e
       -0.41440362 0.38746828 0.08960987 0.19983579
000080 2e 49 02 be 1e 87 f0 3e 9a ab 23 3e 1c f3 18 bc
       -0.12723228 0.46978086 0.1598343 -0.009335306
000090 c1 8b 45 3f 95 cb 0e 3f 82 7b 43 3e 59 b2 7e bd
       0.7716637 0.5577939 0.19090083 -0.062181804
0000a0 8b 09 07 3f ee e5 08 3f 35 b7 ec 3e 10 c8 a6 3e
       0.52748936 0.53475845 0.46233526 0.3257451
0000b0 37 ab b7 be f4 0e 57 be 79 09 1b 3f 9b 99 91 be
       -0.35872814 -0.21001798 0.6056133 -0.28437504
0000c0 78 2f 51 3f e6 0c 85 3e 18 6a 08 bf 16 d1 71 3e
       0.81713057 0.25986403 -0.53286886 0.23614916
0000d0 44 ad 8e 3e ba 46 bc 3e 4d c6 a9 be c0 17 55 be
       0.27866566 0.3677271 -0.33159104 -0.20809841
0000e0 89 27 b1 3e 93 80 08 3f ca ee ba bd ed 97 48 3e
       0.34600475 0.5332119 -0.09127577 0.19589205
0000f0 8d 21 01 bf 5d 71 dc 3e 44 ee d0 3e 14 9e 80 3e
       -0.5044182 0.4305524 0.40806782 0.25120604
000100 ad ef 28 3f 77 38 d9 be 32 52 bd 3e 54 b4 eb be
       0.65990716 -0.42425892 0.36976773 -0.46036017
000110 d1 f1 d1 3e 02 71 3e 3e 68 e7 ed be 47 58 2c bf
       0.41004804 0.18597797 -0.4646561 -0.673222
000120 12 0d dd be 4c 0d 2b 3e 63 a8 1f 3e c6 ae 8d 3e
       -0.43174034 0.16704291 0.15591578 0.27672404
000130 03 d7 18 3f e9 1d 8d 3e 02 7f 38 bf e8 ce 2c be
       0.5970308 0.27561882 -0.720688 -0.16875803
000140 9b 03 f0 be f6 29 c2 3e 2e 5c 15 3e df 52 20 3f
       -0.4687775 0.3792264 0.14585945 0.6262645
000150 0a 11 e4 3e 49 d9 97 be c2 61 08 3f 3a 44 37 3f
       0.4454425 -0.29657963 0.53274167 0.7158848
000160 b4 a4 b2 3e bf 86 2e 3f f7 f4 c3 be b2 4d 42 be
       0.34891284 0.68174356 -0.3827283 -0.18974951
000170 79 e8 d1 be 01 d8 af 3e bf 5a 4a 3e c3 b9 b2 be
       -0.40997675 0.34344485 0.1976118 -0.3490735
000180 b1 a3 db be ca 07 2f bf 80 be 86 be c5 ec 21 3f
       -0.42898324 -0.6837126 -0.26317215 0.63251907
000190 37 98 08 bf a4 e7 2c 3f 05 2d 85 3e ec 16 60 bf
       -0.5335726 0.67540956 0.2601091 -0.87534976
0001a0 5c 5c df 3e 5f cd 29 bf 83 ca 15 bf 5a c4 a9 3d
       0.43625152 -0.66328996 -0.58512133 0.08289404
0001b0 66 4f 2b 3f ad d2 06 bf ee eb d5 be aa 16 d8 be
       0.6691803 -0.52665216 -0.41781563 -0.4220479
0001c0 78 1c 8b be 15 8a 94 bd cc 0d 6f be f4 19 bc be
       -0.27170157 -0.072528996 -0.23345107 -0.3673855
0001d0 9a 0d 73 be cb 94 9a be 46 ce a7 be ff 89 f3 3e
       -0.23735657 -0.30191645 -0.32774562 0.4756622
0001e0 e5 f7 a8 bd c6 90 da bd b6 23 9b 3e 25 97 81 be
       -0.08250407 -0.106721446 0.30300683 -0.25310627
0001f0 15 f5 a6 3e bf d6 f9 3e 18 85 a6 3e fc 30 85 bd
       0.32608858 0.4879665 0.32523417 -0.06503484
000200 7d ca b9 be f3 30 30 be c5 95 a1 3e e9 b6 1e bf
       -0.362873 -0.17206173 0.31559578 -0.6199785
000210 a6 3a 16 bf 46 27 0b be 04 a1 19 bf 66 cf 17 bf
       -0.5868324 -0.135892 -0.60011315 -0.5930084
000220 7d 7c 19 be 8d ce 04 bd 00 98 08 bf 37 d2 1d 3f
       -0.14988895 -0.032423545 -0.53356934 0.6164889

classify.bias f4 [7]
000000 a7 6a 80 bd cc e3 1f be c6 f2 f3 bc e4 bb 81 be
       -0.06270342 -0.15614241 -0.02977885 -0.25338662
000010 c7 b9 5a be 7c d6 9b be da ea 58 bd
       -0.21359931 -0.30437076 -0.052958347

rnn.weight_ih_l0 f4 [20, 20]
000000 f8 76 09 3d 78 d9 f9 bd 30 aa 22 3e 54 46 01 be
       0.033560723 -0.12199682 0.15885234 -0.12624484
000010 26 5d f4 bc 07 9b 6c bd 34 e7 09 3e 39 04 06 3d
       -0.029829573 -0.057765033 0.13467103 0.03271887
000020 4e 42 86 bc 07 78 f4 3d 68 f6 cc bd 82 fa a9 3d
       -0.016389038 0.11936956 -0.10007936 0.08299734
000030 80 91 9a be 98 01 da bd 43 05 ee bc c6 3d e7 3b
       -0.30189133 -0.10644835 -0.029055243 0.0070569245
000040 f9 e9 83 bd a1 06 2b be ee 94 d3 bc 98 08 1a 3d
       -0.06441111 -0.16701747 -0.025827851 0.037605852
000050 57 71 40 3b 8e be b5 3c 1d 4a 63 be 25 d2 30 3e
       0.002936443 0.02218559 -0.2219624 0.17267664
000060 9b de 6f be 9a cf 17 be 5f 42 ea bd fe 77 e5 3d
       -0.23424761 -0.14825287 -0.114384405 0.11204527
000070 63 d4 54 3e 41 ad 95 bd 57 dd 08 3e 51 72 8b bd
       0.20784144 -0.07308436 0.13365684 -0.068089135
000080 82 ca ce 3d a1 3e 0a bd 58 a0 11 3e 77 88 24 3e
       0.10097219 -0.033751134 0.14221323 0.16067682
000090 a1 6d f6 bc 80 4b 2c bd 1c 0c 1c 3d 0e ca 59 3d
       -0.030081572 -0.04206419 0.038097486 0.05317121
0000a0 33 38 40 be 63 cb c4 3d e9 28 9d 3e 32 b8 c4 bd
       -0.18771438 0.096091054 0.30695274 -0.09605445
0000b0 3a 6f 90 3e b0 3e 71 3d 14 53 83 3d 96 0c d0 be
       0.2820986 0.058897674 0.0641233 -0.40634602
0000c0 ad a8 7c 3e 32 ff f2 3e 30 46 c1 be 6a 03 5b 3e
       0.2467372 0.47460324 -0.3774886 0.21388021
0000d0 d3 f1 7a bd 8c 7f 25 be f1 aa 29 be f7 79 07 be
       -0.061265778 -0.16161937 -0.16569115 -0.1323012
0000e0 db 24 8a 3e 00 b4 10 3c bb b5 57 bd cc b7 82 3e
       0.26981243 0.008831978 -0.052663546 0.2553085
0000f0 45 57 92 3c a1 fb 57 bd 3f e2 15 be 37 ce 74 3d
       0.017863879 -0.052730206 -0.14637087 0.059766974
000100 32 d5 a8 bd 82 2e bd bd ff 2a 6a 3d a5 15 ff bc
       -0.08243789 -0.09237386 0.05716991 -0.03113825
000110 6e ca d2 bd a7 7d f9 bd d1 1d e4 3d 5f a8 8c 3d
       -0.10292517 -0.121821694 0.111384995 0.06868052
000120 3a ff 11 be 0a fc 09 3e 39 cc 6f 3d bb a6 2b be
       -0.14257517 0.13475052 0.05854437 -0.16762821
000130 b7 ef 2f 3c 51 a5 d7 bd f7 df 2a be e0 a5 b3 3c
       0.010738305 -0.105295785 -0.16686998 0.021929681
000140 6f 74 bd 3b a0 65 3e 3b 62 a0 26 3e bb 0e 96 be
       0.005781702 0.0029052272 0.16272119 -0.29308113
000150 05 d7 72 3d 34 7e 26 bd 06 9e ae bd 79 2c 9c be
       0.05928709 -0.0406477 -0.08526234 -0.3050268
000160 be 0b 72 3e 37 b6 39 3e 62 ee 35 be 9a 7f 53 bc
       0.23637292 0.18135916 -0.17766717 -0.012908841
000170 3a 91 ad 3e 52 17 32 be 34 94 48 be 84 df e5 bc
       0.33899862 -0.17391708 -0.19587785 -0.028060682
000180 74 fd b9 3c d9 be 7f 3e 96 27 dc 3d 45 83 06 3e
       0.022703864 0.24975146 0.10749738 0.13136013
000190 cc 2e 1e 3c e0 1f f0 3d 17 60 16 3e b7 68 1e bd
       0.009654712 0.1172483 0.14685093 -0.038674083
0001a0 3c d5 d4 3d b0 e9 bd bd cb 2c 96 3d 35 11 72 bd
       0.10392234 -0.09273088 0.07332762 -0.05909844
0001b0 95 8b f4 3d 6b 81 e6 3c fc 0a 1f be 3c 59 fe 3d
       0.11940686 0.028137883 -0.15531534 0.12419364
0001c0 05 b1 fc 3d 0d a9 33 3d a0 51 98 bc 3c 4b 12 3e
       0.12338451 0.04386239 -0.01859361 0.14286512
0001d0 f0 4f 8f bd 43 5a 6c 3e e9 60 fc bd 33 73 04 3e
       -0.06997669 0.23081307 -0.12323172 0.1293457
0001e0 69 7d f0 3b 5b 4b 1d bd 9e 09 a1 3e b6 8a 1a be
       0.007339169 -0.038401943 0.3145265 -0.15091977
0001f0 15 dd 91 3e d5 aa fd 3d 37 02 93 3d d0 a2 18 be
       0.28488985 0.12386099 0.07178157 -0.14905858
000200 07 98 11 3d e3 05 8b 3e 8f 94 ac be 6b 68 8b 3d
       0.035545375 0.2715293 -0.3370709 0.068070255
000210 a5 b6 94 3d 8c 35 46 bd b3 f4 2e be 02 82 39 3a
       0.07261399 -0.04839091 -0.17085533 0.00070765626
000220 59 56 d7 3d c7 52 f7 3d f1 7a 1c 3e 62 10 d8 bd
       0.105145164 0.120763354 0.15281273 -0.1055
000230 0c cb 52 be 13 c5 55 3d 4d 7d 1b 3b af ab 01 be
       -0.20585269 0.052189898 0.0023725808 -0.12663148
000240 2c 28 2b 3e ac 7c 1c 3c c8 80 75 bd c8 3f 56 bd
       0.16714543 0.0095512085 -0.05993727 -0.05230692
000250 d9 9f 85 bd 84 8c 18 3e 27 2a 11 be 52 0d 86 3e
       -0.06524629 0.14897352 -0.14176236 0.26182038
000260 23 60 35 be 81 38 f8 bd ca 2d 89 3d 22 2f d1 bd
       -0.17712454 -0.12120152 0.06698187 -0.10214068
000270 41 38 93 3d fd 34 e4 3c 9e e1 53 be 84 5e 82 3c
       0.07188464 0.027857298 -0.20691535 0.01591421
000280 ed 1b ad 3c e4 44 0d be f9 bd 53 be 5f 2c 99 bb
       0.02113148 -0.13795811 -0.20677938 -0.004674479
000290 6a a9 2f be 50 8d d4 ba 10 29 06 bd dc 0e ed 3d
       -0.1715447 -0.0016216431 -0.032754004 0.115751
0002a0 68 ff fd 3d 8a fd 16 be d1 d3 8f bd d9 2f 42 3c
       0.124022305 -0.14745155 -0.07022823 0.011852228
0002b0 fd 3b 0e be a8 da cd 3d 19 d5 a7 3d 1c 74 ed 3d
       -0.13890071 0.10051471 0.08194942 0.11594412
0002c0 15 42 39 bd a8 ff dc bd cd 01 2b be a0 7b 19 3d
       -0.045229036 -0.1079095 -0.16699906 0.037471414
0002d0 e6 9e 3e 3d 58 0b b0 bd b6 ef 44 3d 0e bb a0 3d
       0.046538256 -0.08595914 0.04808017 0.07848178
0002e0 fe f1 65 be 53 c5 44 3d 54 0f 7f be 37 0f e6 3d
       -0.22455594 0.048039746 -0.24908191 0.11233371
0002f0 ba 2c 22 be ae a3 36 3d 24 02 1b 3e 02 70 31 bd
       -0.15837374 0.04458969 0.15137535 -0.04331971
000300 25 8d 28 3c 8f cf 72 3d 4a 2c 0d 3e 6b 8d cb 3d
       0.010287558 0.059279975 0.13786426 0.09939083
000310 13 22 97 3c fe 38 93 bd 59 b3 e5 bd 33 3a e3 bd
       0.018448865 -0.07188605 -0.112158485 -0.11095085
000320 69 e3 a0 bc 9b 45 c4 bc 51 05 1d 3d 5b c9 51 be
       -0.019639688 -0.023958972 0.03833515 -0.20486967
000330 51 53 04 3e ec 01 03 be e0 88 16 3d 6e 90 ff bd
       0.12922408 -0.12793702 0.036751628 -0.1247872
000340 24 ff 0c 3d cd 82 9e 3d cf ca a7 bd 24 d0 57 3e
       0.03442301 0.07739792 -0.081929795 0.21075493
000350 bf ae c4 bd 04 de 41 be 4f 94 7a bd 67 7a 1d be
       -0.09603643 -0.18932348 -0.061176594 -0.15378724
000360 66 5a 0e 3e 6c ab 08 3e 88 5c ec 3d 3b 29 0c 3e
       0.13901672 0.13346642 0.115410864 0.13687603
000370 fd 95 04 3e cf b5 33 be 5d 19 57 be db e6 2d 3e
       0.12947841 -0.17549823 -0.21005769 0.16982596
000380 97 34 e9 3c 74 0c 20 bc b3 de cc bd 4e 09 93 3e
       0.02846746 -0.009768594 -0.10003414 0.28718036
000390 dd 2f a0 be 79 5d 41 be e1 63 69 3e ee 70 35 bd
       -0.31286517 -0.18883313 0.22792007 -0.04429715
0003a0 c6 ed 93 bd 55 70 9e 3e a0 e9 1c 3e cd 0c 18 3e
       -0.07223086 0.30945078 0.15323496 0.14848633
0003b0 69 ec 9c bd 26 c3 8d be 01 41 65 be d8 0b 66 be
       -0.07662279 -0.2768795 -0.22388078 -0.22465456
0003c0 bc bb 2e 3e 9f c3 7c bd b4 89 c9 be 0c 11 4e 3e
       0.17063802 -0.061709996 -0.39362872 0.2012369
0003d0 e0 e8 07 3e 8f d1 6e be 87 84 9a bc 36 9b 9a 3e
       0.13272429 -0.23322128 -0.018862022 0.30196542
0003e0 36 ae 00 be 76 e4 85 be 3d 7d 82 3e 3f 79 11 3e
       -0.12566456 -0.26150864 0.25486174 0.14206408
0003f0 59 34 1d be 6f 25 84 3e b0 b5 37 3e ad 51 ce 3b
       -0.15352 0.2580981 0.17940402 0.0062963576

rnn.weight_hh_l0 f4 [20, 20]
000000 6c 36 53 3d a2 48 6b be ce df d8 bc df ff 0b 3d
       0.051565573 -0.22976926 -0.026473906 0.034179565
000010 eb 68 19 be a7 14 82 bc af 81 22 3e b0 74 b9 be
       -0.1498143 -0.015878988 0.15869783 -0.36221838
000020 b6 5e 5a 3d 81 40 93 bd 18 72 81 bb a6 6d 3f 3e
       0.05331298 -0.071900375 -0.0039503686 0.18694171
000030 1b b5 6e 3e 9b 0c 20 3d c7 4e 05 3f 41 c8 0e 3f
       0.23311274 0.03907452 0.5207333 0.55774313
000040 05 93 4f 3e a4 bf 87 3e 8f b6 63 3b 6c 42 0c bf
       0.20270927 0.26513398 0.0034746265 -0.5478885
000050 b9 f0 29 bd e6 36 78 3e ce fa 96 3e ba b6 9b be
       -0.041489337 0.24239692 0.29488224 -0.30412847
000060 bf 95 27 3f 8f c9 5c be a2 87 ac 3e ba cd b9 3e
       0.6546287 -0.21561264 0.3369723 0.3628977
000070 98 9a 20 3e c8 b1 3b be 78 65 21 be c4 e7 0b bf
       0.15683973 -0.18329537 -0.15761364 -0.5465052
000080 7e 33 ac be 16 36 fd bd c2 74 9e bc ce 8a 9e be
       -0.33633035 -0.12363832 -0.019342784 -0.30965275
000090 d0 72 b2 be bf 5c b3 bd 64 c1 ba be 25 27 ec 3e
       -0.3485322 -0.08757924 -0.3647567 0.46123615
0000a0 67 23 6e be 9d db d5 bd e3 1a a9 3e 22 f0 14 be
       -0.23255692 -0.104422785 0.33028325 -0.14544728
0000b0 89 36 cf 3e 46 2c 8f bd d9 c3 8b 3e e5 c3 fb 3e
       0.40471295 -0.06990866 0.27297857 0.49172893
0000c0 3c ce 2e bc 46 93 5a 3e d0 63 ee bd 3c 36 3a be
       -0.010669287 0.21345243 -0.116401315 -0.18184751
0000d0 c5 6e 37 be 6d a9 b8 3d 42 26 a6 3d 1a ee 6e be
       -0.17913349 0.090166904 0.08112766 -0.23333016
0000e0 13 e7 8f be 46 9b ea bc 2d 45 aa be 98 f6 e8 3b
       -0.28105983 -0.028638493 -0.33255902 0.0071094744
0000f0 6a 83 8a be 17 8a 21 3f e5 ea 6e 3e 08 7e 03 3d
       -0.27053386 0.63101333 0.23331793 0.032102615
000100 92 1a 00 be 85 e4 f7 be b7 be c8 be e4 f6 6c bd
       -0.12510136 -0.48416534 -0.39208004 -0.05785264
000110 11 d9 04 3f af 27 6b 3e 39 c1 46 bf 15 64 96 3d
       0.5189372 0.22964357 -0.77638584 0.07343308
000120 d7 d7 95 be 68 eb 4c bd b8 b8 e4 b9 5f 4b 81 bd
       -0.29266235 -0.05002919 -0.00043625175 -0.06313204
000130 20 7b ae 3e a4 24 d8 bd 97 67 af be 6f 71 79 bd
       0.34078312 -0.10553864 -0.3425872 -0.060899194
000140 d8 c0 3a bd a5 7c d6 bc c2 ac b5 3d 40 d6 e3 be
       -0.045594066 -0.026182482 0.088708416 -0.44499397
000150 de 87 c8 3e d2 64 e0 bd e8 f2 8c bd 02 cf ed 3e
       0.39166158 -0.1095673 -0.06882268 0.46446997
000160 89 2b 55 bd e8 25 e3 bd 06 0d f8 bd c5 88 48 3d
       -0.05204347 -0.110912144 -0.12111859 0.04895856
000170 13 5d 4c be 0f c6 e2 bd 00 1b 1d be 9e f0 66 be
       -0.1995738 -0.11072933 -0.15342331 -0.22552726
000180 27 0b 95 be f1 a4 c5 be 4b dc b8 be 0c e0 ec 3e
       -0.2911007 -0.38602403 -0.3610557 0.46264684
000190 fc e5 77 bd f9 50 27 be 33 11 08 bf 62 62 20 3d
       -0.060522065 -0.16339482 -0.53151244 0.039156325
0001a0 c5 b3 d4 be d9 d0 10 3e 34 e4 1e be 7a c9 a1 be
       -0.41543403 0.14142169 -0.1551674 -0.31599027
0001b0 15 cf 14 3d 3e a2 de 3d 38 5a cd 3b 98 38 db 3e
       0.0363303 0.10870789 0.0062668584 0.42816615
0001c0 a8 57 8d 3e 34 ae 55 be 40 08 a8 3e 09 9e d2 3e
       0.2760594 -0.20867234 0.32818794 0.41136196
0001d0 96 54 57 3e 48 14 5b 3e 0c 31 d9 3e 24 7a 99 be
       0.2102836 0.21394455 0.42420232 -0.29975998
0001e0 87 67 e6 bd 55 b7 da 3e 4f 03 30 bd 64 f4 2b be
       -0.11250215 0.42717996 -0.042971905 -0.16792446
0001f0 3e 81 bd bd b1 37 aa be 8c 47 7a be 12 07 8e 3e
       -0.092531666 -0.33245614 -0.24441355 0.2773977
000200 7f 7b 2d 3f 44 ed 5e 3e ae 44 1b bf 17 9a 2f be
       0.67766565 0.21770197 -0.6065167 -0.17148624
000210 c6 ab 8e bd f4 ce f8 3d 0d 0d 68 3e 37 17 0b 3e
       -0.06966357 0.12148848 0.22661228 0.13583075
000220 16 db 6b 3e fb 44 7f 3d 3c 38 6a 3d 09 5b 14 be
       0.23032793 0.062321644 0.057182536 -0.14487852
000230 78 b6 ae 3e 75 cb 45 bd 6b 90 2d 3d 90 83 39 bf
       0.34123588 -0.048289735 0.042374056 -0.72466373
000240 c8 d0 9d be 3a 19 15 3e 74 6d 31 bf ae 4f d5 3d
       -0.3082335 0.14560404 -0.6930764 0.10415588
000250 d3 36 ae be b1 6e de be ea 30 c8 3e a1 96 ca 3d
       -0.34026203 -0.43443826 0.39099818 0.098920114
000260 9b 92 9e bd af 30 da be cd 43 8d bd 55 f0 3e be
       -0.077428065 -0.42615268 -0.068976976 -0.18646367
000270 5b 95 21 be 75 0d b3 be 3c 06 64 3c a9 03 bf bb
       -0.15779631 -0.34971204 0.013917502 -0.0058292937
000280 c7 e1 62 be 61 cb 24 3e e4 f4 c3 3e 28 a3 39 be
       -0.2215644 0.16093208 0.38272774 -0.18128645
000290 e4 ef 8b 3e 2c 06 20 be 35 be 88 3e f4 ce e8 3e
       0.2733146 -0.15627354 0.26707616 0.45470393
0002a0 1b 5d ce 3c e4 6f bc bd d0 a0 6a bd 88 07 17 bf
       0.02519088 -0.09201029 -0.05728227 -0.58995867
0002b0 1f f3 25 bf 14 09 3e be 90 3b f5 bd 00 0a 94 be
       -0.648241 -0.1855815 -0.11974251 -0.2891388
0002c0 90 6b 84 3d 5c 49 ae be 41 ec b8 be 1a be 3b 3d
       0.064658284 -0.34040344 -0.36117747 0.04583559
0002d0 c6 f4 cd bd 71 a2 d1 3e 9c cc e1 3e 24 05 a0 3c
       -0.100564525 0.40944245 0.44101417 0.019533701
0002e0 5a 45 4e 3e fb b2 20 bf 73 27 6d be 80 bf ff bd
       0.20143643 -0.627731 -0.2315958 -0.124876976
0002f0 a9 53 0a 3f f3 81 e2 3d 83 dd 21 bf 44 0d 9e be
       0.54033905 0.11059942 -0.63228625 -0.30869496
000300 5a 7a c9 bd f7 39 a3 3e 7b 9e a0 3c 32 19 fb 3d
       -0.0983779 0.3188016 0.01960682 0.12260665
000310 be a3 83 3e a6 c1 7d 3e e6 b0 ae bd 3a 1a be 3e
       0.25710863 0.24780902 -0.085298344 0.37129384
000320 9b 46 b1 3d 49 98 ac be 7a 61 1f bf 2a 1a 7e 3e
       0.08656045 -0.33709934 -0.6225811 0.24814668
000330 92 04 a7 be 01 c3 ab 3e 74 4c 04 bf c3 77 e9 be
       -0.32620674 0.33547214 -0.5167916 -0.45599183
000340 76 e2 24 bd 7e 07 25 be 0c 0d fb bc b0 05 99 3e
       -0.040255032 -0.1611614 -0.03064587 0.29887152
000350 b4 5b 1b 3f 02 47 15 be c5 d7 97 3e be 28 b6 3e
       0.606868 -0.14577869 0.29656807 0.3557796
000360 e7 f6 1d 3e b2 1e ae 3e 94 8c 61 3e 07 de 69 be
       0.15426217 0.34007794 0.22026283 -0.22838603
000370 ba 49 bb 3d 60 ca cf 3d 51 17 af bd c4 35 eb 3c
       0.091449216 0.10146022 -0.08549369 0.02871216
000380 ee 53 b7 be 20 f9 60 be 90 65 1f 3d 5b 37 ea be
       -0.3580622 -0.21970034 0.038915217 -0.45745358
000390 06 17 f4 3c d9 6c a2 3d dd 12 99 bc af 6b 54 3e
       0.029796135 0.07930917 -0.018685753 0.20744203
0003a0 02 ee 70 3e 11 b6 29 be 45 54 b4 3e ea 60 e3 3d
       0.23528293 -0.16573359 0.35220543 0.11102469
0003b0 70 7f f2 3e 52 bf e0 3e eb 4a 11 3e 4f 67 9d be
       0.47362852 0.43895966 0.14188735 -0.3074288
0003c0 3d 90 03 3e 7d b7 6c 3d 25 c5 d4 be d7 c3 ad 3e
       0.12847991 0.057792176 -0.4155666 0.33938476
0003d0 22 b9 be bd 9f cc a6 3d 9f 1e 3d 3d 30 a8 b7 be
       -0.09312655 0.08144497 0.04617178 -0.35870504
0003e0 55 45 3f 3d d6 36 0d bd f7 a3 df bd e2 91 7e 3d
       0.04669698 -0.034476124 -0.10919946 0.062150843
0003f0 6f 4f 44 3c 63 2d 5e bd 52 3b a3 3e 8c 48 11 3f
       0.011981829 -0.054242503 0.31881195 0.5675132

rnn.bias_ih_l0 f4 [20]
000000 d1 35 b1 3c 54 9a 11 be 2f a0 fa 3c 91 b3 07 be
       0.021632107 -0.14219028 0.03059396 -0.13252093
000010 46 8d 0c be 72 a5 0e 3e c8 fc da bd 19 dd 9d 3d
       -0.13725767 0.139303 -0.106927454 0.07708187
000020 36 aa bd bd 8d 58 b7 3d 33 2d fc bd 10 fd 81 3e
       -0.09260981 0.089524366 -0.123133086 0.25388384
000030 a9 27 4a 3a 47 ad 4b be 95 d4 e1 3d 6c 2a 1c 3e
       0.00077115983 -0.19890319 0.11026875 0.15250558
000040 de f5 2b 3d 87 5a 5a be 48 0f 2d 3e 1f 92 ea bd
       0.041982524 -0.21323596 0.1690036 -0.11453652

rnn.bias_hh_l0 f4 [20]
000000 a3 88 37 3e 85 87 0d 3d a7 59 4e bd 72 7a bf 3c
       0.17923217 0.03455307 -0.050378468 0.023373816
000010 fa 40 5e be a2 1f 26 3c f1 10 b4 3d 32 c5 ca 3e
       -0.21704474 0.010139378 0.08792294 0.39603573
000020 59 83 d5 bd a8 8b ba bd b0 23 50 3e 75 96 df 3d
       -0.10425443 -0.091086686 0.20326114 0.10917369
000030 13 9a 2f 3e d4 cf 5c 3e 05 d5 b4 bd 13 7b 4f 3e
       0.17148618 0.21563655 -0.08829693 0.20261793
000040 a5 be a6 be 23 9e e4 bc 0d e2 5c 3e 9f 0f 9c be
       -0.32567325 -0.027907437 0.21570607 -0.30480668
