control/week03/model.pth (torch, 8494 bytes, 6 tensors)

embedding.weight f4 [29, 20]
0.0 0.0 0.0 0.0 0.0 0.0 0.0 0.0
0.0 0.0 0.0 0.0 0.0 0.0 0.0 0.0
0.0 0.0 0.0 0.0 -0.62688595 -0.0137897665 -1.352069 1.6951708
-2.1016104 0.80339074 0.7332304 0.12130681 -0.6987303 -1.4249256 -0.55218524 -0.2890541
-0.38393867 -0.09629899 1.2314026 -2.533753 -0.3262099 0.7922371 -0.8472803 1.1255649
0.076544 -2.3074524 0.08535093 -0.5106617 -0.8357391 -0.6688731 1.4199184 -1.4750195
1.0604408 0.5816421 1.7450598 -0.08346245 0.02703132 -0.50626624 -0.23260345 -1.3547156
-0.9510434 0.68276554 -1.1852639 0.56976765 0.486235 1.5896741 -0.82342565 0.90091616
-0.012712661 -1.2182155 0.90394187 0.09150753 -0.73660046 -0.90171266 -0.8765992 -0.7013159
-0.4488786 -1.5139635 -0.58894145 -1.177535 -0.44245663 -0.08616971 -0.8269638 0.5479406
-0.4370802 -0.87805545 1.5166708 0.4364538 -0.16780747 -1.2370542 -1.1200631 -0.7221256
-0.212827 -0.7481964 -0.91558987 0.027710512 0.4424533 -0.23730333 -0.72329986 1.8483932
-0.25074726 0.06056758 1.3460494 0.025154995 -0.24487144 -1.0705972 0.120232075 0.562038
0.37003973 -0.787782 -0.003989093 -1.4266587 -0.7425044 0.25112802 -0.44456378 -0.34344432
-0.35974276 0.5194604 -0.55051994 -0.63740546 0.56555957 1.1332289 -1.5016754 -0.7805868
-1.31952 -0.36540538 -1.0941708 -1.1012996 0.007436889 1.6403438 0.2991659 -2.1002622
2.6132104 -0.55659187 -0.39530835 0.9967476 1.302722 -1.0173472 -1.7856218 -0.41179407
0.2016324 -0.5576033 0.9345159 2.0866501 -0.8901793 0.48943865 -0.53204733 -0.2895288
-0.26377606 0.83390874 0.47263756 0.19635943 0.88289285 -0.6150322 1.2478191 1.0051831
-0.65140706 0.64608306 0.04489539 -0.40428975 -1.9999467 -0.26508036 0.12467255 -0.68095034
0.23682797 -1.0590973 0.4225132 -0.29178834 2.1158893 0.757004 0.15403636 1.4314798
1.5459241 0.17897436 -0.38375342 -0.035057735 -0.9182577 -0.7014559 -0.9858896 0.659154
-0.4942598 -0.06561264 0.16693929 -0.72895586 0.3123991 0.6870093 0.18490767 -0.17869842
-1.3548833 -0.57462347 0.19359063 -1.0024165 -0.8124756 -1.3935834 0.32987136 -3.0028443
0.1220141 0.9084289 -0.57534176 -0.3319613 -0.660446 0.110789955 -0.0010688258 0.6655695
0.010520723 0.31458 -0.9970248 -0.9613306 -1.671985 -0.95350885 -1.2834982 0.3127111
1.1281374 0.6103514 0.09104383 -1.1913264 -1.8252059 0.18091668 0.2748674 0.8522865
-1.0114118 -1.5534695 0.68054706 -0.2753445 -0.030948153 1.237779 -1.0004956 0.1241472
1.4459705 0.019730534 0.014117459 -0.6952956 0.9065308 -0.69874334 -1.0004054 -0.46906054
2.665098 -0.616007 -0.21001942 -0.83499974 0.9093481 0.03570851 1.0071042 -0.7277497
-0.25751 -0.6781544 0.19030684 0.66697496 0.17484795 -0.73256665 -0.008217014 0.36827314
1.2564362 -0.7616972 -0.31456247 1.7472255 -0.53043395 -0.70137453 1.5329573 -2.4347558
00000000: 0000 0000 0000 0000 0000 0000 0000 0000
00000010: 0000 0000 0000 0000 0000 0000 0000 0000
00000020: 0000 0000 0000 0000 0000 0000 0000 0000
00000030: 0000 0000 0000 0000 0000 0000 0000 0000
00000040: 0000 0000 0000 0000 0000 0000 0000 0000
00000050: 997b 20bf 79ee 61bc 9910 adbf 5bfb d83f
00000060: c980 06c0 04ab 4d3f fdb4 3b3f b46f f83d
00000070: fddf 32bf f663 b6bf 035c 0dbf e6fe 93be
00000080: 9c93 c4be 6838 c5bd 9a9e 9d3f 0229 22c0
00000090: fc04 a7be 0dd0 4a3f 5de7 58bf 8312 903f
000000a0: 1ac3 9c3d 4dad 13c0 78cc ae3d baba 02bf
000000b0: fff2 55bf 443b 2bbf e3bf b53f 70cd bcbf
000000c0: 86bc 873f 7fe6 143f 1f5e df3f 5cee aabd
000000d0: c970 dd3c aa9a 01bf 992f 6ebe 5267 adbf
000000e0: 9577 73bf b9c9 2e3f bab6 97bf 4bdc 113f
000000f0: cbf3 f83e 717a cb3f 06cc 52bf 71a2 663f
00000100: c448 50bc 7cee 9bbf bc68 673f 4d68 bb3d
00000110: d991 3cbf a4d6 66bf ce68 60bf 7089 33bf
00000120: 6ad3 e5be 8ec9 c1bf dec4 16bf 78b9 96bf
00000130: ad89 e2be bf79 b0bd e6b3 53bf d645 0c3f
00000140: fac8 dfbe 3ec8 60bf 4522 c23f df76 df3e
00000150: b9d5 2bbe cb57 9ebf 3a5e 8fbf 39dd 38bf
00000160: 52ef 59be cd89 3fbf 1964 6abf 2801 e33c
00000170: 3d89 e23e a5ff 72be 2e2a 39bf 2698 ec3f
00000180: f261 80be b615 783d 594b ac3f d911 ce3c
00000190: 94bf 7abe 5409 89bf 3c3c f63d b9e1 0f3f
000001a0: d975 bd3e 15ac 49bf f0b6 82bb c19c b6bf
000001b0: c514 3ebf da93 803e dd9d e3be efd7 afbe
000001c0: 3430 b8be 5bfb 043f e0ee 0cbf 012d 23bf
000001d0: 83c8 103f a50d 913f e636 c0bf 89d4 47bf
000001e0: 08e6 a8bf 6a16 bbbe ca0d 8cbf 63f7 8cbf
000001f0: 26b1 f33b c9f6 d13f 462c 993e b26a 06c0
00000200: d73e 2740 ce7c 0ebf db65 cabe da2a 7f3f
00000210: 98bf a63f 6f38 82bf 418f e4bf acd6 d2be
00000220: b978 4e3e 17bf 0ebf 6f3c 6f3f ad8b 0540
00000230: cae2 63bf b497 fa3e 4134 08bf 1e3d 94be
00000240: a80d 87be 0b7b 553f 8dfd f13e 7212 493e
00000250: 4405 623f c072 1dbf 89b8 9f3f d7a9 803f
00000260: 9dc2 26bf b365 253f 3ae4 373d 11ff cebe
00000270: 41fe ffbf 9db8 87be 5254 ff3d c352 2ebf
00000280: 0883 723e 8090 87bf a653 d83e 4865 95be
00000290: bb6a 0740 04cb 413f b5bb 1d3e bb3a b73f
000002a0: d7e0 c53f 0e45 373e 547b c4be b398 0fbd
000002b0: f012 6bbf 9d92 33bf 4363 7cbf 51be 283f
000002c0: 9f0f fdbe eb5f 86bd 22f2 2a3e da9c 3abf
000002d0: c6f2 9f3e d7df 2f3f 7058 3d3e b8fc 36be
000002e0: d16c adbf 861a 13bf 9f3c 463e 2f4f 80bf
000002f0: 67fe 4fbf f160 b2bf e6e4 a83e 9a2e 40c0
00000300: 87e2 f93d cc8e 683f 9949 13bf d5f6 a9be
00000310: fd12 29bf d8e5 e23d d817 8cba c362 2a3f
00000320: 1c5f 2c3c a110 a13e 043d 7fbf c319 76bf
00000330: 9b03 d6bf 2819 74bf ab49 a4bf ab1b a03e
00000340: ce66 903f fd3f 1c3f 3075 ba3d 627d 98bf
00000350: 59a0 e9bf 3942 393e 6bbb 8c3e 732f 5a3f
00000360: f175 81bf 17d8 c6bf 5538 2e3f f4f9 8cbe
00000370: fb86 fdbc 8b6f 9e3f 3d10 80bf e340 fe3d
00000380: 9015 b93f eea1 a13c ea4c 673c e4fe 31bf
00000390: 6712 683f d8e0 32bf 490d 80bf b428 f0be
000003a0: f790 2a40 a2b2 1dbf 550f 57be 8bc2 55bf
000003b0: 09cb 683f 1643 123d cae8 803f ce4d 3abf
000003c0: 5ad8 83be 879b 2dbf ccdf 423e dfbe 2a3f
000003d0: 570b 333e 7d89 3bbf a8a0 06bc 4c8e bc3e
000003e0: e7d2 a03f 96fe 42bf 550e a1be 16a5 df3f
000003f0: 85ca 07bf 488d 33bf f237 c43f 0ad3 1bc0

rnn_layer.weight_ih_l0 f4 [20, 20]
-0.19483742 0.24282323 -0.18846121 -0.07998944 -0.0027146845 -0.19537641 0.16780822 0.16261905
0.089090206 0.039271105 0.052595604 0.006291829 -0.13973092 -0.12247215 0.15264124 0.042013753
-0.027627526 0.02955976 0.0066784075 0.018460209 0.4801995 0.011056819 0.015346546 0.12086594
-0.118037395 0.15710957 -0.13717352 -0.16219284 0.024107726 -0.05326364 0.046346564 0.13965775
-0.11258924 -0.057462774 -0.14931928 -0.072393864 -0.0069295433 0.07350048 0.118104346 -0.1076758
0.45949993 0.019985704 0.0022710892 0.03685382 -0.09518716 0.20043728 -0.26760694 -0.1261989
-0.023586499 -0.021755872 0.03583087 0.10149144 -0.0061787013 -0.0481799 -0.11059024 -0.12583177
-0.067316234 0.05289458 0.072585404 -0.12159152 -0.2457303 -0.039240036 0.056584165 -0.062271502
0.008147727 -0.041758895 0.12115111 0.24724182 0.092778414 0.13488251 0.020388773 -0.0023518822
-0.0059332508 0.13559689 0.05807979 0.17875712 0.17031662 0.13114756 0.016043222 0.2316826
0.42375785 -0.09312973 -0.12860405 -0.13854337 -0.10392505 0.12309669 -0.23524736 -0.02023143
-0.038539164 -0.10598135 0.23059215 0.06321375 0.098464765 -0.13715643 0.0065821027 0.06660501
-0.084762394 0.16704257 -0.041060656 -0.2249578 0.37210706 -0.08829595 -0.02715459 0.10378787
-0.14456603 0.12659787 -0.10164765 -0.090925284 0.028843978 -0.13166156 0.012594676 0.0943318
-0.033017304 -0.12915722 -0.16011484 -0.028358467 -0.090336725 -0.0476869 0.027353711 -0.18292058
-0.22304319 -0.06145549 0.052051052 -0.14068264 0.020625573 -0.04658873 0.11168467 0.16014448
-0.0023374462 0.0456998 0.0065625734 -0.03886995 0.12684527 0.10287499 0.119733185 0.08956863
0.07116213 0.03022568 -0.030212002 0.11220295 0.4253135 0.052287437 0.026776537 0.11953766
-0.057662345 0.20496264 -0.12348792 -0.1563127 0.007257567 -0.035230543 0.09962097 0.09099123
-0.09238118 0.0079167625 -0.088464916 -0.06963402 0.031601932 0.05655291 0.09846071 -0.12116709
0.41136956 -0.017747857 -0.0038757646 0.08580216 -0.14854573 0.13877796 -0.15465069 -0.11295442
0.02508869 -0.07419675 0.008171472 0.12310107 -0.046815336 -0.0826929 -0.16002071 -0.063489564
-0.05942963 0.0040260754 0.0507423 -0.14127658 -0.06449064 -0.053780857 0.0033127146 0.083997115
0.0033167882 -0.09065326 0.16654837 -0.009560925 0.06393038 -0.02685112 -0.007431113 -0.0032911235
-0.04240984 -0.0075592254 0.0015211621 0.060216952 0.035306506 -0.052397195 -0.006132852 0.00890807
0.023871144 0.06702754 -0.12906711 -0.017174568 0.025614182 -0.0023600305 -0.11779025 -0.19464213
0.0049338555 -0.17574655 -0.14168695 0.12981975 -0.1540337 -0.020515673 -0.07049887 -0.191522
-0.08710055 -0.24458589 0.088443205 0.0614844 -0.36826319 0.0060155983 -0.06883273 0.01883167
0.091663815 -0.1570964 0.14987491 0.16520658 -0.053920016 0.10113601 -0.04837151 -0.0940192
0.029745439 -0.031875197 0.03235083 0.04340202 0.0008349124 0.03748043 -0.048658434 0.10804002
-0.2646218 0.06285887 0.09572828 -0.12176454 0.004963467 -0.05875856 0.11045803 0.20242324
0.066969045 0.1779393 0.092951335 -0.07674033 0.099484205 0.1418034 0.2552589 0.19779477
00000000: 7683 47be a7a6 783e fafb 40be 81d1 a3bd
00000010: d9e8 31bb c110 48be ebd5 2b3e 9c85 263e
00000020: ed74 b63d bdda 203d 7d6e 573d b02b ce3b
00000030: 9f15 0fbe aed2 fabd fc4d 1c3e 9d16 2c3d
00000040: 1f53 e2bc 4f27 f23c 8bd6 da3b dd39 973c
00000050: b5dc f53e a927 353c 1470 7b3c 9088 f73d
00000060: 97bd f1bd 55e1 203e 3777 0cbe e115 26be
00000070: 917d c53c f92a 5abd e5d5 3d3d 7102 0f3e
00000080: 3095 e6bd 165e 6bbd 27e7 18be 3c43 94bd
00000090: 3911 e3bb 6b87 963d b1e0 f13d 2185 dcbd
000000a0: 9343 eb3e 0fb9 a33c 8ed6 143b 08f4 163d
000000b0: 7cf1 c2bd 6e3f 4d3e c703 89be 493a 01be
000000c0: 7938 c1bc 5f39 b2bc 64c3 123d beda cf3d
000000d0: b476 cabb 4958 45bd 237d e2bd 0bda 00be
000000e0: 18dd 89bd fda7 583d a8a7 943d fa04 f9bd
000000f0: b9a0 7bbe 29ba 20bd ccc4 673d 6710 7fbd
00000100: 0b7e 053c 600b 2bbd 131e f83d f62c 7d3e
00000110: 9c02 be3d a41e 0a3e 5b06 a73c 0922 1abb
00000120: b76b c2bb e9d9 0a3e 13e5 6d3d 1b0c 373e
00000130: 7b67 2e3e 8c4b 063e 136d 833c 343e 6d3e
00000140: caf6 d83e cdba bebd c8b0 03be 50de 0dbe
00000150: a8d6 d4bd 1e1a fc3d afe4 70be 62bc a5bc
00000160: 3edb 1dbd c00c d9bd 5920 6c3e 3676 813d
00000170: e5a7 c93d bc72 0cbe aeae d73b 3568 883d
00000180: e897 adbd 350d 2b3e 382f 28bd 565b 66be
00000190: d184 be3e 82d4 b4bd 4d73 debc bc8e d43d
000001a0: 1e09 14be dfa2 013e a52c d0bd 0937 babd
000001b0: 354a ec3c 4ad2 06be e659 4e3c 0831 c13d
000001c0: 273d 07bd ca41 04be 25f5 23be 0450 e8bc
000001d0: 7602 b9bd 5753 43bd e414 e03c 884f 3bbe
000001e0: 6f65 64be c0b8 7bbd 7c33 553d 1c0f 10be
000001f0: f6f6 a83c d3d3 3ebd efba e43d eafc 233e
00000200: d72f 19bb b72f 3b3d db0a d73b 1936 1fbd
00000210: bae3 013e 1fb0 d23d ac36 f53d c26f b73d
00000220: 73bd 913d d89b f73c 297f f7bc a9ca e53d
00000230: b1c2 d93e 5a2b 563d 785a db3c 29d0 f43d
00000240: 5a2f 6cbd bae1 513e 3ce7 fcbd 7010 20be
00000250: e2d0 ed3b e74d 10bd 1406 cc3d 9c59 ba3d
00000260: 5832 bdbd 4fb5 013c 182d b5bd 489c 8ebd
00000270: 0771 013d 06a4 673d c5a5 c93d 7426 f8bd
00000280: 089f d23e f463 91bc 8a00 7ebb 0bb9 af3d
00000290: 5f1c 18be cf1b 0e3e c05c 1ebe a654 e7bd
000002a0: cc86 cd3c 77f4 97bd a3e1 053c 6a1c fc3d
000002b0: 70c1 3fbd e55a a9bd 78dc 23be d106 82bd
000002c0: 7c6c 73bd 2bed 833b 28d7 4f3d cfaa 10be
000002d0: ab13 84bd 5149 5cbd 211a 593b ae06 ac3d
000002e0: 795e 593b 6ba8 b9bd a88b 2a3e 6da5 1cbc
000002f0: eeed 823d e1f6 dbbc b280 f3bb e4af 57bb
00000300: f1b5 2dbd 61b3 f7bb bb61 c73a 0da6 763d
00000310: 8e9d 103d 719e 56bd 17f6 c8bb 27f3 113c
00000320: 6b8d c33c bc45 893d 2b2a 04be aeb1 8cbc
00000330: d5d4 d13c beaa 1abb 043c f1bd 4450 47be
00000340: 2eac a13b e7f6 33be 6216 11be 78ef 043e
00000350: 03bb 1dbe 7c10 a8bc b661 90bd 581e 44be
00000360: c661 b2bd b974 7abe b621 b53d 11d7 7b3d
00000370: fe8c bcbe 7f1e c53b 2df8 8cbd e044 9a3c
00000380: 3dba bb3d e1dd 20be cf78 193e ea2b 293e
00000390: 3cdb 5cbd 6520 cf3d 3421 46bd 238d c0bd
000003a0: b5ac f33c 918f 02bd 4e82 043d 51c6 313d
000003b0: 06de 5a3a 1485 193d 114e 47bd 1644 dd3d
000003c0: 827c 87be 27bc 803d 300d c43d b05f f9bd
000003d0: 94a4 a23b d1ac 70bd d237 e23d 0a48 4f3e
000003e0: 1127 893d b835 363e 455d be3d 092a 9dbd
000003f0: 60be cb3d e934 113e 4bb1 823e b68a 4a3e

rnn_layer.weight_hh_l0 f4 [20, 20]
0.17447819 -0.14883925 -0.18314141 0.16618341 -0.21775742 0.058091037 0.2918161 -0.2901125
-0.21989346 0.003330614 -0.30960017 0.17335427 0.2125799 0.0801351 -0.24532658 0.08980725
0.16015705 -0.064829074 0.086774185 0.30010927 -0.006481984 0.75358254 0.44066796 0.1857138
-0.13173623 0.23642254 0.085278854 -0.26087368 0.18072867 0.090826094 0.1645848 0.031772207
0.07261319 0.21721596 -0.1063461 -0.06603619 0.23706432 -0.07156277 0.2420297 -0.14985137
0.059659578 0.56339943 0.5302146 0.18582444 -0.108417526 0.3503404 -0.18012492 -0.26539117
-0.13120086 0.09568359 -0.15231195 0.013393532 0.1761277 0.37356403 0.14233464 -0.05741617
-0.12890589 -0.26611257 0.117768556 0.1502462 0.2895574 -0.15439795 -0.15843363 0.059527267
-0.15908554 -0.18583786 0.076072 -0.41756722 0.041541506 -0.08308707 -0.2289334 0.05779555
0.23291618 0.054936446 -0.3104807 0.34682316 7.7975834e-05 0.05334622 0.122443855 0.11159532
-0.15880832 -0.010566297 0.19335751 -0.080027066 0.18821292 -0.0029890193 -0.28396577 0.13963307
0.11277474 0.12054559 0.1662497 -0.12995428 -0.30651706 -0.32331684 0.12116228 -0.250056
-0.36142212 0.07027455 -0.1590895 -0.15433402 -0.17140102 0.5987825 0.43370798 -0.026006147
0.2116329 0.4938185 0.053977195 -0.08587419 0.25347593 -0.17334768 -0.16439304 -0.018472737
0.07236965 0.17701517 -0.12103669 -0.10874082 -0.0402069 -0.46519628 -0.18606758 -0.21317346
0.0589365 -0.1966955 -0.3701116 0.1610518 -0.05424282 -0.111022346 0.030828102 -0.034769643
0.075743236 -0.065995306 -0.40910968 0.06414846 0.14126216 -0.046915848 -0.11975382 0.386419
0.336883 0.13280639 0.055994745 0.066085264 -0.19842254 0.26741236 0.15666239 -0.030933948
0.32742727 0.22102508 -0.053202797 0.43591103 0.395123 -0.03568338 0.2761693 -0.35675228
0.01754033 -0.20991911 0.4529332 -0.2701237 0.0072851377 -0.35865265 -0.0048538665 -0.2505924
-0.023488289 0.47269136 0.41350144 -0.1355312 -0.10711675 0.4835269 -0.24714799 0.06033943
0.3578522 0.082946934 0.23456569 -0.28649515 0.08967795 -0.0038248862 0.29231924 0.07679255
-0.053588554 -0.31405124 0.08355335 -0.24427909 -0.32443228 -0.08307167 -0.34179977 -0.10248057
0.29672873 -0.17896502 -0.32827944 -0.2864287 -0.18136093 0.5098275 0.46050858 0.1126249
-0.21722126 -0.014097595 -0.25421593 -0.04590684 -0.43510774 0.33597034 -0.119725734 0.27791494
-0.16185346 -0.20340389 0.1482585 -0.304177 0.34522438 0.18164168 -0.32362932 0.08599003
0.091186315 0.24163043 0.09364724 -0.070453815 -0.25846252 -0.18429494 0.33396015 -0.19801779
-0.25422 0.08361035 -0.12893239 -0.082186595 -0.033351526 -0.36172715 -0.1658519 0.04305209
0.10163396 -0.1751824 -0.00842371 -0.26940003 -0.3633157 -0.24395701 -0.30342546 0.2516081
0.046653338 -0.13251658 -0.2526566 0.16365759 0.04743974 0.48445585 -0.02853494 0.33820364
0.17430285 -0.04397879 0.14058597 0.39336872 -0.110235 -0.08148742 0.23295231 -0.3220322
-0.119068235 -0.39144507 -0.26182765 0.032245945 0.34000927 0.35375676 0.09046579 0.08755579
00000000: 69aa 323e 5169 18be 6c89 3bbe fc2b 2a3e
00000010: cdfb 5ebe def0 6d3d eb68 953e a089 94be
00000020: c02b 61be 6e46 5a3b ea83 9ebe c883 313e
00000030: 8cae 593e df1d a43d e436 7bbe ddec b73d
00000040: 3600 243e 1bc5 84bd aab6 b13d eca7 993e
00000050: d366 d4bb c9ea 403f 3b9f e13e c22b 3e3e
00000060: dde5 06be c018 723e aea6 ae3d 3c91 85be
00000070: f010 393e 0803 ba3d eb88 283e 9323 023d
00000080: 39b6 943d dc6d 5e3e fccb d9bd fb3d 87bd
00000090: fdc0 723e 808f 92bd a2d6 773e a372 19be
000000a0: 9a5d 743d f23a 103f 25bc 073f c348 3e3e
000000b0: 020a debd d15f b33e ab72 38be 5ae1 87be
000000c0: 8559 06be c2f5 c33d aaf7 1bbe 8b70 5b3c
000000d0: d25a 343e c943 bf3e 2cc0 113e 382d 6bbd
000000e0: e8ff 03be e83f 88be a430 f13d 24da 193e
000000f0: de40 943e 7f1a 1ebe 6d3c 22be ddd2 733d
00000100: 52e7 22be 484c 3ebe a3cb 9b3d 5fcb d5be
00000110: 6d27 2a3d 8e29 aabd 846d 6abe 07bb 6c3d
00000120: 9481 6e3e 0a05 613d 54f7 9ebe ce92 b13e
00000130: f586 a338 9181 5a3d d8c3 fa3d 168c e43d
00000140: a69e 22be 431e 2dbc 83ff 453e 3be5 a3bd
00000150: e3ba 403e 6ce3 43bb f663 91be f9fb 0e3e
00000160: 71f6 e63d 9be0 f63d 5d3d 2a3e bc12 05be
00000170: ceef 9cbe c989 a5be ee23 f83d 5707 80be
00000180: 520c b9be 1aec 8f3d 5ce8 22be bd09 1ebe
00000190: c083 2fbe cf49 193f f90e de3e d80a d5bc
000001a0: 4cb6 583e c7d5 fc3e 3117 5d3d cfde afbd
000001b0: 99c7 813e 0e82 31be a656 28be 2354 97bc
000001c0: 8a36 943d 7743 353e 16e2 f7bd 82b3 debd
000001d0: feaf 24bd 352e eebe 8088 3ebe 254a 5abe
000001e0: 6667 713d 8c6a 49be 457f bdbe c3ea 243e
000001f0: b82d 5ebd af5f e3bd 378b fc3c 9d6a 0ebd
00000200: 451f 9b3d 8c28 87bd d376 d1be 4560 833d
00000210: 07a7 103e d52a 40bd 7e41 f5bd b6d8 c53e
00000220: ee7b ac3e 66fe 073e bf5a 653d b657 873d
00000230: 472f 4bbe 46ea 883e 1b6c 203e 3169 fdbc
00000240: 8ca4 a73e 6654 623e 2deb 59bd bb2f df3e
00000250: 904d ca3e bc28 12bd 1066 8d3e 3ca8 b6be
00000260: bdb0 8f3c 09f5 56be dce6 e73e a74d 8abe
00000270: 2ab8 ee3b 52a1 b7be 2f0d 9fbb a64d 80be
00000280: 836a c0bc 9a04 f23e 76b6 d33e b1c8 0abe
00000290: 0760 dbbd d690 f73e 5d14 7dbe 7a26 773d
000002a0: 6738 b73e 15e0 a93d fd31 703e 7eaf 92be
000002b0: 13a9 b73d f1aa 7abb deaa 953e 6a45 9d3d
000002c0: ac7f 5bbd 53cb a0be 051e ab3d 4c24 7abe
000002d0: fd1b a6be 7b21 aabd 6100 afbe 55e1 d1bd
000002e0: d4ec 973e 9b42 37be 3e14 a8be c8a6 92be
000002f0: aeb6 39be 0e84 023f c8c7 eb3e e2a7 e63d
00000300: 406f 5ebe 99f9 66bc 9728 82be d008 3cbd
00000310: 71c6 debe 4e04 ac3e c432 f5bd de4a 8e3e
00000320: eabc 25be 1c49 50be 14d1 173e 16bd 9bbe
00000330: 40c1 b03e 4700 3a3e beb2 a5be 8a1b b03d
00000340: e4bf ba3d f86d 773e 20ca bf3d 174a 90bd
00000350: 3355 84be d0b7 3cbe d3fc aa3e 2dc5 4abe
00000360: 2029 82be e73b ab3d da06 04be 7251 a8bd
00000370: 9c9b 08bd 4d34 b9be 15d5 29be 6357 303d
00000380: 7725 d03d 0463 33be 9a03 0abc cdee 89be
00000390: 8404 babe decf 79be 955a 9bbe c7d2 803e
000003a0: 9217 3f3d 6db2 07be 355c 81be db95 273e
000003b0: 2c50 423d 990a f83e 1bc2 e9bc 0729 ad3e
000003c0: 727c 323e 1b23 34bd c5f5 0f3e a067 c93e
000003d0: e3c2 e1bd e0e2 a6bd 0d8b 6e3e 68e1 a4be
000003e0: 0cda f3bd 7d6b c8be 460e 86be 5314 043d
000003f0: b215 ae3e 9b1f b53e 2146 b93d 7350 b33d

rnn_layer.bias_ih_l0 f4 [20]
-0.2930853 0.0988189 0.055176474 -0.14194508 0.055988166 0.1821909 -0.40471357 0.075820364
0.18629034 0.25229833 0.23784152 0.0005424415 -0.42903095 -0.28759584 0.17220162 -0.35566905
-0.45930728 0.108898394 -0.11301534 -0.06740655
00000000: 470f 96be 9061 ca3d ba00 623d 0d5a 11be
00000010: d953 653d 4090 3a3e 9e36 cfbe b547 9b3d
00000020: e5c2 3e3e 3f2d 813e ba8c 733e a232 0e3a
00000030: f2a9 dbbe c33f 93be 9f55 303e 411a b6be
00000040: 532a ebbe 1f06 df3d 9674 e7bd 720c 8abd

rnn_layer.bias_hh_l0 f4 [20]
-0.37485123 -0.04382764 -0.15057072 -0.42587203 0.35661253 -0.15648487 -0.31072843 0.19385973
-0.13781066 0.23226897 0.43395722 -0.0722089 -0.44091985 -0.14301598 0.05730286 -0.14763576
-0.46691206 -0.10260207 -0.25980744 -0.27877513
00000000: 80ec bfbe 9d84 33bd 362f 1abe e60b dabe
00000010: eb95 b63e 923d 20be cc17 9fbe 2a83 463e
00000020: 3d1e 0dbe ebd7 6d3e a42f de3e 42e2 93bd
00000030: 3fc0 e1be c872 12be 67b6 6a3d d42d 17be
00000040: 190f efbe 0921 d2bd 7b05 85be 9dbb 8ebe

linear_layer.weight f4 [1, 20]
-0.8939323 0.85517395 0.93050313 -0.8427497 0.90954673 0.99005395 -0.8580646 0.95407873
0.94907147 0.92289686 0.9368989 -0.79341644 -0.92560464 -1.0738026 0.84311837 -0.9216693
-0.9944388 -1.0109025 -0.97427356 -0.8120203
00000000: bfd8 64bf aeec 5a3f 7435 6e3f 72be 57bf
00000010: 0ed8 683f 2d74 7d3f 1faa 5bbf 813e 743f
00000020: 59f6 723f f842 6c3f 9bd8 6f3f 571d 4bbf
00000030: 6df4 6cbf 5d72 89bf 9bd6 573f 85f2 6bbf
00000040: 8b93 7ebf 4165 81bf fe69 79bf 90e0 4fbf
