谢伟-每周作业/week2/model.bin (torch, 1612 bytes, 2 tensors)

linear.weight f4 [5, 5]
000000 0e f3 98 42 71 8e da c1 ad e0 e0 c1 77 f8 e2 c1
       76.47472 -27.319551 -28.109705 -28.37132
000010 8f 12 df c1 b7 3b d2 c1 41 d5 96 42 3a 66 d8 c1
       -27.884062 -26.279158 75.41651 -27.049915
000020 c7 28 dd c1 72 58 e0 c1 78 bc d9 c1 64 b7 d9 c1
       -27.64491 -28.043186 -27.217026 -27.214546
000030 f0 77 98 42 fb 17 dc c1 8d 7a dd c1 ca 88 d7 c1
       76.23425 -27.51171 -27.68484 -26.941792
000040 83 97 d6 c1 6a 11 dc c1 b4 a7 98 42 42 53 de c1
       -26.82398 -27.508503 76.327545 -27.790653
000050 ae 20 d8 c1 a4 22 e0 c1 cf 0d e3 c1 0d 1c e3 c1
       -27.015957 -28.016914 -28.381742 -28.388697
000060 73 62 9b 42
       77.69228

linear.bias f4 [5]
000000 4d 33 c0 3e eb 87 bc 3e d5 1d a8 3e 71 f8 9b 3c
       0.3753914 0.36822447 0.3283526 0.019039365
000010 5f d5 31 bd
       -0.043416377
