俞承胤/week03/model.pth (torch, 3450 bytes, 5 tensors)

embedding.weight f4 [28, 8]
0.0 0.0 0.0 0.0 0.0 0.0 0.0 0.0
1.3282571 -0.121769056 -0.78805095 -0.7987102 -0.72914964 3.9382365 -0.51157516 1.5629733
0.013632756 1.0522995 1.09067 -0.5079692 -0.11044302 -1.1524296 0.1297121 0.7027104
-0.5024436 0.29985276 -0.009144264 -0.60463446 0.541291 -0.0014016858 -0.48656124 -0.70642596
-1.1834449 1.1968099 -1.1055622 -0.37613696 -0.5126998 0.525902 -1.3086133 -0.96615875
1.1277473 0.4126982 -0.621952 0.56911623 -0.38664186 0.45151815 -0.70413697 -1.0122131
0.11286988 -0.5838551 0.093822725 1.0042429 0.71687096 0.56283706 -2.22205 0.17453562
0.94913226 -1.7854815 -0.30629915 0.83255863 1.5920737 -0.7833147 -0.48621792 0.98062205
0.8399004 0.5149794 0.39022565 0.2622158 0.00931296 -0.693618 0.5176101 1.1350073
0.2961475 1.0025308 1.2101547 -0.28698444 0.47709772 -0.33421594 -0.85665214 0.025424903
0.7574851 -0.79590607 -0.2979685 0.9812116 0.07447679 -0.13950256 -0.38996017 0.7931145
0.7562809 -1.3260995 0.23300216 -0.69093794 1.4169891 0.29575956 0.22913004 -0.6814989
1.9925022 -0.3491902 0.1373892 -0.056776173 -0.7373729 -0.93846685 -0.10268695 1.2064548
1.2522448 0.3696082 0.915114 0.40095463 0.6478949 0.020048201 -1.1232122 0.23843676
-0.06897499 -0.8675851 -0.7047306 -1.3603501 -0.2365193 -0.40312147 -1.3167667 -1.1279713
1.9028442 -0.10569544 0.72572863 1.0552539 1.1078064 0.87806475 -0.5362341 -1.0909387
0.1608631 -0.9410804 -0.9121425 0.098046556 0.37046555 -0.73004544 -0.57813674 0.2655161
0.09661015 0.8268559 -1.2121127 1.7570646 -2.0804856 -0.10843627 -0.3974406 -0.03181689
1.4039392 1.0826288 -1.683645 -0.5508783 1.8103081 0.23095286 0.546457 -1.7907699
0.6420106 -0.47350255 0.5613033 -1.1586703 0.7042442 -0.68563014 -0.4062188 0.06872744
-1.9289651 -0.71251345 0.314176 -1.8458228 1.5118253 -0.6218542 -2.5272446 0.49718708
-0.16873305 0.73684114 -0.7526239 0.20795432 0.9825254 0.00062798423 0.8907692 -0.6765619
0.7908335 -1.0484502 0.17260826 0.9572813 -0.0648405 0.4538724 -0.13987675 -1.1019664
-0.660556 0.01732736 -1.4463854 0.36083427 1.7696496 0.45200297 0.82966906 -0.64091915
0.4635551 0.71431786 1.8356737 -0.9159613 -0.6656784 -0.93348056 -2.389627 1.6594776
0.25814936 0.61577064 1.6326393 -0.78403044 0.7900104 -0.04705974 -0.26248485 0.18119857
1.1730016 -0.21749553 -1.089404 0.012773655 -0.2678796 -0.27102223 -0.4881992 -0.40908924
-0.17405023 0.91339093 -0.73102784 -0.9359681 0.12776385 -0.15063831 0.877572 -0.8640072
00000000: 0000 0000 0000 0000 0000 0000 0000 0000
00000010: 0000 0000 0000 0000 0000 0000 0000 0000
00000020: 5404 aa3f 0e62 f9bd b5bd 49bf 4678 4cbf
00000030: 8da9 3abf 110c 7c40 97f6 02bf 820f c83f
00000040: ec5b 5f3c c0b1 863f 139b 8b3f 450a 02bf
00000050: f32f e2bd d082 93bf 40d3 043e d4e4 333f
00000060: 25a0 00bf 4d86 993e d3d1 15bc 53c9 1abf
00000070: 0c92 0a3f c5b8 b7ba 8e1e f9be 55d8 34bf
00000080: 1f7b 97bf 1131 993f 1083 8dbf 0695 c0be
00000090: 4b40 03bf 83a1 063f a480 a7bf 2e56 77bf
000000a0: 065a 903f 2e4d d33e 3f38 1fbf 9ab1 113f
000000b0: ecf5 c5be 632d e73e 5242 34bf 3390 81bf
000000c0: 5328 e73d 8777 15bf 2126 c03d 088b 803f
000000d0: db84 373f 1716 103f 1136 0ec0 77b9 323e
000000e0: 55fa 723f a88a e4bf 3ed3 9cbe 9022 553f
000000f0: 12c9 cb3f 5087 48bf 8ef1 f8be 0c0a 7b3f
00000100: b603 573f b1d5 033f a8cb c73e 2641 863e
00000110: 6395 183c f390 31bf 1882 043f eb47 913f
00000120: a5a0 973e ee52 803f 59e6 9a3f a0ef 92be
00000130: 2746 f43e 5a1e abbe 8e4d 5bbf e347 d03c
00000140: 8bea 413f 80c0 4bbf 548f 98be af30 7b3f
00000150: 4a87 983d c2d9 0ebe dca8 c7be 8d09 4b3f
00000160: a09b 413f a1bd a9bf 1e98 6e3e 4fe1 30bf
00000170: e65f b53f cc6d 973e 11a1 6a3e b676 2ebf
00000180: 500a ff3f 0fc9 b2be c1af 0c3e 228e 68bd
00000190: 78c4 3cbf 5d3f 70bf 894d d2bd 1c6d 9a3f
000001a0: 8f49 a03f 493d bd3e e944 6a3f ed49 cd3e
000001b0: 71dc 253f 203c a43c 6bc5 8fbf c428 743e
000001c0: c242 8dbd 0f1a 5ebf 3969 34bf f41f aebf
000001d0: 1e32 72be f065 cebe d08b a8bf 5d61 90bf
000001e0: 6690 f33f da76 d8bd 5ac9 393f 8f12 873f
000001f0: 9acc 8d3f dac8 603f a346 09bf e1a3 8bbf
00000200: 4cb9 243e a5ea 70bf 2c82 69bf a2cc c83d
00000210: a9ad bd3e 42e4 3abf c500 14bf baf1 873e
00000220: 8bdb c53d d4ac 533f 8226 9bbf 7ee7 e03f
00000230: ad26 05c0 d613 debd 567d cbbe 6d52 02bd
00000240: 48b4 b33f 9593 8a3f ae81 d7bf 5c06 0dbf
00000250: 2db8 e73f e87e 6c3e 9be4 0b3f f337 e5bf
00000260: cf5a 243f ed6e f2be 93b1 0f3f 4f4f 94bf
00000270: 5949 343f 7585 2fbf e9fb cfbe f9c0 8c3d
00000280: 54e8 f6bf 4867 36bf addb a03e ec43 ecbf
00000290: 7e83 c13f d631 1fbf 60be 21c0 4e8f fe3e
000002a0: 5bc8 2cbe 9fa1 3c3f f6ab 40bf faf1 543e
000002b0: c986 7b3f 4f9f 243a 7309 643f 2933 2dbf
000002c0: 1074 4a3f 9e33 86bf 38c0 303e 6310 753f
000002d0: 19cb 84bd f761 e83e da3b 0fbe 3c0d 8dbf
000002e0: 331a 29bf 1cf2 8d3c 2823 b9bf 45bf b83e
000002f0: e183 e23f ef6c e73e 3165 543f 4713 24bf
00000300: 1857 ed3e 89dd 363f 5bf7 ea3f 717c 6abf
00000310: e669 2abf 95f8 6ebf a6ef 18c0 c369 d43f
00000320: 272c 843e 25a3 1d3f 53fa d03f 38b6 48bf
00000330: 1f3e 4a3f b7c1 40bd 6a64 86be 1e8c 393e
00000340: eb24 963f 26b7 5ebe 9771 8bbf 9848 513c
00000350: 8427 89be 6dc3 8abe 3ff5 f9be 2574 d1be
00000360: 393a 32be fdd3 693f a424 3bbf 9b9b 6fbf
00000370: 87d4 023e ee40 1abe 8fa8 603f 932f 5dbf

rnn_layer.weight_ih_l0 f4 [5, 8]
-0.015614697 0.019923067 0.026924163 0.09608508 0.02501079 -0.27648574 -0.03425747 -0.1545398
-0.32478812 -0.050958913 0.15473804 0.093995444 -0.19105098 -0.08696993 0.33923033 -0.05403803
-0.14540075 -0.0033802947 0.11987227 0.16897456 0.048902836 -0.25310722 0.04583977 -0.138544
0.035645764 0.100722335 -0.04279048 0.13008086 0.0764845 -0.4924771 -0.07114442 -0.17640592
0.23362382 0.07713188 -0.036393277 0.15119956 0.2720327 -0.5070755 -0.3711 -0.2881873
00000000: c9d4 7fbc b335 a33c 1090 dc3c 41c8 c43d
00000010: 6ee3 cc3c 8a8f 8dbe 9051 0cbd ae3f 1ebe
00000020: a14a a6be 4bba 50bd a673 1e3e af80 c03d
00000030: dea2 43be 4a1d b2bd 99af ad3e fb56 5dbd
00000040: efe3 14be ef87 5dbb 987f f53d ab07 2d3e
00000050: 574e 483d 4597 81be 7cc2 3b3d 7ade 0dbe
00000060: 4b01 123d 8347 ce3d 1245 2fbd eb33 053e
00000070: e8a3 9c3d f525 fcbe 2ab4 91bd c1a3 34be
00000080: 153b 6f3e 52f7 9d3d 1e11 15bd 0fd4 1a3e
00000090: df47 8b3e b3cf 01bf d200 bebe 498d 93be

rnn_layer.weight_hh_l0 f4 [5, 5]
0.24687462 -0.5453752 0.41722906 0.5256531 -0.8258566 0.7347505 -0.25670156 0.5467668
-0.5498527 0.39767003 -0.58998376 -0.89156437 -0.09515978 0.51189077 -1.2551088 -1.0659251
0.41360563 -0.9174096 -0.6903383 -0.013937497 0.79567367 0.184994 0.8679115 0.30462614
0.7523314
00000000: b3cc 7c3e b69d 0bbf 0c9f d53e 3491 063f
00000010: 576b 53bf 9c18 3c3f 636e 83be e9f8 0b3f
00000020: 26c3 0cbf 689b cb3e 2d09 17bf 903d 64bf
00000030: 21e3 c2bd 460b 033f 68a7 a0bf 3c70 88bf
00000040: 1ec4 d33e 5bdb 6abf 03ba 30bf 195a 64bc
00000050: 45b1 4b3f 116f 3d3e 732f 5e3f f5f7 9b3e
00000060: ca98 403f

linear_layer.weight f4 [5, 5]
-1.182401 -0.38745424 -0.86647916 0.71313906 0.33710292 -0.10922861 1.1111894 -0.7897682
-0.96385217 0.6353066 1.1926719 -0.47587714 0.92079026 -1.0570045 0.55928 0.1311077
-0.32733557 0.9919988 0.9475021 -0.93763286 -0.108657844 0.3686904 0.059107594 -0.2221547
-0.2969695
00000000: ea58 97bf 6760 c6be 94d1 5dbf 4890 363f
00000010: c198 ac3e 40b3 dfbd 743b 8e3f 402e 4abf
00000020: 04bf 76bf 74a3 223f 79a9 983f 2ba6 f3be
00000030: e9b8 6b3f ec4b 87bf f92c 0f3f 1941 063e
00000040: 8798 a7be a2f3 7d3f 7f8f 723f b508 70bf
00000050: 0188 debd fdc4 bc3e ce1a 723d 867c 63be
00000060: 630c 98be

linear_layer.bias f4 [5]
0.2846915 0.45621824 0.006518584 0.2204502 -0.971685
00000000: 16c3 913e 7095 e93e d999 d53b b2bd 613e
00000010: 59c0 78bf
