廖文波/week02/model.bin (torch, 8900 bytes, 7 tensors)

embedding.weight f4 [29, 20]
0.0 0.0 0.0 0.0 0.0 0.0 0.0 0.0
0.0 0.0 0.0 0.0 0.0 0.0 0.0 0.0
0.0 0.0 0.0 0.0 -0.96237284 -0.509138 -0.20973189 1.1015204
0.18179145 -0.07652318 -0.01910637 1.7224376 -0.3351936 0.33353075 -0.87780625 1.1263438
0.25697535 0.35335585 -1.5235249 -0.816909 0.60620964 0.8957023 1.7402872 0.9006238
1.2670864 -1.669918 0.25358784 1.3299264 0.6374896 -0.2649836 -0.0736705 -0.5665885
0.28783786 0.017383354 -0.24740665 -0.02785367 -0.7199893 -0.17349048 0.92921925 0.7516951
-0.6096857 -0.9512743 -0.94284666 -0.15854391 -1.4721922 -0.2010263 -0.16472857 0.489903
-0.24331096 -0.8710185 0.48482388 -1.6632164 0.2259401 1.0099515 0.45848772 -1.3074348
-1.5366745 1.0711968 0.38092574 0.7550922 -0.62420255 -0.22112603 -0.9436235 1.6418979
0.27808747 0.1878842 1.1187083 3.2475286 -1.9457873 -3.327387 0.7492166 0.12074296
-0.4766506 -1.5126672 2.0576186 -1.424661 -0.12235911 -0.66347444 -1.448707 0.45683056
1.1654799 0.8782848 -0.9258717 0.09491247 0.5285474 0.10301815 0.60238665 -1.7705088
0.64945024 -0.9290791 -0.46501112 1.5178523 0.26255736 -0.22723189 -0.32719496 -0.30564904
-0.73721474 -0.6675412 -0.28912163 -0.16821 -1.0080379 -0.22331387 -0.13753234 0.4363091
0.034794565 0.37793988 -1.2169381 -0.2974237 -0.9618878 0.46017367 -0.28565055 1.3841506
-1.6392529 0.031634174 3.5424914 -0.41711155 0.23514141 -0.8269554 0.9558498 0.4315535
-1.1832198 -1.6563911 -1.5463918 -2.123146 -0.12081565 -0.20023276 -0.19430701 1.2222327
1.5158167 -0.81309813 -1.0066031 -0.4154512 -1.2302407 -0.52972496 -1.1051768 1.4221097
-0.34140438 -2.561519 0.123277545 -0.21104881 0.6056989 -0.92010623 0.19336386 -1.5078273
1.7269791 -0.45772603 2.17954 -0.84533906 0.251312 1.6308191 1.803232 -1.748145
0.3786562 -0.4483946 -1.2001257 -1.0774666 0.100561194 1.766044 0.093855105 0.39102328
-0.22072974 -1.1298691 0.5712126 0.5633705 -0.76526076 0.14831159 -0.21302916 -0.2955697
-1.0716519 0.31027687 0.1410081 -1.1704572 -0.4932338 0.5537076 -0.7408048 -0.17070724
-0.07636776 1.5554545 -0.40845603 -1.0568137 -0.90160847 1.6814579 -1.3587309 -0.7705241
-0.590964 -0.44800067 1.8126216 -0.75606924 -0.0680511 -0.56353074 1.0727929 -0.07633182
-0.97603405 -0.78102237 -1.5887879 -0.4842132 0.3428376 -0.50136834 0.806714 1.8508353
-0.82802576 -1.8357711 -1.2882903 0.22680488 1.0955136 -0.5367835 0.94915193 -0.80269754
1.1123816 -1.5658333 0.77555925 -0.45993608 -0.61885613 -0.102603786 1.1216221 -0.36830375
-0.09760172 1.0325214 0.21704829 -0.23354124 -0.46177402 0.7323564 1.0140822 -1.0771039
-0.4207699 0.49881554 -1.3822153 -0.5410291 -1.2356688 1.1530409 0.33564514 -0.99866563
-1.2184114 -0.077821024 0.056404542 -1.1009927 0.4828225 0.25517225 0.4672752 0.60790515
00000000: 0000 0000 0000 0000 0000 0000 0000 0000
00000010: 0000 0000 0000 0000 0000 0000 0000 0000
00000020: 0000 0000 0000 0000 0000 0000 0000 0000
00000030: 0000 0000 0000 0000 0000 0000 0000 0000
00000040: 0000 0000 0000 0000 0000 0000 0000 0000
00000050: 115e 76bf de56 02bf f5c3 56be 9ffe 8c3f
00000060: 8a27 3a3e 2fb8 9cbd f684 9cbc d678 dc3f
00000070: 7f9e abbe 8bc4 aa3e e9b7 60bf 092c 903f
00000080: 4692 833e 0feb b43e dd02 c3bf f320 51bf
00000090: 8e30 1b3f bf4c 653f bbc1 de3f 488f 663f
000000a0: e32f a23f dfbf d5bf 44d6 813e 073b aa3f
000000b0: 8532 233f eeab 87be 8fe0 96bd f20b 11bf
000000c0: 7c5f 933e 8967 8e3c 2b58 7dbe 612d e4bc
000000d0: 3851 38bf 7da7 31be 50e1 6d3f 176f 403f
000000e0: 5d14 1cbf b686 73bf 665e 71bf 5659 22be
000000f0: cb70 bcbf d7d9 4dbe 9bae 28be 91d4 fa3e
00000100: 8226 79be 12fb 5ebf d63a f83e 46e4 d4bf
00000110: d75c 673e 1746 813f e7be ea3e 065a a7bf
00000120: c0b1 c4bf fa1c 893f b308 c33e b94d 413f
00000130: bdcb 1fbf dd6e 62be 4f91 71bf b629 d23f
00000140: 7b61 8e3e b764 403e d531 8f3f 82d7 4f40
00000150: 8f0f f9bf e9f3 54c0 a9cc 3f3f 1648 f73d
00000160: 8c0b f4be 149f c1bf 06b0 0340 4b5b b6bf
00000170: 6a97 fabd 76d9 29bf 3b6f b9bf b2e5 e93e
00000180: 722e 953f 46d7 603f ed05 6dbf 7861 c23d
00000190: e24e 073f 2efb d23d 0336 1a3f 08a0 e2bf
000001a0: 5f42 263f 21d8 6dbf f015 eebe fc48 c23f
000001b0: eb6d 863e 7aaf 68be 1986 a7be 087e 9cbe
000001c0: 1bba 3cbf fbe3 2abf c007 94be 3e3f 2cbe
000001d0: 6307 81bf 64ac 64be 47d5 0cbe e863 df3e
000001e0: bf84 0e3d 5681 c13e a1c4 9bbf eb47 98be
000001f0: 473e 76bf e29b eb3e ca40 92be d92b b13f
00000200: 0ad3 d1bf d692 013d 2eb8 6240 a58f d5be
00000210: e9c8 703e 59b3 53bf 93b2 743f 95f4 dc3e
00000220: bf73 97bf a004 d4bf 2bf0 c5bf a0e1 07c0
00000230: 326e f7bd d109 4dbe 6bf8 46be 1f72 9c3f
00000240: 4806 c23f 3327 50bf 5fd8 80bf 05b6 d4be
00000250: 8778 9dbf 0e9c 07bf 6f76 8dbf b107 b63f
00000260: 8ecc aebe edef 23c0 f078 fc3d 2e1d 58be
00000270: 150f 1b3f 158c 6bbf 2d01 463e 7c00 c1bf
00000280: a70d dd3f 115b eabe 957d 0b40 2468 58bf
00000290: f7ab 803e aebe d03f 4ed0 e63f 37c3 dfbf
000002a0: 3adf c13e fa93 e5be b89d 99bf 6dea 89bf
000002b0: 07f3 cd3d bb0d e23f 1b37 c03d 3434 c83e
000002c0: fa06 62be 8d9f 90bf fd3a 123f 0d39 103f
000002d0: 21e8 43bf fede 173e 5124 5abe e954 97be
000002e0: e42b 89bf 9cdc 9e3e 6d64 103e 8bd1 95bf
000002f0: 2489 fcbe c8bf 0d3f 62a5 3dbf e1cd 2ebe
00000300: b366 9cbd 2219 c73f 2621 d1be ac45 87bf
00000310: d0cf 66bf 033a d73f e5ea adbf 1141 45bf
00000320: 6b49 17bf 5860 e5be fc03 e83f c18d 41bf
00000330: 605e 8bbd 8d43 10bf 4751 893f db53 9cbd
00000340: 5edd 79bf 15f1 47bf 675d cbbf cbea f7be
00000350: 6988 af3e ad59 00bf cf84 4e3f 2ce8 ec3f
00000360: 7ff9 53bf 8cfa eabf b2e6 a4bf 8a3f 683e
00000370: ca39 8c3f a56a 09bf 9ffb 723f 967d 4dbf
00000380: 8562 8e3f 3a6d c8bf 0d8b 463f be7c ebbe
00000390: 5b6d 1ebf ef21 d2bd 5091 8f3f 4f92 bcbe
000003a0: 69e3 c7bd a929 843f e841 5e3e 6f25 6fbe
000003b0: a56d ecbe b67b 3b3f 72cd 813f 8ade 89bf
000003c0: 276f d7be c064 ff3e 6eec b0bf e280 0abf
000003d0: 652a 9ebf d896 933f aed9 ab3e 8da8 7fbf
000003e0: e8f4 9bbf a160 9fbd 7308 673d 54ed 8cbf
000003f0: 8334 f73e f0a5 823e b23e ef3e ac9f 1b3f

classify.weight f4 [7, 20]
-0.58201176 -0.22912762 0.41815698 0.3451706 -0.3943653 -0.28109595 0.18909752 -0.061481986
0.2759812 0.38432193 0.2632335 -0.43713313 -0.471995 -0.36405122 0.16771966 0.4222163
-0.3251711 -0.15036178 -0.22308943 -0.45057645 0.4901441 0.5867064 -0.35036674 -0.44585037
0.3471563 0.29829606 -0.53271943 0.8059951 -0.30804756 -0.23260254 -0.4303215 0.5050182
0.20861991 0.14400578 -0.38616475 -0.5039142 0.13412198 0.69614524 0.1373853 0.25376692
-0.3127256 0.37226236 0.18720947 -0.5692167 -0.18625636 0.24601303 -0.5069147 -0.15108326
-0.2106376 -0.5285604 -0.6272184 0.22944649 0.477831 0.36055928 -0.24978648 0.26383835
0.29302657 -0.0039070253 0.19065636 -0.27961397 0.3254986 0.051922027 -0.57941383 -0.4763135
0.19125059 0.30786985 0.45248002 -0.24550512 -0.058215357 0.39174923 -0.3069503 -0.38449004
-0.17920233 0.5550537 0.27751118 -0.5089568 0.2980811 0.5618536 0.17587768 0.20587288
0.4591199 0.0230866 -0.4269837 0.38319758 0.43053555 0.45720342 -0.47845533 0.64552337
0.3922118 0.18210395 -0.4735833 -0.0035865558 0.0042645736 -0.33816907 -0.49971107 0.68983674
-0.5390062 0.45504358 0.2800066 -0.14942883 -0.3566727 0.45130137 0.26325336 0.37103057
-0.20224126 -0.26055488 -0.5296995 0.48411843 -0.5756714 -0.3249673 0.2184603 0.31394905
-0.146812 -0.07929004 0.411505 -0.33589187 0.36252865 -0.09766393 0.2839259 0.5047274
0.4475934 -0.1119577 0.13841717 -0.2614326 0.5205571 -0.24736089 0.12545937 -0.30739138
0.26321352 -0.6056582 0.40476093 -0.013991227 0.3481592 0.29122195 -0.45542842 -0.3691278
-0.52318376 -0.08243224 -0.22503288 0.24564344
00000000: b9fe 14bf 6ea0 6abe ac18 d63e 33ba b03e
00000010: 40ea c9be cfeb 8fbe c8a2 413e 89d4 7bbd
00000020: 684d 8d3e d8c5 c43e 8bc6 863e eacf dfbe
00000030: 54a9 f1be ec64 babe b4be 2b3e bc2c d83e
00000040: d47c a6be 70f8 19be 8e71 64be f5b1 e6be
00000050: 2bf4 fa3e 6432 163f 4563 b3be 8046 e4be
00000060: 78be b13e 43ba 983e 4d60 08bf b255 4e3f
00000070: 69b8 9dbe 5c2f 6ebe 1a53 dcbe df48 013f
00000080: 75a0 553e 4076 133e 63b7 c5be 8500 01bf
00000090: 4657 093e 9336 323f bbae 0c3e bded 813e
000000a0: 921d a0be 2c99 be3e d7b3 3f3e 30b8 11bf
000000b0: fdb9 3ebe d7ea 7b3e 29c5 01bf 92b5 1abe
000000c0: 62b1 57be bc4f 07bf 6391 20bf 05f4 6a3e
000000d0: 44a6 f43e 3a9b b83e 07c8 7fbe d215 873e
000000e0: 9407 963e 8106 80bb 6c3b 433e 9029 8fbe
000000f0: c1a7 a63e 31ac 543d 7754 14bf 5ddf f3be
00000100: 32d7 433e 1ea1 9d3e 76ab e73e b265 7bbe
00000110: 3a73 6ebd 5b93 c83e 9728 9dbe e1db c4be
00000120: d180 37be 0018 0e3f f215 8e3e fe4a 02bf
00000130: 169e 983e a3d5 0f3f 4719 343e 57d0 523e
00000140: c311 eb3e 1c20 bd3c 9c9d dabe 7932 c43e
00000150: 286f dc3e 9116 ea3e 19f8 f4be 0541 253f
00000160: fccf c83e 7579 3a3e 8379 f2be 6c0c 6bbb
00000170: d6bd 8b3b 7f24 adbe 21da ffbe 2499 303f
00000180: 4ffc 09bf 79fb e83e 065d 8f3e df03 19be
00000190: ce9d b6be f910 e73e 25c9 863e b8f7 bd3e
000001a0: 5518 4fbe 7367 85be 639a 07bf 5fde f73e
000001b0: 335f 13bf 1d62 a6be 0fb4 5f3e eebd a03e
000001c0: e355 16be d162 a2bd c9b0 d23e 05fa abbe
000001d0: 5b9d b93e 0704 c8bd bc5e 913e d135 013f
000001e0: f62a e53e 144a e5bd 3bbd 0d3e 7eda 85be
000001f0: 3b43 053f 2c4c 7dbe 6c78 003e 6762 9dbe
00000200: ecc3 863e 6a0c 1bbf d33c cf3e 763b 65bc
00000210: ec41 b23e 0b1b 953e ea2d e9be 52fe bcbe
00000220: 5fef 05bf 3cd2 a8bd 056f 66be f489 7b3e

classify.bias f4 [7]
0.060762264 -0.36568484 0.08938338 -0.07145663 -0.04832904 -0.1287078 -0.19296892
00000000: dae1 783d 0b3b bbbe a20e b73d db57 92bd
00000010: acf4 45bd facb 03be a599 45be

rnn.weight_ih_l0 f4 [20, 20]
0.061553318 -0.120677106 0.12697473 0.30059054 -0.29093668 -0.18118165 0.027176721 0.049734864
-0.09179095 -0.1827112 0.13559282 -0.09838404 0.006526164 -0.008501385 -0.010860519 0.05134122
0.06267226 0.11470224 -0.114149466 0.05790692 -0.09224008 -0.16110407 0.07815418 -0.035262927
-0.010307931 0.1496537 -0.06072091 0.13047196 0.20414384 -0.13375443 0.17059109 -0.07382334
0.029794404 -0.04434176 -0.12651359 -0.020742647 0.03309385 0.041613515 -0.011949437 -0.099128135
0.045626942 0.17540932 -0.03164421 -0.16273986 -0.092198156 -0.067464225 0.014214478 -0.08075432
-0.16685706 0.08539881 -0.047477785 -0.023791265 -0.11653313 0.062198456 -0.036245376 0.123681866
-0.010849667 0.020010108 -0.030011246 -0.099784225 -0.02052754 -0.019296508 -0.03526152 -0.12475676
0.14494176 0.16396219 -0.08006688 0.11881061 -0.0941655 0.11349014 -0.012702052 -0.0291927
-0.18223476 0.13099429 0.11250395 0.0009975652 0.058117177 -0.05658872 0.013663536 -0.0765659
-0.12296279 0.027583286 0.0013130776 0.3282332 -0.084252626 -0.24134098 0.27561492 -0.074709475
-0.018333836 -0.10615889 0.26360103 -0.35542944 0.08033967 -0.1353053 -0.40255955 0.06424511
0.19164947 0.014502481 -0.1280192 0.0031590944 -0.047712643 -0.12027775 -0.026124246 0.010093412
-0.053981274 0.023448622 -0.026936583 -0.079672225 0.1296489 -0.19690938 0.08433855 -0.09387374
0.111195214 -0.16208014 -0.046151005 0.0038147934 0.07544057 0.02283924 -0.05767915 0.08263506
-0.091889106 -0.06421869 0.21675585 -0.121711336 0.11595032 0.01972852 0.019346727 0.07157041
0.07990377 -0.084074065 0.020848285 0.19926833 0.0051049474 0.101975605 0.14088635 -0.11976532
0.10168103 -0.16092733 -0.13376655 -0.16293114 0.16285276 -0.037110817 -0.0018626484 -0.028164966
-0.03671982 -0.07942393 -0.13114975 -0.010001908 -0.11091832 0.036548074 -0.03583047 0.12620744
-0.05429273 -0.015391908 0.050390687 0.033349562 -0.013464401 0.04767414 0.093490854 -0.007747545
0.100009404 -0.08675304 -0.06774353 -0.13641171 0.02728467 -0.095268086 0.03593073 0.08139969
0.024464542 0.10272213 -0.11736198 0.021634068 -0.09040413 -0.037547905 0.07028859 -0.11421705
0.09062523 0.012713782 -0.03419746 -0.124136515 0.04244309 -0.11956146 -0.10869033 -0.31931162
0.11109522 0.24801019 -0.097679645 0.06536777 -0.22599483 0.41646984 -0.24108535 0.315351
-0.22178698 0.13535585 0.33951652 0.09360632 0.046954487 -0.18804666 0.024429547 0.011709668
-0.022771133 0.18418458 -0.22943278 0.025154669 0.06664774 0.10838347 -0.065150656 0.17701103
0.099329695 -0.1333041 0.0075663747 -0.09117883 0.062058296 -0.021717854 0.06448692 0.14588451
-0.054495454 0.042494744 0.23822835 0.042254332 -0.058819994 0.19221735 -0.11129982 0.051199637
0.031715278 -0.027687736 0.07897448 0.114423804 0.08763144 0.005302798 -0.12379947 -0.09905891
0.11653747 0.11597114 0.01334703 -0.07816795 0.20259587 0.08528024 -0.08782196 -0.023448192
0.10164421 0.06203583 -0.056519944 0.33379266 -0.22652195 -0.37140122 0.22319323 -0.078490354
0.07407338 -0.1711709 0.0070674377 -0.20024374 0.15290171 -0.29694808 -0.24587816 0.052423637
00000000: 551f 7c3d 8f25 f7bd aa05 023e 01e7 993e
00000010: a7f5 94be af87 39be b7a1 de3c c9b6 4b3d
00000020: e5fc bbbd a518 3bbe d8d8 0a3e 927d c9bd
00000030: 6ed9 d53b 6549 0bbc 51f0 31bc 2c4b 523d
00000040: 505a 803d 02e9 ea3d 32c7 e9bd ce2f 6d3d
00000050: 5ee8 bcbd 77f8 24be 4c0f a03d dc6f 10bd
00000060: 99e2 28bc d23e 193e 7db6 78bd 719a 053e
00000070: 150b 513e ecf6 08be 6eaf 2e3e b130 97bd
00000080: 6513 f43c b59f 35bd c78c 01be 7cec a9bc
00000090: 6b8d 073d ef72 2a3d 92c7 43bc b103 cbbd
000000a0: 51e3 3a3d 809e 333e 5c9d 01bd 47a5 26be
000000b0: 63d2 bcbd af2a 8abd d8e3 683c 8562 a5bd
000000c0: 94dc 2abe 92e5 ae3d 1178 42bd e6e5 c2bc
000000d0: eca8 eebd cfc3 7e3d 0876 14bd eb4c fd3d
000000e0: cdc2 31bc 3dec a33c 25da f5bc ac5b ccbd
000000f0: 5f29 a8bc b613 9ebc 626e 10bd 7980 ffbd
00000100: 9d6b 143e b4e5 273e 1bfa a3bd fa52 f33d
00000110: d7d9 c0bd 856d e83d 441c 50bc 8725 efbc
00000120: c09b 3abe 5e23 063e 7968 e63d bcc0 823a
00000130: 470c 6e3d 93c9 67bd 06dd 5f3c 95ce 9cbd
00000140: ead3 fbbd 58f6 e13c 931b ac3a 2f0e a83e
00000150: a48c acbd 1722 77be 661d 8d3e 4801 99bd
00000160: d730 96bc d569 d9bd b7f6 863e d9fa b5be
00000170: 2089 a43d 798d 0abe 491c cebe f192 833d
00000180: c23f 443e d09b 6d3c 7717 03be cf08 4f3b
00000190: 556e 43bd 2e54 f6bd 8402 d6bc d75e 253c
000001a0: 781b 5dbd 5317 c03c 1caa dcbc 312b a3bd
000001b0: aec2 043e 9da2 49be b1b9 ac3d e040 c0bd
000001c0: 51ba e33d 56f8 25be d608 3dbd 9d01 7a3b
000001d0: 9680 9a3d 5c19 bb3c f940 6cbd 923c a93d
000001e0: 5b30 bcbd 1785 83bd 3ff5 5d3e cb43 f9bd
000001f0: 5d77 ed3d b59d a13c 077d 9e3c 8293 923d
00000200: 96a4 a33d 062f acbd 06ca aa3c ff0c 4c3e
00000210: 6747 a73b 96d8 d03d 8344 103e 8547 f5bd
00000220: 253e d03d 22ca 24be 19fa 08be 6cd7 26be
00000230: e0c2 263e 8301 18bd 1c24 f4ba 37ba e6bc
00000240: 8667 16bd 03a9 a2bd 1f4c 06be 0bdf 23bc
00000250: 2529 e3bd 6fb3 153d f9c2 12bd 863c 013e
00000260: 0e62 5ebd 572e 7cbc 7766 4e3d 8d99 083d
00000270: ca99 5cbc f645 433d 2278 bf3d 1edf fdbb
00000280: bbd1 cc3d 94ab b1bd 1fbd 8abd 83af 0bbe
00000290: 1a84 df3c ea1b c3bd 1a2c 133d e1b4 a63d
000002a0: dd69 c83c fb5f d23d 7a5b f0bd ee39 b13c
000002b0: cd25 b9bd d5cb 19bd 77f3 8f3d a1ea e9bd
000002c0: b899 b93d 774d 503c a312 0cbd 493b febd
000002d0: ced8 2d3d a4dc f4bd 0999 debd d07c a3be
000002e0: e485 e33d 62f6 7d3e 440c c8bd 8adf 853d
000002f0: 306b 67be 893b d53e 14df 76be b075 a13e
00000300: 201c 63be b99a 0a3e 1cd5 ad3e acb4 bf3d
00000310: 5953 403d 4e8f 40be 7920 c83c e8d9 3f3c
00000320: 878a babc e29a 3c3e 6df0 6abe 2a11 ce3c
00000330: 9c7e 883d 27f8 dd3d b56d 85bd 6142 353e
00000340: 5e6d cb3d df80 08be 5aef f73b f7bb babd
00000350: d730 7e3d a4e9 b1bc b811 843d c062 153e
00000360: a036 5fbd f80e 2e3d 22f2 733e e112 2d3d
00000370: 3ced 70bd a0d4 443e 29f1 e3bd b6b6 513d
00000380: e1e7 013d 64d1 e2bc 5fbd a13d 0757 ea3d
00000390: 1d78 b33d 18c3 ad3b 948a fdbd 66df cabd
000003a0: 32ab ee3d 4782 ed3d 80ad 5a3c 8516 a0bd
000003b0: 4b75 4f3e 68a7 ae3d 00dc b3bd 6c16 c0bc
000003c0: d72a d03d 4819 7e3d 7581 67bd dfe6 aa3e
000003d0: 5ff5 67be 4d28 bebe c48c 643e 8dbf a0bd
000003e0: c9b3 973d 6d47 2fbe f795 e73b b20c 4dbe
000003f0: 4492 1c3e 9409 98be 7cc7 7bbe 2bba 563d

rnn.weight_hh_l0 f4 [20, 20]
-0.25560412 0.23273477 -0.23769756 0.27331993 -0.2318183 0.12493503 -0.5313199 0.6307591
-0.4445368 0.030028174 -0.34498057 0.2608433 -0.046620503 -0.27372384 -0.15400915 0.14715464
0.33600825 0.046321105 0.080575235 -0.12800425 0.31118914 -0.08130074 0.18804023 -0.27463037
0.40109873 0.106161654 -0.28472993 -0.2179746 0.06036414 -0.3072571 -0.14152093 -0.07755015
0.096886925 0.51465786 -0.41814703 -0.3180546 0.2512281 0.008158948 0.1832418 0.52912617
-0.025172625 -0.3608186 0.19103007 -0.19567308 -0.27310953 -0.093819186 0.42817906 -0.73753357
0.47820136 0.16771577 0.06921231 -0.57747436 -0.30033472 0.105359614 0.23583546 -0.18663488
-0.2957373 0.05869067 -0.12829117 0.06616442 -0.07396547 -0.12029917 0.6421719 0.32871222
-0.24433577 -0.5325198 -0.15571034 -0.056180187 0.03634784 -0.3034292 0.59339786 0.23377705
-0.10461743 0.02772623 0.11953614 -0.33107302 0.016060663 -0.36125845 0.005510315 0.29773936
-0.10024746 0.4825208 0.08644676 0.24373102 0.031107737 0.05437814 -0.3332187 0.26266608
-0.085377164 -0.24746776 -0.2045998 0.30728692 0.11868391 0.08600779 -0.10623353 -0.18204553
0.19393611 0.18949951 0.35344514 -0.054544743 -0.076465346 0.5728358 -0.44292355 0.0063432674
0.3584035 0.3270806 -0.63207835 0.32388017 -0.31780842 0.14818309 -0.17840041 0.45833537
-0.027644021 0.24602324 0.08066575 -0.40448466 0.18766303 0.3365381 0.25630555 0.32786962
0.04315891 -0.24674717 0.090237446 0.43692988 0.07250172 0.21670234 -0.25693315 0.23272736
0.345728 0.64320254 -0.3163779 0.14987127 -0.13945667 -0.46463516 0.16829135 0.8105039
-0.34417745 0.17761719 -0.27025855 -0.5309925 -0.35125336 0.07248646 0.5351855 -0.111174114
0.034315147 -0.17698509 -0.5019941 0.059992883 -0.10323713 -0.8892507 0.37820908 0.37221777
0.058207646 0.32614508 -0.075418375 -0.07617965 -0.07393054 -0.20196834 0.095519975 0.37197015
-0.71296006 0.032105014 0.01611166 0.3699642 -0.22602455 -0.5092951 0.04753694 0.3318733
-0.36440337 0.28409994 -0.1483059 -0.09581375 -0.26217607 -0.4072754 0.55645275 0.16768003
0.21096903 -0.18701336 -0.25655288 0.076055564 -0.4135882 0.109701715 -0.033713363 0.67235523
-0.16752659 -0.06468993 -0.36751416 0.28074157 0.15953316 0.22294267 -0.28204596 0.17238408
-0.21166517 -0.1780265 0.06375494 0.20604175 -0.25636587 -0.3519305 0.06940917 -0.34766802
-0.21676983 -0.4382993 0.42133513 0.16647676 -0.12860633 -0.12976149 0.3473082 -0.08699717
0.3617498 -0.004509156 0.11336707 -0.21066101 -0.1513588 -0.3472451 0.2776395 0.32401016
-0.4710303 -0.16201118 -0.5417496 -0.056920495 -0.017866176 -0.10961923 0.30014083 -0.2736956
0.16791719 0.09489089 -0.08120228 -0.24257904 -0.33453947 -0.43317023 0.22165726 0.037488535
0.07914893 0.46563223 -0.22665082 -0.54958856 0.38855055 -0.04321477 -0.09890434 0.22322033
-0.10789976 0.17819715 -0.1428499 -0.11859585 -0.014002104 0.28109255 0.042103536 -0.13502166
-0.3508325 -0.040735018 -0.06787108 -0.18358655 0.13844389 0.18403985 -0.061417334 -0.32251024
00000000: 8bde 82be 0652 6e3e fd66 73be 97f0 8b3e
00000010: c761 6dbe f0dd ff3d 9504 08bf 6e79 213f
00000020: 549a e3be a5fd f53c 4ba1 b0be 418d 853e
00000030: 24f5 3ebd 8825 8cbe 93b4 1dbe b5af 163e
00000040: 4609 ac3e 33bb 3d3d a104 a53d 8c13 03be
00000050: 2f54 9f3e 0181 a6bd 9e8d 403e 5a9c 8cbe
00000060: d05c cd3e 486b d93d 1fc8 91be bc34 5fbe
00000070: 6340 773d cd50 9dbe ddea 10be 9dd2 9ebd
00000080: a76c c63d 9ec0 033f 5e17 d6be 0dd8 a2be
00000090: f8a0 803e 1cad 053c bda3 3b3e d074 073f
000000a0: d236 cebc 37bd b8be 639d 433e 865e 48be
000000b0: 03d5 8bbe 4624 c0bd 493a db3e 00cf 3cbf
000000c0: cfd6 f43e afbd 2b3e 2fbf 8d3d 5cd5 13bf
000000d0: 79c5 99be c8c6 d73d da7e 713e 371d 3fbe
000000e0: e16a 97be a165 703d c35e 03be 3681 873d
000000f0: 357b 97bd 695f f6bd 6165 243f f84c a83e
00000100: 2833 7abe 3853 08bf 8872 1fbe 321d 66bd
00000110: 79e1 143d 125b 9bbe ece8 173f 4063 6f3e
00000120: aa41 d6bd 1e22 e33c 5dcf f43d 6782 a9be
00000130: a791 833c def6 b8be df8f b43b 4b71 983e
00000140: 8a4e cdbd f70c f73e 000b b13d a094 793e
00000150: a7d5 fe3c 9dbb 5e3d a49b aabe 2b7c 863e
00000160: 39da aebd 3068 7dbe 9c82 51be b654 9d3e
00000170: 8d10 f33d da24 b03d f790 d9bd 256a 3abe
00000180: 3097 463e 290c 423e c3f6 b43e 4f6a 5fbd
00000190: dd99 9cbd 5ea5 123f e0c6 e2be 2fdb cf3b
000001a0: aa80 b73e 1c77 a73e e3cf 21bf 9fd3 a53e
000001b0: c9b7 a2be 4fbd 173e 99ae 36be efaa ea3e
000001c0: b775 e2bc 84ed 7b3e 1634 a53d 9d18 cfbe
000001d0: bd2a 403e b94e ac3e 7b3a 833e 87de a73e
000001e0: 66c7 303d 4aab 7cbe 69ce b83d 46b5 df3e
000001f0: c87b 943d 38e7 5d3e be8c 83be 1550 6e3e
00000200: 4303 b13e eca8 243f 49fc a1be db77 193e
00000210: bbcd 0ebe a9e4 edbe 9154 2c3e 2f7d 4f3f
00000220: 0738 b0be 48e1 353e 545f 8abe 20ef 07bf
00000230: 7bd7 b3be c873 943d eb01 093f 41af e3bd
00000240: 0a8e 0c3d 943b 35be af82 00bf 19bb 753d
00000250: fd6d d3bd efa5 63bf 9fa4 c13e 5493 be3e
00000260: 246b 6e3d 7dfc a63e f374 9abd 1404 9cbd
00000270: e568 97bd cad0 4ebe fa9f c33d df72 be3e
00000280: 8d84 36bf 8c80 033d 9afc 833c f36b bd3e
00000290: fb72 67be 2a61 02bf 18b6 423d 4ceb a93e
000002a0: 1493 babe 8c75 913e 80dd 17be 003a c4bd
000002b0: f13b 86be 6786 d0be b073 0e3f 50b4 2b3e
000002c0: 4408 583e 6e80 3fbe e65a 83be 05c3 9b3d
000002d0: d5c1 d3be 4bab e03d 0617 0abd 791f 2c3f
000002e0: 178c 2bbe 277c 84bd d12a bcbe 5cbd 8f3e
000002f0: a95c 233e 154b 643e 5468 90be 7485 303e
00000300: c1be 58be 944c 36be f391 823d 9cfc 523e
00000310: 6342 83be 3c30 b4be 6526 8e3d 8b01 b2be
00000320: e9f8 5dbe c468 e0be 3db9 d73e e278 2a3e
00000330: 61b1 03be 32e0 04be 61d2 b13e 922b b2bd
00000340: 4537 b93e 8bc1 93bb ff2c e83d 85b7 57be
00000350: cdfd 1abe 1cca b1be c426 8e3e a9e4 a53e
00000360: e22a f1be 42e6 25be 1ab0 0abf 7725 69bd
00000370: 165c 92bc 0c80 e0bd 0fac 993e d421 8cbe
00000380: 7cf2 2b3e 2856 c23d 624d a6bd a466 78be
00000390: c248 abbe 7dc8 ddbe 1ffa 623e 948d 193d
000003a0: d618 a23d 5967 ee3e 2717 68be d6b1 0cbf
000003b0: 19f0 c63e f801 31bd 5c8e cabd df93 643e
000003c0: 8dfa dcbd 5079 363e 3f47 12be 62e2 f2bd
000003d0: 1569 65bc 5deb 8f3e c274 2c3d 1e43 0abe
000003e0: 51a0 b3be c3d9 26bd feff 8abd 1dfe 3bbe
000003f0: 3cc4 0d3e f174 3c3e be90 7bbd 1020 a5be

rnn.bias_ih_l0 f4 [20]
-0.28181034 -0.13867179 0.16362259 0.13273025 -0.011981943 -0.042504024 0.019746428 -0.1685751
-0.068305306 0.19123594 -0.34864742 0.08334959 -0.25892237 -0.08408695 0.1752981 0.05914776
0.04729885 -0.23656093 -0.18440042 -0.30311856
00000000: 7249 90be faff 0dbe ae8c 273e 70ea 073e
00000010: e94f 44bc b318 2ebd 43c3 a13c f39e 2cbe
00000020: a7e3 8bbd 5bd3 433e ea81 b2be 31b3 aa3d
00000030: 7991 84be c735 acbd 5881 333e ec44 723d
00000040: 70bc 413d 073d 72be 77d3 3cbe 5b32 9bbe

rnn.bias_hh_l0 f4 [20]
-0.20711887 0.117627196 -0.18441889 0.17666587 -0.2777954 -0.20972927 0.23980841 0.101969555
0.24338971 0.306845 -0.06096258 -0.12123754 0.06048659 -0.15987682 0.16459252 0.14030476
-0.08894594 -0.1927618 -0.16108051 -0.17600013
00000000: f816 54be 87e6 f03d 4ed8 3cbe e6e7 343e
00000010: 333b 8ebe 45c3 56be 5690 753e 6ad5 d03d
00000020: 273b 793e ca1a 9d3e e6b3 79bd 634b f8bd
00000030: c9c0 773d c0b6 23be f18a 283e 0dac 0f3e
00000040: 4a29 b6bd 5963 45be 4af2 24be 6139 34be
