jinzhenxiao/week03/model.pth (torch, 8878 bytes, 7 tensors)

embedding.weight f4 [29, 20]
0.0 0.0 0.0 0.0 0.0 0.0 0.0 0.0
0.0 0.0 0.0 0.0 0.0 0.0 0.0 0.0
0.0 0.0 0.0 0.0 0.7720145 0.46013197 -0.3436129 -1.0156091
-0.74406946 -1.3321817 0.91460323 0.20497915 -0.31200522 0.35795859 -1.5330637 0.91646355
0.1898665 0.8841467 0.27426916 0.11828628 -1.5236623 0.45483077 -0.41185495 -1.9514058
1.2482113 0.537502 1.6187701 -1.439294 0.8507945 -0.149068 0.71484685 -1.9265001
0.14691776 0.2081995 -1.3189485 -0.42805216 2.3594177 1.5709163 0.3580332 -0.8400783
-1.5656552 0.30962628 0.66883135 0.56513834 -0.21026556 1.5336175 -1.1937475 -0.48612753
-1.0915062 -0.7098643 1.6993973 1.1498662 0.9605682 -0.03609644 -0.49356738 -0.8100776
-0.5314271 0.30112824 -0.9739429 -0.6669286 -1.2953019 -1.0359154 2.2644954 -0.575856
2.635396 -0.17872348 2.7404 -0.6598707 1.7291844 0.9175913 0.06198557 1.6774002
0.73932683 1.3038329 -1.0146126 -0.64775574 -0.31507534 -0.74541974 0.9045832 0.6775942
-0.9352416 2.040664 1.9331394 -1.8705611 0.16365625 -0.70945114 1.6283517 -0.23287071
0.062400963 0.52129793 0.08426099 0.12605153 -0.8026477 -1.0286865 1.1496408 -0.15034924
1.068299 -1.4994346 0.22212563 -1.1406844 0.07572439 0.22970213 -1.1292316 0.030170165
-0.0967374 -0.4549168 0.65793556 -0.48634437 -0.34049678 0.39217302 -0.06811865 0.046731085
-0.14870381 -1.9712691 0.06367776 -0.49728385 -1.0069765 1.0905695 -0.84841776 0.57304317
-0.95210963 -0.21205387 -0.3922404 0.18636899 -0.69723594 0.9171152 0.7922099 -1.6958646
0.36105853 0.13877498 -0.4970777 -0.6556104 -0.25896418 0.13280623 -0.8303619 0.5662189
0.6843059 -0.71813595 -0.31518507 -1.1564022 0.518519 0.54956704 -0.4406955 -0.05631149
0.035190776 -0.6884495 0.5023113 0.3727139 -0.2184014 -1.543085 0.069658816 0.40400878
1.222747 0.39737892 -0.47049788 -0.5932057 0.3700896 -0.7822593 -0.18527749 -0.34571615
-1.0179654 0.2607118 -0.06644403 0.31193432 0.81286377 1.8765539 -1.5464381 0.38261297
-0.9042222 1.5467472 -1.139512 -0.61219907 0.5720753 0.21656041 -0.3538811 -1.1254963
-0.0020068479 -1.4103866 0.4313832 -1.5351462 2.4807813 0.58329374 -1.1681846 1.4828625
-1.9013003 0.031542946 -0.0353561 -0.36301947 0.07733287 -0.4997173 0.6125642 1.9339846
0.9626539 0.07452872 1.7703834 0.28486556 -0.742855 -0.79773 1.1165248 -0.3059802
-0.80135363 -0.86103964 0.19193724 -0.8465301 0.4644018 -1.7716001 -0.12228062 0.2881144
0.702393 0.9372571 2.201038 0.77751255 -0.13488454 0.57457346 0.35368872 1.8891112
1.0809433 -1.0249965 -1.0098556 1.125145 -0.4668421 0.69434905 -0.53548837 1.531889
-2.3005564 0.8711494 -0.48447657 0.39061537 0.53670555 0.10805503 0.9892782 -0.8913945
0.7548054 0.65208 -0.38797545 -0.12730302 -0.38001063 0.09745696 -0.8056052 -0.10173602
00000000: 0000 0000 0000 0000 0000 0000 0000 0000
00000010: 0000 0000 0000 0000 0000 0000 0000 0000
00000020: 0000 0000 0000 0000 0000 0000 0000 0000
00000030: 0000 0000 0000 0000 0000 0000 0000 0000
00000040: 0000 0000 0000 0000 0000 0000 0000 0000
00000050: bea2 453f 6b96 eb3e 08ee afbe 7bff 81bf
00000060: 567b 3ebf ee84 aabf 7023 6a3f 0ee6 513e
00000070: 26bf 9fbe 5946 b73e 6e3b c4bf 5b9d 6a3f
00000080: 5d6c 423e 7057 623f 026d 8c3e 1440 f23d
00000090: 5e07 c3bf 94df e83e a7de d2be aac7 f9bf
000000a0: 63c5 9f3f bb99 093f dc33 cf3f c93a b8bf
000000b0: abcd 593f 48a5 18be 3400 373f 8e97 f6bf
000000c0: 9c71 163e 4032 553e 4ed3 a8bf a729 dbbe
000000d0: b300 1740 c913 c93f 2150 b73e 5f0f 57bf
000000e0: 6467 c8bf 5687 9e3e 8838 2b3f e8ac 103f
000000f0: db4f 57be 944d c43f b8cc 98bf b5e5 f8be
00000100: 7ab6 8bbf abb9 35bf da85 d93f d12e 933f
00000110: cce7 753f dcd9 13bd ddb4 fcbe 3f61 4fbf
00000120: 9b0b 08bf 7b2d 9a3e 5254 79bf d5bb 2abf
00000130: 74cc a5bf e098 84bf 7eed 1040 4c6b 13bf
00000140: 54aa 2840 4a03 37be b762 2f40 49ed 28bf
00000150: ea55 dd3f 43e7 6a3f 95e4 7d3d 0db5 d63f
00000160: 8644 3d3f ffe3 a63f d3de 81bf 52d3 25bf
00000170: 8e51 a1be d4d3 3ebf c492 673f d076 2d3f
00000180: fe6b 6fbf 3d9a 0240 1d71 f73f 8c6e efbf
00000190: 8195 273e 979e 35bf d46d d03f a975 6ebe
000001a0: 2798 7f3d c873 053f 0791 ac3d a713 013e
000001b0: 527a 4dbf 00ac 83bf 6e27 933f 27f5 19be
000001c0: 06be 883f 79ed bfbf e774 633e f201 92bf
000001d0: 6415 9b3d 0937 6b3e a98a 90bf 6c27 f73c
000001e0: 421e c6bd dbea e8be 776e 283f 2102 f9be
000001f0: 9855 aebe e7ca c83e ca81 8bbd 1869 3f3d
00000200: d045 18be 8c52 fcbf 7c69 823d fd9b febe
00000210: 9be4 80bf c897 8b3f e831 59bf f5b2 123f
00000220: 75bd 73bf a624 59be bcd3 c8be 83d7 3e3e
00000230: 0e7e 32bf 10c8 6a3f 45ce 4a3f 1712 d9bf
00000240: aadc b83e 071b 0e3e f880 febe 15d6 27bf
00000250: f496 84be 5bfe 073e 9992 54bf b9f3 103f
00000260: ac2e 2f3f c2d7 37bf f05f a1be fd04 94bf
00000270: a9bd 043f 6db0 0c3f d7a2 e1be e0a6 66bd
00000280: 3424 103d 3a3e 30bf 7997 003f 5bd4 be3e
00000290: 9ea4 5fbe cf83 c5bf 48a9 8e3d 3dda ce3e
000002a0: f982 9c3f 4075 cb3e 19e5 f0be 54dc 17bf
000002b0: 627c bd3e 2542 48bf 62b9 3dbe b501 b1be
000002c0: b14c 82bf 047c 853e cf13 88bd dbb5 9f3e
000002d0: d717 503f eb32 f03f aff1 c5bf d9e5 c33e
000002e0: 1b7b 67bf d0fb c53f 87db 91bf 14b9 1cbf
000002f0: 8773 123f 03c2 5d3e e72f b5be 4310 90bf
00000300: 5285 03bb 8c87 b4bf 42de dc3e ac7f c4bf
00000310: 1fc5 1e40 bd52 153f 1387 95bf 70ce bd3f
00000320: cf5d f3bf 2d33 013d 8fd1 10bd b0dd b9be
00000330: b260 9e3d f2da ffbe 02d1 1c3f cf8c f73f
00000340: 7c70 763f 83a2 983d ec9b e23f e6d9 913e
00000350: bf2b 3ebf 0938 4cbf 49ea 8e3f 70a9 9cbe
00000360: 8325 4dbf 186d 5cbf 328b 443e 32b6 58bf
00000370: 13c6 ed3e cbc3 e2bf 436e fabd bb83 933e
00000380: 07d0 333f 15f0 6f3f cedd 0c40 100b 473f
00000390: 2c1f 0abe 3f17 133f b016 b53e 65ce f13f
000003a0: 5a5c 8a3f 1633 83bf f342 81bf c004 903f
000003b0: ed05 efbe dcc0 313f c415 09bf f014 c43f
000003c0: 513c 13c0 a603 5f3f 500d f8be bdfe c73e
000003d0: 8965 093f f54b dd3d 5641 7d3f 6e32 64bf
000003e0: ed3a 413f b7ee 263f b8a4 c6be b95b 02be
000003f0: c190 c2be 8497 c73d 243c 4ebf f95a d0bd

rnn.weight_ih_l0 f4 [20, 20]
-0.14864051 -0.06827903 -0.037178915 0.13925187 0.052807458 0.013070996 -0.11037122 -0.08094637
-0.00317318 -0.13703994 -0.017366739 -0.09401635 -0.050445452 0.14279406 0.07086342 0.12139157
0.055302013 0.30409953 0.1485859 -0.013663945 -0.07858552 -0.055465017 -0.10805711 -0.026193935
-0.037488203 0.08113055 0.20334668 -0.12305276 -0.0806589 0.06741431 0.15057644 -0.043678217
0.18303816 -0.07454196 0.103291154 -0.14490947 -0.22065392 -0.05090064 0.041212477 0.0745673
0.17210224 -0.06655374 0.15013768 0.09477572 0.08536134 0.14458424 -0.19746283 0.1521757
0.038594835 0.09544706 -0.063069694 -0.029705068 -0.17073897 -0.10379038 0.018805275 0.055970374
0.06985892 0.12255497 0.1709242 -0.11727441 -0.2764318 -0.10499848 -0.27660736 0.19935827
-0.33386335 -0.12296956 0.043082323 -0.24829108 -0.21637103 -0.048360478 0.22001036 0.13217339
-0.0010864906 0.18642661 -0.045615505 -0.21392746 -0.09870199 -0.055427093 -0.1531765 0.054170307
0.0419093 0.10196691 -0.029916696 -0.04039492 -0.033224784 -0.09563644 -0.03990573 -0.013198627
0.11190218 -0.09425275 0.01239611 0.13924594 -0.06147893 0.14667417 0.016401978 -0.019299831
0.058533944 0.15808396 -0.056925185 0.14164698 0.29658133 -0.07876605 0.1743685 -0.16907886
0.1174918 0.0887737 -0.20360497 0.17692721 0.12121845 0.3514739 0.08454537 -0.16014342
-0.09329813 -0.037838936 0.13859497 -0.005942239 -0.09357398 0.039084803 0.15707715 -0.10938689
-0.18724373 0.026551452 -0.22256655 -0.10216302 -0.09610643 -0.25462386 -0.04612341 -0.1343842
-0.15426062 -0.034834385 0.029897368 0.02224996 0.17086682 -0.037231937 -0.048478063 -0.104292266
-0.061901964 -0.14730506 -0.1385545 0.065153755 0.14696954 0.025190234 0.038899697 0.22323243
-0.084096834 -0.1672456 -0.09987335 -0.022499323 0.10075965 0.1670496 0.14626174 -0.1870428
-0.013264555 -0.013618948 0.11575781 0.06191215 -0.0089063 0.13929479 0.057660308 0.13788466
-0.14825524 0.048474416 0.11664907 -0.12532729 0.101994075 0.19520548 -0.031465236 0.07535215
0.021843938 -0.069615945 0.041790348 0.06706623 -0.030231332 0.09536087 -0.026444968 -0.09959277
0.07315413 0.07928942 0.018577559 -0.102545716 0.16744837 0.1108685 0.05519385 -0.03482762
-0.010312399 -0.024215532 -0.0848146 -0.04021542 -0.21023133 0.1844359 -0.07197306 0.040471215
-0.25578225 -0.122770675 0.13280027 -0.064105965 -0.031628624 0.19984956 0.23580901 -0.1551469
0.011110543 -0.1354237 -0.17614518 -0.09392973 -0.16785693 0.099602155 0.110637486 0.113862835
-0.17851782 0.04559797 0.054880206 -0.09582001 0.019989755 0.1764649 0.13370214 -0.119376734
-0.101536304 0.17909047 -0.06338404 0.09704595 -0.19611879 0.07269986 -0.29013643 -0.14299445
-0.1885336 -0.1975814 0.13580593 -0.13651699 0.0647758 -0.16879036 0.17922936 0.2307906
0.22817533 0.11156235 -0.20420568 -0.13982813 -0.10803199 -0.1368959 -0.33055344 0.14513886
-0.30723152 0.003482255 -0.07849036 0.10255201 -0.049100563 -0.1815279 0.22476895 -0.21087241
0.022457963 -0.15425809 -0.03212756 0.064464994 0.08857759 -0.029010715 -0.08491608 -0.23428051
00000000: 3835 18be e0d5 8bbd eb48 18bd 0b98 0e3e
00000010: a24c 583d bb27 563c 4e0a e2bd 36c7 a5bd
00000020: 20f5 4fbb 3354 0cbe b144 8ebc a58b c0bd
00000030: e49f 4ebd 9b38 123e d720 913d 259c f83d
00000040: 5d84 623d efb2 9b3e e726 183e bdde 5fbc
00000050: 72f1 a0bd 492f 63bd 0c4d ddbd aa94 d6bc
00000060: 3b8d 19bd c627 a63d 1d3a 503e 1603 fcbd
00000070: 7e30 a5bd 8410 8a3d b630 1a3e eee7 32bd
00000080: 5b6e 3b3e 75a9 98bd 508a d33d 2663 14be
00000090: 1af3 61be 317d 50bd 6ace 283d beb6 983d
000000a0: 923b 303e 544d 88bd b1bd 193e c619 c23d
000000b0: edd1 ae3d e40d 143e b233 4abe f2d3 1b3e
000000c0: 9e15 1e3d c079 c33d af2a 81bd 0b58 f3bc
000000d0: 32d6 2ebe 0d90 d4bd 850d 9a3c 3141 653d
000000e0: 3212 8f3d 1afe fa3d c106 2f3e 912d f0bd
000000f0: 7888 8dbe 7109 d7bd 7b9f 8dbe 9324 4c3e
00000100: 23f0 aabe 77d7 fbbd 1777 303d 0440 7ebe
00000110: 5e90 5dbe a315 46bd 654a 613e 7658 073e
00000120: 9368 8eba 9ee6 3e3e 53d7 3abd cd0f 5bbe
00000130: 4524 cabd 8507 63bd 4dda 1cbe afe1 5d3d
00000140: 16a9 2b3d 07d4 d03d dc13 f5bc 2575 25bd
00000150: b616 08bd 0add c3bd 3174 23bd 0e3f 58bc
00000160: f82c e53d 9607 c1bd 0e19 4b3c 7d96 0e3e
00000170: 55d1 7bbd c131 163e 715d 863c ae1a 9ebc
00000180: 4ac1 6f3d c3e0 213e 622a 69bd e80b 113e
00000190: 82d9 973e 1850 a1bd a88d 323e 0223 2dbe
000001a0: 8a9f f03d fcce b53d d27d 50be 682c 353e
000001b0: 6141 f83d 63f4 b33e 1f26 ad3d a3fc 23be
000001c0: 1713 bfbd 00fd 1abd d7eb 0d3e 1db7 c2bb
000001d0: b7a3 bfbd 6317 203d d5d8 203e 3c06 e0bd
000001e0: d2bc 3fbe 6e82 d93c 7ce8 63be d83a d1bd
000001f0: 73d3 c4bd 0f5e 82be e7eb 3cbd 039c 09be
00000200: 7ff6 1dbe 80ae 0ebd 53eb f43c 8c45 b63c
00000210: b6f7 2e3e 8480 18bd ef90 46bd 2f97 d5bd
00000220: ea8c 7dbd 23d7 16be 3be1 0dbe 556f 853d
00000230: 2f7f 163e c05b ce3c 4a55 1f3d 0b97 643e
00000240: f63a acbd 6e42 2bbe 668a ccbd 8050 b8bc
00000250: 135b ce3d 0d0f 2b3e a3c5 153e 2688 3fbe
00000260: 9353 59bc 0222 5fbc 6e12 ed3d 9897 7d3d
00000270: bbeb 11bc 4ba3 0e3e 372d 6c3d a331 0d3e
00000280: 39d0 17be 1c8d 463d b5e5 ee3d cc55 00be
00000290: 45e2 d03d f2e3 473e b1e1 00bd 3a52 9a3d
000002a0: 0ff2 b23c ce92 8ebd 5b2c 2b3d 055a 893d
000002b0: b3a7 f7bc 8f4c c33d 1ea3 d8bc 4bf7 cbbd
000002c0: d5d1 953d 7e62 a23d f72f 983c 7d03 d2bd
000002d0: 9677 2b3e 060f e33d f212 623d 68a7 0ebd
000002e0: 56f5 28bc a75f c6bc 47b3 adbd edb8 24bd
000002f0: e246 57be c4dc 3c3e 9d66 93bd 25c5 253d
00000300: e4f5 82be 316f fbbd cbfc 073e fd49 83bd
00000310: 048d 01bd 5da5 4c3e eb77 713e d4de 1ebe
00000320: ff08 363c 83ac 0abe 675f 34be 3b5e c0bd
00000330: b0e2 2bbe 37fc cb3d e895 e23d eb30 e93d
00000340: 60cd 36be f0c4 3a3d 11ca 603d 483d c4bd
00000350: 8ec1 a33c 37b3 343e 37e9 083e ca7b f4bd
00000360: 44f2 cfbd 7e63 373e 7ecf 81bd 07c0 c63d
00000370: 5dd3 48be aae3 943d c38c 94be 236d 12be
00000380: f40e 41be c752 4abe b610 0b3e 1ccb 0bbe
00000390: 2da9 843d 61d7 2cbe e787 373e 5f54 6c3e
000003a0: cba6 693e cd7a e43d 4b1b 51be 1b2f 0fbe
000003b0: e03f ddbd 702e 0cbe 4d3e a9be 489f 143e
000003c0: 734d 9dbe 8b36 643b 8ebf a0bd ca06 d23d
000003d0: ac1d 49bd 73e2 39be d529 663e f0ee 57be
000003e0: c3f9 b73c d5f5 1dbe 3098 03bd 3906 843d
000003f0: 2b68 b53d e1a7 edbc 7be8 adbd 3be7 6fbe

rnn.weight_hh_l0 f4 [20, 20]
-0.010248559 -0.3248192 0.06652565 -0.38564268 -0.32466063 0.16489401 -0.23269439 -0.055613115
-0.19390738 0.3174974 -0.14110054 -0.4813567 -0.36252224 -0.1063712 -0.19223304 0.0010162796
0.22562283 0.018357731 0.02524992 -0.12785912 -0.14022078 -0.049461603 -0.48882 0.38524863
-0.081306115 -0.28009313 0.03826685 -0.12730446 -0.369251 -0.25470993 -0.011705891 0.3652622
0.058153275 -0.027339907 0.32488513 0.27380705 -0.36924505 -0.07581003 -0.4664557 -0.23578745
0.59970945 -0.38752672 -0.052044053 0.23539248 -0.20343848 0.33552453 -0.12987287 -0.2896709
0.2772797 0.032567278 -0.06252193 -0.29734123 -0.1814496 0.068198375 0.059535883 -0.2993383
0.121459566 -0.12335688 -0.08587573 0.24267913 -0.21498904 0.30620623 -0.078404136 -0.121304445
-0.35045856 -0.0017433077 0.10010721 -0.13061659 -0.12200671 0.09542345 0.4655 0.10330903
-0.09033134 0.10921529 0.12025022 0.35906208 0.1969659 0.28945267 -0.07371939 0.21911204
-0.25192162 -0.26947814 0.22744852 -0.18737741 0.1424684 -0.263948 -0.24070686 -0.19943239
0.40473816 -0.2333177 -0.31210208 0.045467712 0.23779334 0.19377826 0.017721571 -0.5383154
-0.07641259 -0.5253213 0.09254212 0.048535157 0.19204539 -0.38711444 0.25979015 -0.23206393
-0.36995056 0.29820704 0.064854346 -0.10301022 0.04113525 0.24003612 0.06631205 -0.3826138
-0.30527744 -0.03963545 -0.12013486 -0.14149901 0.43114036 -0.16155946 -0.04150407 0.2191931
-0.072687194 0.52766633 -0.036425713 -0.21644095 -0.105390504 -0.13288979 -0.15309493 0.22885813
-0.19290197 -0.2283402 0.43036133 0.31406403 -0.0785534 -0.08654108 -0.23837492 0.0097556915
-0.10721892 0.16918531 -0.10552301 -0.01820845 -0.00045226482 0.37082502 -0.30344507 0.2555731
0.26286405 -0.31088167 -0.014905617 0.08736864 0.007939832 -0.18052332 0.049570955 0.48480415
0.2539104 0.1244871 -0.03508866 0.1756659 -0.34303665 0.11311312 -0.19805956 -0.08975028
0.5318168 -0.16757996 0.12578507 0.24482389 0.08062457 0.37477186 -0.11408482 -0.5369399
0.1224576 0.028926235 -0.28489712 -0.022504339 -0.320787 0.15277778 0.2273183 -0.32238594
0.3676458 -0.4039203 0.26492864 -0.027543573 -0.16492943 -0.10816121 0.10863665 -0.20674892
0.37995487 -0.052293587 -0.12368666 0.32090688 -0.22629231 -0.18259987 -0.14978296 -0.28879884
0.060213596 -0.23163578 -0.33697632 -0.29893637 0.025070261 -0.043202017 0.05604217 -0.13605182
-0.13032013 -0.09448863 -0.6473065 0.30884105 0.092983134 -0.44793668 0.34747633 -0.08255633
-0.55433065 0.025516698 -0.16156471 0.34228668 0.005810967 -0.18464543 0.4139183 0.36632583
-0.06788512 0.054603737 -0.1559616 -0.51421374 0.12670192 -0.0065453243 -0.27808458 0.19977333
0.018107252 -0.018109296 0.25477463 -0.20837915 -0.11332249 -0.22616614 0.20315069 0.28387895
0.24691328 0.1302199 0.46785092 0.07356734 -0.15075265 0.064437784 -0.18176869 -0.24694881
-0.23273703 -0.107062176 -0.062097903 0.22972699 0.42600602 -0.2254674 -0.13661873 -0.18922237
0.010784313 -0.18169536 -0.10906372 0.5307275 0.09430842 0.25439903 -0.027655274 0.039507475
00000000: 92e9 27bc b44e a6be 9a3e 883d f572 c5be
00000010: eb39 a6be fad9 283e 7047 6ebe 94ca 63bd
00000020: a88f 46be 058f a23e a97c 10be 6374 f6be
00000030: 849c b9be 25d9 d9bd bdd8 44be af34 853a
00000040: ac09 673e f462 963c ecd8 ce3c 80ed 02be
00000050: 0996 0fbe 4098 4abd 9d46 fabe 4f3f c53e
00000060: d283 a6bd 5e68 8fbe b3bd 1c3d 1a5c 02be
00000070: 780e bdbe 5769 82be 11ca 3fbc a603 bb3e
00000080: 2132 6e3d f1f7 dfbc 5857 a63e 7030 8c3e
00000090: b00d bdbe 4a42 9bbd 48d3 eebe 4472 71be
000000a0: 8f86 193f e769 c6be 252c 55bd ba0a 713e
000000b0: 2d52 50be dfc9 ab3e 65fd 04be bf4f 94be
000000c0: 9bf7 8d3e 4465 053d 7f0b 80bd 1c3d 98be
000000d0: edcd 39be 97ab 8b3d e6db 733d df42 99be
000000e0: cbbf f83d 88a2 fcbd 9ddf afbd e180 783e
000000f0: 1626 5cbe 10c7 9c3e 5992 a0bd 776e f8bd
00000100: 4e6f b3be b37f e4ba 0205 cd3d 5bc0 05be
00000110: a7de f9bd 5f6d c33d 0456 ee3e af93 d33d
00000120: a3ff b8bd 44ac df3d bf45 f63d fcd6 b73e
00000130: 6eb1 493e 2433 943e 31fa 96bd e85e 603e
00000140: dffb 80be 0af9 89be 44e8 683e dddf 3fbe
00000150: 3ce3 113e 3124 87be dc7b 76be 0138 4cbe
00000160: d739 cf3e d6ea 6ebe d8cb 9fbe 5a3c 3a3d
00000170: 1980 733e cf6d 463e d42c 913c 0acf 09bf
00000180: 347e 9cbd 757b 06bf b986 bd3d cdcc 463d
00000190: 8ca7 443e dd33 c6be 3703 853e 2ba2 6dbe
000001a0: 296a bdbe 98ae 983e 5bd2 843d 06f7 d2bd
000001b0: 707d 283d 07cc 753e 9dce 873d f5e5 c3be
000001c0: 534d 9cbe c858 22bd 4409 f6bd 1ee5 10be
000001d0: 6ebe dc3e d86f 25be 2c00 2abd 2874 603e
000001e0: 06dd 94bd 2415 073f 2133 15bd b2a2 5dbe
000001f0: fad6 d7bd 4314 08be ebc4 1cbe c959 6a3e
00000200: 1888 45be 03d2 69be 5258 dc3e 00cd a03e
00000210: 9be0 a0bd 733c b1bd 8e18 74be 56d6 1f3c
00000220: 9895 dbbd ea3e 2d3e 731c d8bd e329 95bc
00000230: f51d edb9 c7dc bd3e 275d 9bbe 7ada 823e
00000240: 1e96 863e e22b 9fbe b036 74bc 54ee b23d
00000250: 1216 023c 1bdb 38be ea0a 4b3d 4038 f83e
00000260: 8b00 823e 18f3 fe3d 20b9 0fbd c3e1 333e
00000270: 80a2 afbe daa7 e73d 20d0 4abe ffce b7bd
00000280: 2525 083f 159a 2bbe cdcd 003e 1db3 7a3e
00000290: 7f1e a53d 19e2 bf3e 4da5 e9bd e574 09bf
000002a0: 0dcb fa3d b6f6 ec3c 09de 91be 055b b8bc
000002b0: 323e a4be c771 1c3e 21c6 683e c50f a5be
000002c0: 123c bc3e a4ce cebe baa4 873e 0fa3 e1bc
000002d0: 43e3 28be a083 ddbd e47c de3d fdb5 53be
000002e0: 7289 c23e cd31 56bd 6e4f fdbd e84d a43e
000002f0: 2cb9 67be 76fb 3abe b460 19be 71dd 93be
00000300: 88a2 763d ee31 6dbe 2988 acbe 300e 99be
00000310: 2660 cd3c 99f4 30bd 798c 653d 2b51 0bbe
00000320: a472 05be 4183 c1bd e1b5 25bf 6a20 9e3e
00000330: f16d be3d f557 e5be 6be8 b13e 4b13 a9bd
00000340: 9de8 0dbf 6508 d13c 3871 25be 3340 af3e
00000350: ed69 be3b b113 3dbe 19ed d33e 0f8f bb3e
00000360: 5b07 8bbd 2ba8 5f3d 66b4 1fbe 83a3 03bf
00000370: 26be 013e 297a d6bb 1a61 8ebe 6191 4c3e
00000380: a955 943c f259 94bc d271 823e 5861 55be
00000390: 9f15 e8bd 1998 67be bc06 503e 9558 913e
000003a0: d6d6 7c3e 5e58 053e 288a ef3e 79aa 963d
000003b0: e75e 1abe f5f7 833d 9221 3abe 26e0 7cbe
000003c0: 9e52 6ebe 6a43 dbbd 5f5a 7ebd 8d3d 6b3e
000003d0: 761d da3e ede0 66be c8e5 0bbe 82c3 41be
000003e0: b0b0 303c 590e 3abe cd5c dfbd c2dd 073f
000003f0: c624 c13d 9740 823e 508d e2bc 97d2 213d

rnn.bias_ih_l0 f4 [20]
-0.020998396 -0.01949145 -0.06660841 0.11398106 -0.035581518 0.078109406 0.13890173 -0.20474726
-0.2396 0.07221817 0.15327922 0.31235534 0.13569252 0.12586758 0.23704018 0.22004572
-0.13750902 0.06905267 0.0058279852 -0.056326225
00000000: d404 acbc 89ac 9fbc fd69 88bd e76e e93d
00000010: edbd 11bd d3f7 9f3d 413c 0e3e 44a9 51be
00000020: b459 75be 1fe7 933d 3af5 1c3e 0aed 9f3e
00000030: fbf2 0a3e 6ee3 003e a9ba 723e aa53 613e
00000040: 2acf 0cbe 7c6b 8d3d aff8 be3b 54b6 66bd

rnn.bias_hh_l0 f4 [20]
-0.27619365 0.27252233 -0.18883936 0.2688141 -0.19694462 -0.092576995 0.03160109 -0.1744433
-0.16176066 -0.002560283 0.23227976 -0.03553785 0.08674561 0.05358475 -0.09660099 0.18663889
0.08461668 0.2699805 0.13600497 0.10360891
00000000: 4169 8dbe 0c88 8b3e 1b5f 41be 00a2 893e
00000010: daab 49be 0299 bdbd 2570 013d 44a1 32be
00000020: 96a4 25be 6cca 27bb bfda 6d3e 2390 11bd
00000030: afa7 b13d af7b 5b3d bdd6 c5bd 441e 3f3e
00000040: 834b ad3d e23a 8a3e e344 0b3e e930 d43d

classify.weight f4 [7, 20]
0.32929012 -0.33808222 0.2950867 -0.45646834 0.39008114 0.05870588 -0.35102573 -0.20872115
0.35678646 0.12360035 -0.40352613 -0.37667194 -0.035376545 0.23244885 -0.36864284 -0.3371003
-0.045021154 -0.45271933 0.21515432 -0.33394465 -0.023085393 -0.2539419 0.2134262 -0.26332566
0.56545645 0.20213166 -0.23909846 -0.27557638 0.3238705 0.026269853 -0.37853402 -0.145348
0.08483092 0.3689537 -0.17746525 -0.33995062 0.044298522 -0.18370438 0.35902494 0.25018328
-0.016868833 -0.1487293 0.1316221 0.34587196 -0.16043447 0.08798892 0.0250412 -0.06018814
0.2905445 -0.42624152 -0.41741663 0.0030879148 -0.2808608 -0.22963363 -0.033453993 -0.42774525
0.16961801 -0.4218639 0.3544451 0.16769154 0.41036656 0.23389347 0.45248008 0.026823347
-0.23194663 0.11992993 -0.3584865 -0.27191266 0.44679314 -0.21420744 0.24594013 0.19195002
-0.34069225 0.43616647 0.35518137 0.1335887 0.095426254 0.13769303 0.35526186 0.19156684
0.5442579 -0.3995572 -0.2147904 0.18766978 -0.30808458 0.1650486 0.021967262 -0.24338116
-0.18407856 -0.07477763 -0.2969343 -0.5219444 -0.49819922 -0.2048256 0.17858563 0.13330911
0.110355556 -0.21433747 -0.32677966 -0.30002058 -0.26383537 0.22584723 -0.0042734384 -0.43912864
0.015772276 0.06133122 -0.1293065 0.45973805 -0.11822874 0.09239936 0.08532434 -0.51010036
-0.32691005 -0.3252315 -0.67624193 0.033138003 0.26011297 0.08963608 0.11522213 0.077121556
-0.43338603 0.23615219 -0.2360948 0.2571352 -0.30006936 -0.52263325 0.26185197 0.10092904
-0.16047718 -0.12050603 0.21987757 0.46049324 0.20507088 -0.36549243 0.37179688 0.3955942
-0.40391332 0.27443862 -0.24605455 -0.010171686
00000000: b798 a83e 1d19 adbe 9b15 973e 38b6 e9be
00000010: b7b8 c73e 9475 703d a5b9 b3be ffba 55be
00000020: b7ac b63e 2e22 fd3d fa9a cebe 25db c0be
00000030: ffe6 10bd 1207 6e3e c1be bcbe 6998 acbe
00000040: 1a68 38bd d4ca e7be 6a51 5c3e cbfa aabe
00000050: 941d bdbc ac04 82be 668c 5a3e 9fd2 86be
00000060: c1c1 103f 9afb 4e3e 3ad6 74be 5918 8dbe
00000070: 5bd2 a53e e033 d73c 36cf c1be 1bd6 14be
00000080: d5bb ad3d 80e7 bc3e 73b9 35be 020e aebe
00000090: 5e72 353d 001d 3cbe 1ed2 b73e 0618 803e
000000a0: 8230 8abc 7e4c 18be f2c7 063e 2116 b13e
000000b0: ef48 24be 8933 b43d 3423 cd3c d787 76bd
000000c0: 40c2 943e 543c dabe a2b7 d5be 9d5e 4a3b
000000d0: fdcc 8fbe 1425 6bbe 0e07 09bd 6d01 dbbe
000000e0: 58b0 2d3e 8cfe d7be d479 b53e 55b7 2b3e
000000f0: 911b d23e c581 6f3e 78ab e73e a3bc db3c
00000100: 6b83 6dbe d39d f53d 8b8b b7be 2338 8bbe
00000110: 12c2 e43e 3259 5bbe bbd7 7b3e 8c8e 443e
00000120: 376f aebe 3651 df3e 55da b53e 7acb 083e
00000130: d76e c33d 67ff 0c3e e2e4 b53e 192a 443e
00000140: 7c54 0b3f c392 ccbe 04f2 5bbe 822c 403e
00000150: 43bd 9dbe 8002 293e b0f4 b33c e938 79be
00000160: 177f 3cbe 0425 99bd c607 98be 269e 05bf
00000170: f813 ffbe cdbd 51be 27df 363e 2f82 083e
00000180: 1802 e23d 487b 5bbe aa4f a7be 4c9c 99be
00000190: 6e15 87be 7f44 673e 3308 8cbb 78d5 e0be
000001a0: dc34 813c 7236 7b3d ec68 04be c962 eb3e
000001b0: e921 f2bd e03b bd3d 87be ae3d f095 02bf
000001c0: c160 a7be be84 a6be 311e 2dbf b7bb 073d
000001d0: 872d 853e 1f93 b73d 95f9 eb3d e8f1 9d3d
000001e0: c6e4 ddbe e1d1 713e d6c2 71be 3aa7 833e
000001f0: b1a2 99be 4bcb 05bf 7611 863e e2b3 ce3d
00000200: 2154 24be decb f6bd 9627 613e c5c5 eb3e
00000210: 1afe 513e d321 bbbe 295c be3e 538b ca3e
00000220: bacd cebe 3883 8c3e b9f5 7bbe 25a7 26bc

classify.bias f4 [7]
-0.21121165 -0.0976191 0.11591158 -0.28569296 -0.0908153 -0.035499226 0.2514071
00000000: de47 58be 86ec c7bd 0d63 ed3d 5946 92be
00000010: 5ffd b9bd a367 11bd 6eb8 803e
