邓元璋/week02/model.bin (torch, 1612 bytes, 2 tensors)

linear.weight f4 [5, 5]
0	0x4167a621	14.478059
1	0xc0750c17	-3.828863
2	0xc07f5c95	-3.9900258
3	0xc077e27c	-3.8731985
4	0xc0751266	-3.829248
5	0xc07a797c	-3.9136648
6	0x41665212	14.395037
7	0xc0791ec5	-3.892503
8	0xc075bd28	-3.8396702
9	0xc07a81fc	-3.9141836
10	0xc0707392	-3.7570539
11	0xc07234e1	-3.7844775
12	0x4164e19b	14.305079
13	0xc07b34bf	-3.9250944
14	0xc07eb70b	-3.979922
15	0xc077f940	-3.874588
16	0xc07e5c3d	-3.9743798
17	0xc072b907	-3.7925432
18	0x4164af57	14.292808
19	0xc07a0e7d	-3.9071343
20	0xc0774d41	-3.8640902
21	0xc06dc430	-3.7150993
22	0xc068d160	-3.6377792
23	0xc07adc22	-3.9196858
24	0x41643ac1	14.264344

linear.bias f4 [5]
0	0xc01156fc	-2.270934
1	0xc00d1a15	-2.204717
2	0xc00c1e90	-2.1893654
3	0xc00a26e2	-2.1586232
4	0xc013aec3	-2.3075416
