李宗成/week02/model.pth (torch, 1612 bytes, 2 tensors)

linear.weight f4 [5, 5]
0	0x411f00fa	9.937738
1	0xc038af8c	-2.8857145
2	0xc02fbbcf	-2.745838
3	0xc050d8bb	-3.2632282
4	0xc0357350	-2.835163
5	0xc054a2ab	-3.3224285
6	0x41221a3d	10.131406
7	0xc03d940d	-2.9621613
8	0xc043c332	-3.0587888
9	0xc03e1b70	-2.9704247
10	0xc040151e	-3.001289
11	0xc04cc556	-3.1995444
12	0x4127430f	10.453872
13	0xc0357019	-2.834967
14	0xc0323637	-2.784559
15	0xc04614b2	-3.0950131
16	0xc05463ff	-3.3186033
17	0xc043d411	-3.0598185
18	0x4121989f	10.099761
19	0xc04cc6b6	-3.1996284
20	0xc02df084	-2.717805
21	0xc04e0a1a	-3.2193666
22	0xc0370e3f	-2.8602445
23	0xc023547a	-2.552031
24	0x41216eba	10.089533

linear.bias f4 [5]
0	0xbf80c9df	-1.0061606
1	0xbf3a9c3b	-0.7289464
2	0xbfa7e06d	-1.3115364
3	0xbf2b7578	-0.6697612
4	0xbf9346fe	-1.150604
