杨忠洋/week03/model.pth (torch, 27657 bytes, 7 tensors)

embedding.weight f4 [31, 45]
000000 00 00 00 00 00 00 00 00 00 00 00 00 00 00 00 00
       0.0 0.0 0.0 0.0
000010 00 00 00 00 00 00 00 00 00 00 00 00 00 00 00 00
       0.0 0.0 0.0 0.0
000020 00 00 00 00 00 00 00 00 00 00 00 00 00 00 00 00
       0.0 0.0 0.0 0.0
000030 00 00 00 00 00 00 00 00 00 00 00 00 00 00 00 00
       0.0 0.0 0.0 0.0
000040 00 00 00 00 00 00 00 00 00 00 00 00 00 00 00 00
       0.0 0.0 0.0 0.0
000050 00 00 00 00 00 00 00 00 00 00 00 00 00 00 00 00
       0.0 0.0 0.0 0.0
000060 00 00 00 00 00 00 00 00 00 00 00 00 00 00 00 00
       0.0 0.0 0.0 0.0
000070 00 00 00 00 00 00 00 00 00 00 00 00 00 00 00 00
       0.0 0.0 0.0 0.0
000080 00 00 00 00 00 00 00 00 00 00 00 00 00 00 00 00
       0.0 0.0 0.0 0.0
000090 00 00 00 00 00 00 00 00 00 00 00 00 00 00 00 00
       0.0 0.0 0.0 0.0
0000a0 00 00 00 00 00 00 00 00 00 00 00 00 00 00 00 00
       0.0 0.0 0.0 0.0
0000b0 00 00 00 00 a8 49 03 3f 16 6d 4d 3e d1 f4 50 3f
       0.0 0.51284266 0.20061144 0.8162356
0000c0 23 e2 bd 3e 9b 4d f3 3e 1a 87 92 bf 15 9d 3e bf
       0.3708659 0.47520146 -1.144748 -0.7445844
0000d0 45 72 b0 be 59 68 b4 bf de c5 b1 be 32 59 a5 3f
       -0.3446218 -1.4094344 -0.34721273 1.2917845
0000e0 fe bc 33 bf 1a b1 65 bf 31 27 4d 3f 62 9e 27 3f
       -0.70210254 -0.8972336 0.80137926 0.6547605
0000f0 74 1f 11 3f 05 fc d2 3e b2 b6 74 3f 37 8f ba 3d
       0.5668862 0.412079 0.9559127 0.09109347
000100 88 25 7f be 6c 24 92 3e f5 7d 8e bf c5 cb 18 3f
       -0.24916661 0.28543413 -1.1132189 0.5968593
000110 6d 1b c8 3f 77 b3 26 be 9b 22 33 bf f6 d9 2b be
       1.563337 -0.16279398 -0.6997468 -0.16782364
000120 65 e1 a3 3f ce 87 cc 3d cb 73 ec 3e ac ba 33 bf
       1.280316 0.0998684 0.46182093 -0.70206714
000130 c1 dd 07 3e a5 55 c8 3f d2 21 98 3e f2 fe 4a bf
       0.13268186 1.5651137 0.29713303 -0.79295266
000140 c8 f5 97 3f 8c 97 21 be c6 7d 4d be b3 1e c3 bc
       1.1871881 -0.15780467 -0.2006751 -0.02381835
000150 6f d2 0b bf 9c 92 17 3f 28 03 3b 3c e1 1f 1c 3f
       -0.5461797 0.59208083 0.011414327 0.60986143
000160 3f 7a ae bd 89 ff 4c 3e 3e fc 07 3d 5d c0 56 bf
       -0.0851941 0.20019354 0.03319954 -0.83887273
000170 6b 07 7c 3d 6e 17 1a 3e 8a c2 38 3f 35 46 a0 3e
       0.06153051 0.15048 0.72171843 0.31303564
000180 ce 6d 42 3e 45 3f 1a bf 74 fd b4 bf 9f 93 46 3e
       0.189872 -0.6025279 -1.4139848 0.1939225
000190 f6 f6 46 3e ae 70 60 be 6e 63 50 bc 4e 1e f0 be
       0.19430146 -0.21917984 -0.012719018 -0.4689812
0001a0 63 aa a4 be 57 a6 5e 3f 86 41 68 3f fa b0 21 bf
       -0.32161245 0.86972564 0.9072498 -0.6316067
0001b0 70 4f 54 bf a0 b4 f2 3d 19 a7 8f be 5e 92 86 bf
       -0.8293371 0.11850858 -0.28057173 -1.0513418
0001c0 83 c1 4f be 94 3e 1a 40 ab 22 82 3f 4e 21 e2 3e
       -0.20288663 2.4100695 1.016683 0.44166034
0001d0 f8 84 85 3e df 35 19 3f 4e aa a3 bf d8 70 ce be
       0.2607801 0.59847826 -1.2786348 -0.40320468
0001e0 2a b1 15 3f 89 c8 e4 be 06 a0 9f 3f b0 8b c4 3f
       0.58473456 -0.44684246 1.247071 1.5355129
0001f0 06 c1 1a be 41 bb f2 3f 79 1c 2e bf 20 d7 ad be
       -0.15112695 1.8963395 -0.68012196 -0.3395319
000200 21 b3 95 be 64 a7 2a bf b6 03 f7 3e 0b 5a 9b 3f
       -0.29238227 -0.6666167 0.4824502 1.2136854
000210 d4 35 3c 3f d6 db 26 3f f6 f4 ab be ce 62 9d bd
       0.73519635 0.65179193 -0.33585328 -0.07684861
000220 e9 89 74 be d5 d9 92 3e f0 4a 61 bf 33 17 48 bf
       -0.23880734 0.28681818 -0.8800497 -0.781604
000230 86 25 e0 3e 97 88 1d 3f b0 66 00 3e 6d 32 1c 3f
       0.43778628 0.61536545 0.12539172 0.61014444
000240 30 84 63 bf b7 c1 2d bf 80 1d 00 3f c1 d5 43 3d
       -0.8887358 -0.6787371 0.50045013 0.047811273
000250 e0 aa 3e bf 25 ac 1c bf 57 54 a6 be cd 92 ce 3f
       -0.74479485 -0.6120017 -0.3248622 1.613855
000260 a4 00 88 3f a9 87 3f be 4a 47 57 3f dc 5c c8 3f
       1.0625196 -0.18704094 0.84093153 1.5653338
000270 dd 78 f7 be e8 99 ad 3d 25 67 49 3f d1 d3 70 3f
       -0.483344 0.08476621 0.7867301 0.94073206
000280 5a 3d ae 3f db d2 be 3e c9 52 3e bf 6b cc 97 bd
       1.3612473 0.37270245 -0.7434507 -0.074120365
000290 0b 28 11 3f a0 ea af bf 8b c1 21 3f af c6 00 3f
       0.56701726 -1.3743477 0.6318595 0.5030317
0002a0 08 2f 80 be d5 f8 3e be b3 4c 98 bd c7 14 95 3e
       -0.25035882 -0.1864961 -0.07436504 0.29117414
0002b0 e0 c8 f2 3f ef 45 17 40 df 9e 52 3e 81 70 33 be
       1.8967552 2.3636434 0.20568417 -0.17523386
0002c0 c3 11 35 bc 82 df 31 bf 85 7f a6 3f 80 65 25 bf
       -0.011051598 -0.6948167 1.3007666 -0.64608
0002d0 23 bc 0f 3f e3 c9 07 bf e4 5e e3 3e e5 fb 89 3f
       0.5614645 -0.5304243 0.44408333 1.0779997
0002e0 5a 34 b3 3f a0 81 86 3f 10 11 78 be ed 18 01 40
       1.4000351 1.0508308 -0.24225259 2.0171463
0002f0 bb bb af 3f 0f d5 4e 3f fd cd 02 40 50 2c 58 3f
       1.3729166 0.8079385 2.0438225 0.84442616
000300 dc af 7e be 84 66 af 3f 47 d8 6c 3f fc a1 2f bf
       -0.24871773 1.370316 0.92517513 -0.68606544
000310 b5 6d fb 3e 47 43 ea bf fc 66 a3 3f 0b 49 d3 3e
       0.49107137 -1.8301781 1.2765803 0.41266665
000320 eb 9c 96 be b1 0f 18 3f b4 1b bc bf 80 45 dc bd
       -0.29416594 0.59398943 -1.4695954 -0.107554436
000330 24 4c d7 3e dd f4 87 3f c5 ab 4e 3f 77 42 b3 bd
       0.42050278 1.0621601 0.8073085 -0.087529115
000340 84 97 29 3e c0 14 c1 be c9 66 00 c0 f9 ef cc 3d
       0.16561705 -0.37711143 -2.0062735 0.10006709
000350 ce 77 d2 bf 6f 1e 85 3f bc b8 04 40 0f 61 17 40
       -1.6442811 1.0399913 2.0737753 2.365299
000360 22 bd f3 bd 54 b3 15 40 29 3f a8 3f c1 7e 31 bf
       -0.119013086 2.3390703 1.3144275 -0.69334036
000370 cf e1 8d 3e d0 31 8f bf 33 63 91 3e 9f 30 ad bf
       0.2771134 -1.1187077 0.28395995 -1.3530463
000380 c9 5b 14 bf 4f 2f e1 3e d3 9d ad bf df 95 f2 bc
       -0.57952553 0.43981406 -1.3563789 -0.02961248
000390 96 1a 26 bf da 66 e1 3f ec a0 a4 3f 00 2f f6 bf
       -0.64884317 1.7609513 1.286161 -1.9233093
0003a0 4d 4a 8e 3e f7 a4 8d 3f 2b 16 23 bf f6 03 41 bf
       0.27791062 1.1065968 -0.637057 -0.7539667
0003b0 42 79 06 3f c8 ec 48 ba 34 30 24 3f 48 23 d1 be
       0.52528775 -0.00076646777 0.6413605 -0.4084723
0003c0 0c 12 3f bf 9a 64 be 3d d0 b0 8f 3f 1f d9 83 bf
       -0.7463691 0.09296532 1.1225834 -1.0300635
0003d0 aa 6e 8d bf de b8 94 bf 0c e6 14 bf 37 cf ad 3f
       -1.1049397 -1.1618917 -0.58163524 1.3578862
0003e0 6a 14 32 bf 66 92 a3 3e 6b ab e6 3e 88 a0 25 be
       -0.695624 0.3194763 0.45052657 -0.16174519
0003f0 b8 24 8c bf eb 2f b7 be e6 fa 95 bd 63 7e 53 3f
       -1.0948706 -0.35778746 -0.07323246 0.82614726

rnn.weight_ih_l0 f4 [45, 45]
000000 bc 00 74 3e a5 3d e3 bd be 9d 19 be 94 52 de 3d
       0.23828405 -0.11095742 -0.1500158 0.10855594
000010 ed 2b d5 bd 23 bb c0 bc 50 27 43 3e a3 21 06 3e
       -0.10408769 -0.023526734 0.19057965 0.13098769
000020 84 0a 80 3e 54 57 4d 3e d3 f6 0f 3e 26 79 b2 3c
       0.25008023 0.20052844 0.14059 0.021786284
000030 a3 f0 8c 3d e1 1a e7 3d 87 b6 34 3e 33 b8 db 3d
       0.06881835 0.112844236 0.17647754 0.107284926
000040 c6 37 6a 3c 79 23 08 be aa ca 16 3e 7c f2 17 3e
       0.014295524 -0.13294782 0.14725748 0.14838594
000050 c1 15 d2 bd a1 ed cd 3d bd d3 9b be 52 b5 8b be
       -0.102580555 0.1005509 -0.3043498 -0.27286774
000060 8c d6 e4 bd c9 7a 6c 3e e0 0e a9 3e 63 ba 2e be
       -0.11173734 0.23093714 0.3301916 -0.17063288
000070 21 85 93 3e bd dc 0d bd c4 f7 0e bd 26 6a 19 be
       0.28812507 -0.03463434 -0.034904256 -0.14981899
000080 59 de 80 be 23 cc 5a 3d 10 17 2f 3e c5 5a de 3e
       -0.25169638 0.053417336 0.17098641 0.43428627
000090 2b 47 02 3e 86 49 26 bc d4 ed 09 3e 60 f0 df bd
       0.12722461 -0.010149365 0.1346963 -0.1093452
0000a0 f5 db 8d bc 04 db 67 bd 0b 6c 1a 3e e9 76 c1 be
       -0.017316798 -0.056605354 0.15080278 -0.37786034
0000b0 61 f7 bb bd 58 c2 78 bd 06 a1 db bd 26 d8 ef 3c
       -0.09178043 -0.060732216 -0.10724072 0.029277872
0000c0 9c 49 d7 bc aa ee f5 3c 05 79 33 3d bb ae ca bd
       -0.026280217 0.03002103 0.043816585 -0.098966084
0000d0 0f f4 78 3d 4b 3a 05 3a 7c 8d 8a 3c 5a 19 47 3e
       0.060779627 0.00050822337 0.016913168 0.19443265
0000e0 60 db 44 3e 23 ea be bd f6 12 68 3e 27 f4 ac bd
       0.1922431 -0.09322002 0.22663483 -0.08445006
0000f0 12 ce 1f be 3f 38 df bb 97 16 18 bb 91 e5 05 be
       -0.15605953 -0.006812125 -0.0023206824 -0.13075854
000100 ff dc b8 bd c4 b4 ca 3d 12 b8 f5 3b c3 d9 27 be
       -0.09026527 0.098977596 0.0074987495 -0.16391663
000110 16 22 66 3e b8 ea 51 3d 3a 7f fe 3d 54 81 9f bd
       0.2247394 0.051249236 0.1242661 -0.07788339
000120 21 24 15 be b8 f9 ca bd 81 71 bc 3c 79 9b fe bc
       -0.14564563 -0.09910911 0.023003342 -0.031079995
000130 fe c8 16 3e f1 e7 0b 3e 43 cb 9d 3d 62 05 11 3d
       0.1472511 0.13662697 0.07704785 0.035405524
000140 ea 92 db bd 83 fa 39 bc 84 0a 61 bd a9 56 68 bc
       -0.10721381 -0.011351231 -0.05494167 -0.014180818
000150 b8 a0 b7 bd 0f 47 44 3d 69 fe 6c 3c c1 da 41 bc
       -0.089662015 0.04791933 0.014464953 -0.01183194
000160 b6 d5 ab bc a0 58 44 3d 38 0c e0 bd 60 87 4a be
       -0.020975929 0.047936082 -0.109398305 -0.19778204
000170 8a e1 9f 3d 58 a1 f5 bd 13 6e 87 3e 10 aa 3a 3c
       0.0780669 -0.119936645 0.26451167 0.011393085
000180 9a 05 32 be 60 26 2d bd 2c 3a 01 3c 2d f7 a9 bd
       -0.1738495 -0.042272925 0.007887404 -0.08299098
000190 8d 97 47 3e 90 3d d2 bc 19 5a 58 3d 0a d8 8f 3d
       0.19491406 -0.02566412 0.0528203 0.07023628
0001a0 64 69 86 be a5 59 67 bd ca 4e 1f 3e 3e 5c 81 3c
       -0.26252282 -0.056481976 0.155574 0.015791055
0001b0 44 60 af bd 32 dd 06 bd 37 d2 1f 3e 77 a6 6c bc
       -0.08563283 -0.032925792 0.15607534 -0.014443985
0001c0 37 76 9c bd 91 db 82 3e 4e 5d e3 3d d5 b8 2e be
       -0.07639735 0.2555814 0.11101781 -0.17062695
0001d0 95 a1 1c be 61 5e ea 3c e9 c4 0b be 7a a3 26 3e
       -0.15296014 0.028609456 -0.13649334 0.16273299
0001e0 7e f4 dd bd 5e f2 6e 3e 66 d7 49 3d ef c5 f3 3d
       -0.10837649 0.23334643 0.049277686 0.11902987
0001f0 ac 72 a1 3d 6c 9e dd bd 4f f5 ca bd 98 91 11 3e
       0.078832 -0.10821232 -0.0991007 0.14215696
000200 4c e2 d5 3d d9 25 ff bd 1f 25 87 3d 63 bc 74 3d
       0.10443553 -0.12458391 0.06598877 0.059749972
000210 12 32 cc bd 90 64 9b 3d fe 0c ef 3d fb 84 f0 bd
       -0.09970488 0.0758754 0.116724 -0.11744114
000220 3f b1 51 bd f1 b5 91 3d 77 91 dc bc 6a 19 9c 3e
       -0.051194426 0.07114781 -0.026924832 0.3048814
000230 cb a6 86 3d 3d 2a 12 bd ce c8 0c 3e 3b e8 11 bd
       0.06574782 -0.035684813 0.13748476 -0.035621863
000240 7a 37 f5 bd 1f 84 40 3e 24 1d e0 3d 11 64 5e 3c
       -0.11973472 0.188004 0.10943058 0.013573662
000250 94 78 97 3c 52 81 b5 3b d4 1c 3a be f9 5a 03 3e
       0.018490113 0.005539098 -0.1817506 0.12827672
000260 22 2c d7 bd c2 23 f8 3c 1c f8 35 be ef ce b5 3d
       -0.105064645 0.030290488 -0.17770427 0.0887736
000270 a8 78 fc 3d 99 3c 91 bd 16 e4 30 3e 30 5a df 3d
       0.12327701 -0.07091636 0.17274508 0.10905874
000280 c7 8f ce bc b6 b2 2f bd bc 36 92 3d a2 62 22 be
       -0.025215043 -0.04289504 0.07139346 -0.15857938
000290 07 1c 2b 3e c5 71 15 be 08 be ec 3d b5 8f c6 3c
       0.1670991 -0.14594181 0.11559683 0.024238447
0002a0 77 3f ef 3d b7 f0 c8 3d ab f6 00 3d 89 1b 57 be
       0.11682027 0.09811538 0.03148524 -0.21006598
0002b0 b1 cc 84 3d eb c1 89 bc 0d 16 b0 3c 3a 45 47 3d
       0.06484354 -0.0168161 0.02149489 0.048650004
0002c0 fb c1 a0 bc c4 b6 22 be ae 5d 3d 3d 5f 0c 85 3d
       -0.019623747 -0.15890032 0.046231918 0.064965
0002d0 34 25 fc bd 5c 65 c5 bb ca b0 9d 3c 66 b4 4d bd
       -0.123117834 -0.006024046 0.019249339 -0.05022087
0002e0 a3 8b 36 3e f1 d9 17 be a4 3c 7f 3c d3 0e f3 bd
       0.17826705 -0.14829232 0.015578423 -0.11868062
0002f0 22 6f a3 bb 2f 77 57 be 19 b8 2d bc d6 66 ce 3c
       -0.0049876133 -0.21041559 -0.010602974 0.02519552
000300 f9 e5 b4 bb 83 15 87 bd a2 e0 0d bd a1 9f 01 bd
       -0.005520579 -0.065959 -0.034638055 -0.031646375
000310 e0 d9 64 bd d7 53 8f bc 9f 0c d3 bc 27 28 0f be
       -0.055871844 -0.017496033 -0.025762854 -0.1398016
000320 4d 93 65 bd 61 c6 ae bc 1f 4c 8d bb 72 af 0a 3e
       -0.05604868 -0.021334829 -0.004312053 0.1354349
000330 4a 6e 9a 3d cc 55 a2 3d b5 c0 df bd 94 95 f4 3c
       0.07540567 0.07926521 -0.10925428 0.02985648
000340 ab 34 c3 bd 76 f2 07 ba a4 a3 06 3d 1f b2 57 3d
       -0.0953153 -0.0005185971 0.032870904 0.052660104
000350 5c 14 a2 3d 7d af 27 be 9a a7 af ba 5c c2 b3 bd
       0.079140395 -0.16375537 -0.001340139 -0.087773055
000360 64 51 a4 3b 2b e9 67 3c ad 33 c3 bc d5 43 0e be
       0.0050145853 0.014154713 -0.023828352 -0.13893063
000370 9d 71 3a 38 96 13 8b bd 92 f7 b7 bd 90 e4 e1 3d
       4.4451666e-05 -0.06790845 -0.08982767 0.11029923
000380 99 0f aa bd 1d 3e c2 3d bd 00 49 be a0 66 9b 3d
       -0.08303756 0.094845034 -0.19629188 0.075879335
000390 39 ef ca 3c ef 20 65 3e 9f 3a 67 3d f8 8d 11 be
       0.024772273 0.22375844 0.05645239 -0.14214313
0003a0 a5 7d 92 3e 7c 80 3d 3e 94 99 70 3d 0e db da 3e
       0.28611484 0.18506044 0.058740214 0.4274525
0003b0 88 28 e6 3d b6 97 ea 3c 22 38 aa 3e a0 3a f0 3c
       0.112381995 0.028636795 0.3324595 0.02932483
0003c0 cc 8f 7b be 46 54 75 3e 10 ba 60 be 0d ad 00 3e
       -0.24566573 0.23957929 -0.21945977 0.12566014
0003d0 81 ac 3a 3b 91 06 da bc f0 74 b9 3d fc e8 90 be
       0.0028484168 -0.02661446 0.09055507 -0.28302753
0003e0 9b c4 42 3e c6 f2 d6 3d 0e c6 21 3e f3 fd ed 3c
       0.19020312 0.10495524 0.15798208 0.029051756
0003f0 bd b7 23 3d 14 ef 16 be f6 3e 62 bd b2 31 8f be
       0.03997015 -0.14739639 -0.055235825 -0.27967602

rnn.weight_hh_l0 f4 [45, 45]
000000 40 32 ce 3e 13 4b 15 3d 03 03 a5 bd 7c 49 11 3c
       0.40272713 0.03644855 -0.08057215 0.008867618
000010 9b 08 a1 bd 9a e7 0d 3f 2f 58 ad bc 4e 01 9c be
       -0.078629695 0.5543152 -0.021160213 -0.30469745
000020 31 6e 20 be 1a 3b 66 3d e6 e2 22 3e 7c d2 7b 3a
       -0.15667035 0.056208707 0.15906867 0.0009606255
000030 97 ee a5 bd 14 72 29 be ea da 8b b9 8d ea bf 3c
       -0.08102148 -0.16547424 -0.0002667525 0.023427272
000040 df 2f cd 3e ed 42 23 be 9a ad 2f 3e a5 4d 1b 3f
       0.40075585 -0.15943499 0.17156067 0.6066535
000050 c4 b8 88 be b1 29 58 bd 44 ee 9a bd 5e ae ff 3b
       -0.26703465 -0.052774135 -0.07564977 0.0078027686
000060 6a 1d 40 be 9f 86 4f be 93 19 0a bb 8b 92 f4 3d
       -0.1876122 -0.20266198 -0.0021072372 0.11942013
000070 54 60 e5 bd 04 17 f7 bd f3 4c 41 bc 4e cb 2d bd
       -0.11200014 -0.12064937 -0.011798131 -0.042430215
000080 1d ba ad 3d 4a 37 d9 3e ea 67 ca 3d 9f 36 1f bf
       0.08482764 0.42424995 0.09883101 -0.6219272
000090 3b 46 4a 3f 56 18 91 bd b8 b3 bb be fc 28 b9 be
       0.79013413 -0.0708472 -0.36660552 -0.3616408
0000a0 d7 a4 0e 3e 25 22 c1 3c b3 79 98 bd ab 96 83 3e
       0.13930069 0.023575852 -0.07445087 0.25700888
0000b0 a5 03 5a be 26 b5 66 be f7 2b a1 3f 64 06 6b bf
       -0.21290453 -0.2253004 1.2591542 -0.91806626
0000c0 ba 26 e5 be 00 1e b4 3c 5a 7d f7 3c 57 40 aa bf
       -0.4475611 0.021986961 0.03021114 -1.3300885
0000d0 7b 53 0a 3e 7f 69 ec bd 90 4f 87 3e 8c d6 69 ba
       0.13508408 -0.11543559 0.2642789 -0.00089202146
0000e0 dc b7 03 bf 95 d9 4d bf 16 5b e4 3d 3e 59 3f 3e
       -0.5145242 -0.8041013 0.11150186 0.18686387
0000f0 83 35 11 bc ff 2b 3a 3e dc 7c f5 3e ea 25 33 3e
       -0.008862856 0.18180846 0.47946823 0.17494932
000100 66 0e 2d be 4e 52 33 bd 01 31 93 3e 50 66 94 bd
       -0.16900024 -0.043779664 0.28748325 -0.07246077
000110 55 c1 12 3e 9d 0f 8f be a1 65 bf be 46 ca 40 be
       0.14331563 -0.279416 -0.37382224 -0.18827161
000120 0b a9 0f 3e 55 33 5e bd 3e 2f 1f be cd b2 6d 3e
       0.14029329 -0.054248173 -0.15545365 0.23212738
000130 45 a9 2d 3d 4d ba b6 3c 51 70 e9 3b 84 e1 8d 3e
       0.042397756 0.022305632 0.007123985 0.27711117
000140 b2 d8 d6 bd 4d cb 16 bd d3 4a 07 bf ce 80 51 be
       -0.1049055 -0.036814976 -0.5284855 -0.20459291
000150 27 50 e9 be 39 cc 39 3d 70 cd 5c 3e 35 81 19 3e
       -0.45568964 0.045360778 0.21562743 0.14990695
000160 5d bf a9 3d f7 00 9e 3e 0f fd 92 be 34 3c 34 3e
       0.08288453 0.3086011 -0.28708693 0.1760109
000170 75 ca 13 3f 4d 0d 14 be 27 a5 03 bd d4 da 16 be
       0.577308 -0.14458199 -0.032139923 -0.14731914
000180 33 88 59 bf 41 31 0f 3e 2e 14 57 3d dd 5e 15 3d
       -0.8497345 0.13983633 0.05250948 0.03646742
000190 05 59 4d bd 58 5b 4b 3e d9 8e a7 bd 8e f2 12 3e
       -0.050133724 0.19859064 -0.08181543 0.1435034
0001a0 e0 e3 91 3e dc 49 cd be ec 58 1b 3e 0f 35 40 be
       0.28494167 -0.40095413 0.1517064 -0.1877024
0001b0 e3 dd b3 3d ec 1f 86 be dd 4a be bc 74 da f4 3d
       0.08782556 -0.2619623 -0.023229057 0.11955729
0001c0 23 7e 2f be dd 43 67 3e 29 16 96 bd 39 97 39 be
       -0.17137961 0.22584482 -0.073284455 -0.18124093
0001d0 96 5b ba bd f2 f9 0b 3f 55 79 3a bc f0 07 59 be
       -0.090995 0.5467826 -0.011381467 -0.21194434
0001e0 60 97 a8 3e e3 41 e5 3e 5b 32 ff 3d 94 92 fc bd
       0.3292799 0.4477683 0.124607764 -0.12332645
0001f0 b8 04 62 3e 33 25 3e 3d e2 cf 13 bd 2a e2 2c c0
       0.22072113 0.046422195 -0.036086924 -2.701304
000200 1a 2f 33 be 66 79 6b bf 10 3e 76 3e 55 01 b9 3e
       -0.17498437 -0.91982114 0.24047112 0.3613383
000210 a2 dd 68 3e 8c 29 e6 3d ce 31 ad 3e 86 a6 01 bd
       0.22740796 0.11238393 0.3382706 -0.03165295
000220 d3 b6 74 be 4d 97 20 3f e0 44 91 3f d8 a5 a1 3d
       -0.23897867 0.62730867 1.1349144 0.0789296
000230 37 49 61 3c 15 6b 22 3f e5 f1 81 3e 2e 6c 8c bd
       0.013750366 0.63444644 0.25379863 -0.06856571
000240 a3 b8 5e 3e 34 64 b8 3e 0d 30 83 3e f4 3e 13 3f
       0.21750121 0.3601395 0.25622597 0.57517934
000250 0f fe 3b bf b8 11 84 3e bc 1d 3c 3c 12 42 c2 be
       -0.7343454 0.25794768 0.011481699 -0.37941033
000260 56 5e 57 3e 59 3a 72 3d 21 d0 ff 3d 2d 2a 9a 3d
       0.2103208 0.059137676 0.12490869 0.07527576
000270 14 41 30 bf 9e 4a 14 be 27 1a 1d bd 31 1b b8 3d
       -0.688493 -0.14481589 -0.03835502 0.08989561
000280 c8 f7 92 3e aa 1e 2c bd ce d3 0d be a3 ed ec 3d
       0.28704667 -0.04202143 -0.13850328 0.11568763
000290 24 5d ad bb 1c 65 13 3e e1 a2 9f 3e 13 85 26 3e
       -0.0052906442 0.14394039 0.31178954 0.16261701
0002a0 6d 9a 2f be a4 85 91 bf 63 ff 93 be a9 f8 3c be
       -0.17148753 -1.1368909 -0.28905782 -0.18454231
0002b0 02 48 8a 3e b7 4d 39 3f 28 be 67 3e 3e e2 03 be
       0.27008063 0.7238421 0.22631133 -0.12879273
0002c0 1e a4 3d 3e d6 a2 dc ba 54 6e 80 3d 71 aa a5 3d
       0.18519637 -0.0016833197 0.062710434 0.0808915
0002d0 67 be 8f 3d db 6d 89 be 2d ac 21 bd 56 26 06 3e
       0.07018738 -0.26841626 -0.03947084 0.13100561
0002e0 a5 57 a2 3f 4a b9 8a 3e f7 fd 23 bd e0 16 03 3e
       1.2682997 0.2709449 -0.04003712 0.12801695
0002f0 d1 2e 49 bf 27 14 0b 3e cd 2c e5 3d 1d 61 ab 3e
       -0.7858706 0.13581906 0.11190186 0.3347253
000300 c9 92 52 be 01 d8 09 bd 4a 67 ed bd 4b a2 f4 bc
       -0.20563807 -0.033653263 -0.115919665 -0.029862544
000310 6d d3 f8 3e 77 4c ad bc cd 7b 45 be 08 a5 11 3e
       0.48598805 -0.021154625 -0.19285508 0.1422311
000320 27 31 ad 3f 0f 6a a5 3d 13 91 f9 3b 86 22 8b 3d
       1.3530625 0.0807687 0.007616171 0.06793694
000330 67 a2 9f be eb 63 8e be 05 1d 57 be fd bc 32 3e
       -0.3117859 -0.27810606 -0.21007164 0.17454906
000340 35 d2 b9 be e2 ae 99 bc 57 0c b3 bd ec b5 00 3f
       -0.36293188 -0.018760148 -0.08742588 0.5027759
000350 a7 87 87 bd e0 8e c0 3d b2 7d 48 3e 98 ab 6c be
       -0.066176705 0.09402251 0.19579199 -0.23112333
000360 ca 24 4e 3c 6b 1a c5 3c 98 91 78 3d e6 0a fd 3d
       0.012582013 0.024060449 0.060685724 0.12355594
000370 73 49 fc bd fa 0f b8 3c 1e 02 10 be ff 30 c1 bd
       -0.12318697 0.022468556 -0.14063308 -0.094331734
000380 35 e1 c0 bd c7 a2 cf bc eb b5 61 3d a4 f4 26 3d
       -0.09417955 -0.025346173 0.05510513 0.04076065
000390 24 60 e1 3e 24 db 10 3e d9 24 a2 3e 6e fb 80 bd
       0.44018662 0.14146096 0.31668738 -0.062979564
0003a0 f7 70 b8 bd b3 46 9f bd 1c 2c 3a 3f c9 6a d2 bd
       -0.09005921 -0.07777157 0.72723556 -0.10274274
0003b0 10 22 c3 3d c2 08 0b 3c 11 78 8c be 3a 24 cd bc
       0.09527981 0.008485975 -0.27435353 -0.025041688
0003c0 ad c4 d2 3d 34 10 ab 3d 65 41 08 bc 06 b2 e3 3c
       0.10291419 0.083527 -0.0083163725 0.02779485
0003d0 f9 03 23 3f cc 1b 64 3d 59 06 8d be 66 da 6b 3e
       0.63677937 0.05569057 -0.27543905 0.23032531
0003e0 d4 73 8c bd ad 7b 87 be e0 fe 95 bc 80 32 1e be
       -0.0685803 -0.26461545 -0.01831001 -0.15448952
0003f0 de fd 2e bd f2 90 b7 bd 0a eb db 3d 49 13 a2 bd
       -0.042722575 -0.08963193 0.107381895 -0.079138346

rnn.bias_ih_l0 f4 [45]
000000 1b 4f a4 be 5e 6e 81 3e fe c9 dc 3e 7c b7 25 3e
       -0.32091603 0.25279516 0.43122858 0.16183275
000010 e5 61 83 3e d2 a8 89 3e 31 d8 6d be 99 76 c9 3e
       0.25660625 0.26886612 -0.23227002 0.39348295
000020 c1 94 9b be c9 fa a8 3e b5 88 b6 3d 12 3d 6a bc
       -0.30386928 0.33003834 0.089127935 -0.014296787
000030 c0 71 1f be b3 2f 00 3e da f8 06 3e c2 2e d4 bc
       -0.15570736 0.12518196 0.13180867 -0.025901202
000040 3f 07 52 bd ac 2e 9a 3e 41 bc 16 3d 9a 08 ae 3c
       -0.05127644 0.30113733 0.036800627 0.021244336
000050 5b f1 c9 3e 76 e1 58 be 18 27 04 be 54 c9 94 3e
       0.39441952 -0.21179757 -0.12905538 0.2905985
000060 ee 99 8b be 10 08 17 3e 1c 31 06 be 09 ab 35 3e
       -0.27265877 0.1474917 -0.13104671 0.17741026
000070 ee b9 6a 3e bf 86 ae 3d b2 92 36 3e bf e0 0e 3f
       0.22922489 0.085217945 0.17829397 0.55811685
000080 38 58 92 3d 7a 06 07 be 04 e2 03 be ea b3 c7 bd
       0.07145733 -0.13186064 -0.12879187 -0.09751113
000090 47 f4 6c be 10 65 81 be 83 21 96 3e 45 32 94 3e
       -0.2314006 -0.25272417 0.29322442 0.28944603
0000a0 12 b9 93 3b 63 61 7e 3e 7a 11 93 3d ac 0e 86 3c
       0.004508146 0.24841838 0.07181068 0.016364418
0000b0 ad d8 18 3e
       0.14926405

rnn.bias_hh_l0 f4 [45]
000000 67 53 2b be 16 33 8b 3e 44 b8 b4 3e 23 90 4a 3e
       -0.16731034 0.27187413 0.35296834 0.19781546
000010 fc bd 6f 3e ce a3 ed 3d 01 c3 90 be fa c6 aa 3e
       0.23412317 0.11603509 -0.28273776 0.33354932
000020 47 b1 a3 be 73 c0 04 3f bf 78 08 be 84 03 38 3d
       -0.3197119 0.51856154 -0.13327311 0.044925228
000030 dd 58 18 3d 44 77 bb bc 30 f8 4c 3e 92 44 55 3e
       0.03719412 -0.022884019 0.20016551 0.20826939
000040 6e 51 ed bb 9c 0b b9 3e db b4 3a 3e f1 f0 02 3e
       -0.007242373 0.3614167 0.18233053 0.12787224
000050 7f 8d 43 3e ab 99 ac bd 35 47 09 3d d5 08 94 3e
       0.19096945 -0.08427747 0.033515174 0.28912988
000060 dc 2f 64 bd 8c 36 a2 3d 5f c8 88 bd 3e 44 ae 3d
       -0.055709705 0.0792056 -0.06678843 0.0850911
000070 9a d4 50 3e c4 8c 87 3e e3 62 4a 3e b0 4f 25 3f
       0.20393601 0.26474583 0.19764285 0.6457472
000080 9f 61 81 3d c8 42 e0 bd d5 09 8b be 88 14 25 be
       0.06317448 -0.109502375 -0.2715594 -0.16121113
000090 c5 f9 64 be d2 4c 4c be 00 87 14 3e 4d 88 ec 3d
       -0.22360905 -0.1995118 0.14504623 0.11549435
0000a0 b4 32 62 be 6a 81 75 3e da 77 2d be 99 c6 03 be
       -0.22089654 0.23975149 -0.16940251 -0.12868728
0000b0 61 76 5a 3e
       0.2133422

classify.weight f4 [16, 45]
000000 81 80 2c 3f f9 e7 82 bf 9d 88 7f bf bb 9f 12 3f
       0.6738358 -1.0227042 -0.9981783 0.5727498
000010 59 be 1a c0 6b 9b b4 3e 35 75 67 3f e8 da 0c bf
       -2.417868 0.35274825 0.9041322 -0.55021524
000020 50 d2 ea 3f 11 c7 bf 3e d5 4e 3b bf e3 6f c7 bf
       1.8345432 0.37456563 -0.73167163 -1.558102
000030 10 90 7f 3f 41 30 ee be a4 8d 3c bf c1 7b 3b 3f
       0.99829197 -0.4652119 -0.73653626 0.7323571
000040 29 27 a3 bf 69 b2 63 3f d9 fb 36 bf 14 08 eb 3e
       -1.2746326 0.8894411 -0.7147804 0.459046
000050 0e 52 1b c0 ca 9b 20 bf b0 66 56 3f 60 2a 47 bf
       -2.4268832 -0.62737715 0.8375044 -0.77799034
000060 c3 9b c4 3f 92 5a 94 3f 73 17 5b 3f 72 5c 58 bf
       1.5360035 1.159014 0.85582656 -0.8451606
000070 d6 ba c3 3f 9a 78 34 3f 7f b0 39 bf 65 fe 7e 3e
       1.5291393 0.70496523 -0.72534937 0.24901731
000080 31 18 58 bf 35 ce 4a 3f 7f 34 71 bf 60 f5 ab be
       -0.84411913 0.79220897 -0.9422073 -0.33585644
000090 50 fc f2 3e e5 c4 61 3f a4 a9 4a 3f 4c 2a 7f 3f
       0.47458124 0.8819106 0.791651 0.99673915
0000a0 b3 59 01 bf 8f 80 54 bf d5 b9 42 bf 2b 16 43 bf
       -0.50527495 -0.83008665 -0.7606481 -0.762057
0000b0 05 75 60 bf 04 a4 f4 3e 47 16 31 bf 90 3b 4c bf
       -0.8767856 0.47781384 -0.6917462 -0.79778385
0000c0 19 e6 18 3f 79 91 bb 3f a7 95 85 3e c9 ac 37 3f
       0.597261 1.465377 0.26090738 0.71748024
0000d0 ce 0a f8 be 57 07 ea 3f 96 cc 9a 3e 93 4c 5f bf
       -0.48445743 1.828349 0.30234212 -0.8722622
0000e0 75 12 af bf db 52 5d 3f 9d ed 05 bf 82 6d 0d bf
       -1.3677508 0.8645455 -0.52315694 -0.5524522
0000f0 28 50 5a 3f 05 9c 7e bf 95 21 61 3f 0b 9e 20 bf
       0.8527856 -0.99456817 0.8794187 -0.62741154
000100 2a 95 e0 3e f7 8b 96 3f 33 4d 1c bf b8 7e 5c 3f
       0.43863803 1.1761464 -0.61055297 0.8613086
000110 49 85 02 bf 5f 21 f1 3f 31 28 b7 3f 1e fa 44 3f
       -0.50984627 1.8838309 1.430914 0.7694415
000120 87 ff 5f bf c7 51 0f 40 48 bd 49 3f 68 44 18 bf
       -0.8749928 2.2393663 0.78804445 -0.5947938
000130 ab 88 a0 3e a5 d3 6c bf 17 ab 2b 3f 5c aa a5 bf
       0.3135427 -0.92510444 0.6705794 -1.2942615
000140 cf 30 a9 be 73 63 f8 3e 14 43 39 3f 34 ac 75 3f
       -0.3304505 0.48513374 0.7236798 0.95965886
000150 07 15 65 3f 7a 18 bf be 8e e8 13 bf e2 f5 27 bf
       0.8948521 -0.37323362 -0.57776725 -0.6560956
000160 2c f5 39 bf e5 47 56 bf aa 5d 4f 3f 09 36 94 bf
       -0.7263973 -0.8370345 0.81002295 -1.157899
000170 2a bc 30 bf bf f3 8d 3f d0 eb 21 3f df ea 5f 3e
       -0.69037116 1.109001 0.63250446 0.2186694
000180 01 94 8f 3f bf ee 39 bf 4e 7f e2 bf 77 d4 14 3f
       1.1217042 -0.7262992 -1.76951 0.58136696
000190 e8 1a 24 bf b1 4e a8 3b da 46 8b 3f 8d de 27 bf
       -0.64103556 0.005136334 1.0880997 -0.6557396
0001a0 d3 23 46 bf ed 19 2b 3f 8c 9f 9d bf 76 99 59 3f
       -0.77398413 0.66836435 -1.2314315 0.8499979
0001b0 ff ce 09 bf 97 6e d6 3e f9 4c 02 3f bd 78 ba bf
       -0.53831476 0.41881248 0.508987 -1.4568096
0001c0 f4 db 5b 3f 18 b5 3c bf ff 33 d6 3f ae 79 d2 3f
       0.85882497 -0.7371383 1.6734618 1.6443384
0001d0 b6 71 6e 3f c8 9b 7f bf 26 3c df bf b5 3f 45 3f
       0.9314226 -0.9984708 -1.7440231 0.77050334
0001e0 b6 42 6c bf b8 b1 c7 3e 46 c9 1e bf 66 7b 86 3f
       -0.9228929 0.39002776 -0.6202587 1.0506408
0001f0 9a 64 c3 bf eb 4f 26 be 11 fc 9f 3e 4f b4 3d 3f
       -1.5265076 -0.16241424 0.31247 0.74103254
000200 00 ba b5 3f 9f 2d 53 3f ab 64 85 bf ef 22 4a bf
       1.4197388 0.8249149 -1.0421346 -0.78959554
000210 7b 9b 2f bf 4d f6 3a bf 71 14 6a bf 69 ea 2b 3f
       -0.6859662 -0.73032075 -0.9143744 0.67154557
000220 2f 66 9c bf 99 da 3b bf 17 44 92 3f 8c 47 18 3f
       -1.2218684 -0.7338043 1.1427029 0.5948417
000230 f7 c5 d2 3e c6 22 5b 3f 4c d3 61 be 7f ef 54 bf
       0.4116666 0.85599935 -0.2205326 -0.8317794
000240 00 40 3c 3f 95 eb 62 bf e5 e3 b3 3f ab 90 71 3f
       0.73535156 -0.8864072 1.4053923 0.9436137
000250 e4 22 7d bf 77 95 49 be d7 5e 20 3f 46 ec 27 bf
       -0.98881364 -0.19685923 0.62644714 -0.655949
000260 8d db 2e 3f cf 70 35 bf 02 ea 44 3f 20 3b 10 3f
       0.6830376 -0.7087526 0.7691957 0.5634022
000270 e9 28 07 c0 1c 5e 43 3f fa 73 69 bf f4 1f f8 bf
       -2.111872 0.76315475 -0.9119259 -1.9384751
000280 4b 5c f3 bf 1d 1d 43 3f d2 85 1e bf 08 64 68 bf
       -1.901254 0.762163 -0.61922944 -0.90777636
000290 67 a6 32 3f e1 28 5a bf c8 6c 5f 3f 19 51 15 bf
       0.6978516 -0.85218626 0.8727536 -0.5832687
0002a0 42 a5 fb 3e 96 58 37 3e 55 68 14 bf e4 54 14 3f
       0.4914952 0.17904887 -0.579717 0.5794203
0002b0 a3 8c 39 3f 5f 16 dc 3f 4e 7e 71 3f be f0 2a bf
       0.7248022 1.7194327 0.9433335 -0.66773593
0002c0 b5 e8 6c bf 24 2a 66 bf b1 6e 46 bf 1e d5 58 bf
       -0.9254258 -0.8990805 -0.7751265 -0.8470019
0002d0 bf 0e 48 3f ff fd b9 bf cd 76 de bf 2d f3 90 3f
       0.781475 -1.4530638 -1.7380005 1.1324211
0002e0 0e f8 b0 3e d7 b9 04 3f 1f 8d fb 3f a5 47 22 bf
       0.3456425 0.5184607 1.9652442 -0.6339057
0002f0 0a fc 1d bf e7 7f 9b 3f 2b 16 ba be d7 28 a7 3f
       -0.61712706 1.2148408 -0.36345038 1.3059338
000300 92 a2 d7 3f b6 fd 71 bf 0f 22 e8 be c0 97 44 3f
       1.6846488 -0.9452776 -0.45338485 0.7679405
000310 b7 f5 b8 3f 68 dd cc 3f 82 d7 38 bf 61 be 39 3f
       1.4449986 1.6005068 -0.7220384 0.7255612
000320 e7 e0 39 3e e4 a0 e8 3f ef 4e 25 3f 77 1a 38 bf
       0.181522 1.81741 0.6457357 -0.7191538
000330 88 59 71 bf d9 d7 72 bf d0 21 3b 3f 8a e0 76 bf
       -0.9427724 -0.9486061 0.7309847 -0.9643637
000340 bc 33 1a bf b4 a2 15 3f 73 9d 47 bf b0 00 c1 3f
       -0.6023519 0.5845139 -0.77974623 1.5078335
000350 b8 3c 49 bf 18 49 19 3f 2d 2a d6 3f 81 43 27 bf
       -0.78608274 0.5987716 1.6731621 -0.6533738
000360 90 f1 3e 3f 25 c7 bf 3f d5 12 cb bf 41 c1 f6 3f
       0.74587345 1.4982649 -1.5865122 1.9277726
000370 bf 66 41 bf bd 2e 43 bf 40 c5 40 bf 09 ce da be
       -0.75547403 -0.7624319 -0.7530098 -0.42735317
000380 79 36 34 bf a6 53 5e 3f ee 40 09 40 fb fe 33 c0
       -0.7039562 0.8684639 2.144588 -2.8124378
000390 db 73 03 c0 6d d1 d0 3e 86 11 7a 3f 48 1b 13 c0
       -2.0539463 0.4078478 0.9768299 -2.29854
0003a0 48 68 f7 be cd 29 f6 be 13 03 6b 3f 40 7a 83 bf
       -0.48321748 -0.48078766 0.91801566 -1.0271683
0003b0 69 1a ad 3c 4f 90 25 c0 49 8d 76 bf 82 9d 57 bf
       0.021130757 -2.586933 -0.96309334 -0.8422471
0003c0 85 6f bb 3f 36 4e 08 3f 59 c7 02 40 e7 68 6b bf
       1.4643408 0.5324434 2.0434172 -0.91956943
0003d0 d9 b2 62 3f 9a 87 86 3e 1d 75 99 3f fa e0 83 3f
       0.8855415 0.2627533 1.1988865 1.0303032
0003e0 50 8b 9b bf c4 af 0a bf e0 fb 1e bf 70 97 79 3f
       -1.215189 -0.5417445 -0.6210308 0.974967
0003f0 a1 30 f1 bf 2b 57 a1 be 5b 86 89 3f a8 27 81 bf
       -1.8842965 -0.31511816 1.0744127 -1.0090227

classify.bias f4 [16]
000000 95 23 e8 bd 26 54 e7 bd c3 b1 13 3d c9 e7 fd 3d
       -0.11334912 -0.11295347 0.0360582 0.12397725
000010 00 0a b2 3d a4 89 76 3e 03 36 06 be 0d c7 7a 3d
       0.086933136 0.24075943 -0.13106541 0.061224986
000020 bc 47 ae 3e ac 32 e3 3e 41 81 a8 3e 34 f0 92 3e
       0.34039104 0.44374597 0.32911113 0.28698885
000030 02 79 2d 3e cc 2a 7c 3c 31 b1 a6 be 43 4a 35 bf
       0.16940692 0.015391063 -0.3255706 -0.7081644
