李康/week03/model.bin (torch, 73972 bytes, 6 tensors)

rnn.weight_ih_l0 f4 [128, 5]
000000 4d 7b 3b 3e f8 e3 1b be 81 77 ff bc 55 8f 38 3d
       0.18308754 -0.15223682 -0.031184914 0.045058567
000010 f3 66 33 be 9e f4 c4 3d 3a 05 9f 3d 9e 0f ba 3d
       -0.17519741 0.096169695 0.07764669 0.0908501
000020 4d 96 11 bd fd 52 a9 be f6 f3 4e 3d 16 10 9a 3e
       -0.03554373 -0.33071128 0.050525628 0.30090398
000030 52 15 0d be 1b ca 36 bd 51 22 9a bd d9 0d 3c 3e
       -0.13777664 -0.044626337 -0.075260766 0.18364657
000040 c9 7f 1d 3d ab e9 88 3d 3f cc 90 3b 6e c4 58 be
       0.038451944 0.06685194 0.0044188793 -0.21168682
000050 fc 2e 8c 3d 19 ac ff 3d 55 72 e7 bd be 2b 67 be
       0.06844899 0.12483997 -0.11301104 -0.2257528
000060 44 3e bb 3d 44 48 c5 bd f8 91 0e 3e e9 cd 12 be
       0.091427356 -0.09632924 0.1392287 -0.14336361
000070 4a 9a c3 3c 8d 2f 7f 3e 2c 78 24 3e 73 76 ac 3d
       0.023877282 0.24920483 0.16061467 0.0842103
000080 21 bc 93 be b3 ff 91 be e4 aa 29 3e d6 93 69 be
       -0.28854468 -0.28515396 0.16569096 -0.22810301
000090 4a e4 d3 bc cf 3e af bd 2b 1b ae bc 1d c9 8f 3e
       -0.025865693 -0.08556902 -0.02125319 0.28083125
0000a0 51 a0 08 be 77 b4 8b 3d f9 3f 85 3e 04 b6 ee 3b
       -0.13342406 0.0682153 0.2602537 0.0072848815
0000b0 a6 fb 60 be 84 53 37 be 7b 5f e1 bd e8 ee b9 3e
       -0.21970996 -0.17902952 -0.110045396 0.36315084
0000c0 b2 82 d5 bd b9 57 a5 3d 2d 40 d5 be 9a d8 a8 bd
       -0.10425319 0.080733724 -0.41650525 -0.082444385
0000d0 07 e0 16 3d 2d 79 61 3e b9 64 8b bc a8 2c 6b bc
       0.036834743 0.22018881 -0.017015802 -0.014353909
0000e0 50 1e 62 b9 7b 21 5d be a8 d6 75 3e b1 98 41 be
       -0.00021564332 -0.21594803 0.24007666 -0.18905903
0000f0 62 03 27 3d b8 55 f4 3d 82 b2 1b 3d 1e 9b 25 3e
       0.04077471 0.11930412 0.038012035 0.16172454
000100 d1 b0 89 be 9f b8 4b bd f5 96 54 3d b5 ab 62 3d
       -0.26892713 -0.049736615 0.051901776 0.055339534
000110 60 c9 25 bd e0 1b 0f bf 17 13 cf 3d d4 81 04 3e
       -0.04047525 -0.5590191 0.10111063 0.1294015
000120 38 88 1a 3e 89 fb 8d 3d 36 71 6a 3d 71 66 62 3f
       0.15091026 0.06932742 0.057236873 0.88437563
000130 72 c3 33 bd 74 5a a7 bd c7 a9 a4 bd 1d 40 b9 3c
       -0.043887563 -0.081715494 -0.08040195 0.02261358
000140 8a 87 00 be b8 03 c2 3d 96 4e 9d 3e da 7a 19 be
       -0.12551704 0.094733655 0.3072402 -0.1498827
000150 80 d2 07 bc 60 b4 c6 be 71 56 30 3e 51 79 53 3c
       -0.008289933 -0.3880949 0.17220475 0.012907342
000160 75 b0 d6 3d 13 22 02 3d 19 a2 04 be 29 97 b3 3e
       0.10482875 0.031770777 -0.1295246 0.35076264
000170 8c c8 c8 3d e5 43 19 3e 86 b2 63 be db 9c 5a 3f
       0.09803876 0.14967306 -0.2223607 0.8539559
000180 d4 ec 1f bd ca 4f b0 bd db e5 bb bd d5 61 d4 3c
       -0.039044216 -0.086089686 -0.09174701 0.025925556
000190 e7 a8 4a bd 64 2a 14 3f a6 70 de bc e8 f9 97 3a
       -0.049477484 0.5787718 -0.027153324 0.0011594864
0001a0 84 1e 84 bd d6 e5 bf bd 24 70 87 3e ba 15 e5 bd
       -0.06451133 -0.093700096 0.26452744 -0.11185785
0001b0 07 31 2c 3e de 79 2c be 44 1d 95 bd 15 f5 81 be
       0.16815577 -0.16843364 -0.072809726 -0.25382295
0001c0 25 6d 4b 3e 15 e1 66 3e bb 84 20 be 6f 2f 25 be
       0.19865854 0.225468 -0.15675633 -0.16131376
0001d0 25 62 41 bd 11 55 1c 3d 63 af 88 3e 04 1c 75 be
       -0.04721274 0.038167063 0.2669631 -0.23936468
0001e0 29 0d de bd ea a5 00 bd 38 9d d0 bd 35 60 d5 3d
       -0.10842354 -0.031408228 -0.10186237 0.10418741
0001f0 6a 7b 27 3e 10 07 3c be 3c 22 be bd 1d c2 37 3e
       0.16355672 -0.18362069 -0.092838734 0.17945142
000200 c6 5d 4d 3c 68 6a c3 3d 79 38 41 be 45 3c 38 be
       0.012534564 0.0954178 -0.18869199 -0.17991741
000210 26 22 58 3e e6 be 0c 3d 68 cd bc bc 28 25 e8 bc
       0.21106777 0.034361742 -0.023047164 -0.02833803
000220 1a b4 09 3b 6e 76 b9 3c 17 8e 0a 3e 07 9a 7e 3d
       0.002101189 0.02263948 0.13530765 0.06215861
000230 f3 71 f8 3e 5f 0d 53 bd ff 56 6d bc fc 4b 97 bb
       0.48524436 -0.051526424 -0.0144860735 -0.0046172123
000240 92 73 37 be f7 d8 70 bf e7 02 6c 3d 7e 7e 94 3d
       -0.1791518 -0.9408106 0.057619955 0.07250689
000250 2c 27 28 3d 84 42 a8 3c 65 ca 32 3f ee b4 62 bc
       0.041052982 0.02053953 0.6984008 -0.013837082
000260 16 50 cf 3c 6f b1 dc bd 10 d5 73 bc 39 5e 25 be
       0.025306743 -0.1077603 -0.014882341 -0.16149224
000270 be d5 4d bd fd d3 a9 bd 4b b7 df 3d b8 07 82 3e
       -0.05025267 -0.08292387 0.10923632 0.25396514
000280 68 df f4 bd 75 73 ba 3d 6c cd 52 3e a5 cc 07 be
       -0.11956674 0.09104053 0.20586175 -0.1326166
000290 02 04 de ba e9 b5 35 be a8 63 fb 3d 77 1b a1 3e
       -0.001693845 -0.17745174 0.12274867 0.31466267
0002a0 3f 76 2e be 9c 2a a9 3b 61 d4 60 bf e9 c9 10 3d
       -0.17037295 0.00516255 -0.87824064 0.035348807
0002b0 8f 62 ab 3d dd 6a af 3d 74 d7 b2 bc 2f 09 17 3d
       0.08368408 0.085653044 -0.021831252 0.036873993
0002c0 03 5b b7 bd da ea 40 bd 99 22 6a bd 76 be c2 3d
       -0.08952906 -0.047098972 -0.0571619 0.09508984
0002d0 42 9f 32 bc 33 43 1a 3f 3c 22 3f 3c 87 7c 25 3d
       -0.010902228 0.6025879 0.011665877 0.04040196
0002e0 e9 02 1f be bd 76 80 3d c7 de 23 3e b7 95 17 3e
       -0.15528454 0.062726475 0.16002952 0.14803205
0002f0 c9 25 12 bf 97 49 51 bd 31 99 48 3e 41 67 13 be
       -0.57088906 -0.05109557 0.19589688 -0.14394857
000300 d3 3e d1 3d ce 98 d1 bd d0 fa 07 be d7 dd 8d 3d
       0.10217061 -0.10234223 -0.13279271 0.06927078
000310 89 1b 13 3c 2d 1f 2d be 29 ce 60 be c6 67 13 3e
       0.008978733 -0.16906424 -0.21953644 0.14395055
000320 a5 b9 12 3e f6 93 1f be 9d cd f7 3d 5f f2 69 be
       0.1432863 -0.15583786 0.120997645 -0.22846363
000330 03 f6 03 bd a8 d5 38 3e 3d cf 1d be 26 3d bd 3d
       -0.032217037 0.18050253 -0.15411086 0.09240179
000340 4c 9f 6d be 83 f9 c6 3d 41 b0 da 3c 0e e7 89 3e
       -0.23205298 0.09715559 0.026695373 0.26934093
000350 84 8e b7 bc 62 44 f4 bd 51 35 0d be 88 fc 15 3d
       -0.022406824 -0.119271055 -0.1378987 0.036617786
000360 a0 54 82 3d 56 53 10 3d e9 34 53 bf 98 56 81 3d
       0.06363797 0.035235725 -0.8250261 0.063153446
000370 34 04 72 bc a3 b5 30 be a0 30 25 3e 4a 71 d8 bc
       -0.01477151 -0.17256789 0.1613183 -0.026421208
000380 a9 f7 f8 3d 90 7a 2f 3e 3d 2a f5 3b 8c 60 e7 3d
       0.121566124 0.17136598 0.007481842 0.11297712
000390 1f 75 05 bf 7b d8 cb bd 05 0c a5 bc f5 79 d2 3c
       -0.5213184 -0.099534 -0.020147333 0.02569292
0003a0 c5 49 cb bd 2a 97 2b bc 5f 62 ee be 83 b8 cd bd
       -0.0992618 -0.010473052 -0.46559426 -0.100449584
0003b0 30 e8 b6 bd e6 4b 80 3c fb 69 83 3e 45 15 29 be
       -0.08931005 0.015661191 0.25666794 -0.1651202
0003c0 bf ba 15 be 6f 4a 34 bd 9d 3b 5b bd 33 50 ac 3d
       -0.14622019 -0.044016298 -0.05352365 0.08413734
0003d0 da 40 1b 3e a1 ec f7 bd 4a 26 17 bc ff 4a 7e bc
       0.15161458 -0.1210568 -0.009225437 -0.01552081
0003e0 e0 ca 1a 3e 5b 0a fb bd f3 15 05 3c e1 08 22 be
       0.15116453 -0.122578345 0.008122909 -0.158237
0003f0 dc 1a 50 3e ea c3 35 be aa 5c 60 3d 9a 45 c7 bd
       0.20322746 -0.17750517 0.05477587 -0.09730072

rnn.weight_hh_l0 f4 [128, 128]
000000 a6 50 37 be cb b8 15 3d 80 f0 38 bd 6e 21 a2 be
       -0.17901859 0.036553185 -0.045151234 -0.3166613
000010 22 7e 82 3c 94 f2 4a 3e e2 04 78 bd b1 1b 58 3e
       0.015929285 0.19819099 -0.06055153 0.21104313
000020 e4 47 37 3d 5c 05 0c bd ba ed 93 3d 9a 64 64 be
       0.044746295 -0.0341848 0.07223077 -0.22304001
000030 28 17 0b bd a2 ad 50 bd cd 84 ff bc 58 0d 00 be
       -0.03395763 -0.05094684 -0.031191254 -0.1250509
000040 85 0a 56 3d 05 ce 3c 3e c9 08 b5 bd a8 07 7f be
       0.052256126 0.18437965 -0.08839566 -0.24905264
000050 d7 5f 1d be 62 fb 04 3e 3e 11 1d be 1d e8 4c be
       -0.15368591 0.1298652 -0.15338609 -0.20010419
000060 85 a1 e8 3d c5 c5 7b 3d 9d 0f c8 3d 15 70 84 3e
       0.113589324 0.061467905 0.09768603 0.25866762
000070 07 f4 73 be dd 76 62 3e 78 c8 78 3b 6b 87 ba 3d
       -0.23823558 0.22115655 0.0037961286 0.0910786
000080 b9 45 69 3d 38 01 0b bd 68 33 0c 3e f3 e3 d5 3d
       0.05695126 -0.03393671 0.13691485 0.104438685
000090 28 d0 f5 bd 63 bb 7b 3e 56 dd 80 be 29 f3 4f bd
       -0.12002593 0.24583201 -0.25168866 -0.050769005
0000a0 ed 33 53 bd 4d f7 33 be 9e c4 fb bd f9 d9 67 3d
       -0.051563192 -0.17574807 -0.12293361 0.05660436
0000b0 c5 66 bb bd 4a 4e 4a 3d 61 1d fc bc 15 0b 38 be
       -0.09150461 0.04939107 -0.030775728 -0.17972977
0000c0 aa a0 f0 3d 5c c5 c1 3e e1 c0 08 3e 65 dc 08 bd
       0.11749394 0.37845886 0.13354827 -0.03341331
0000d0 5c e5 f9 bd cc 13 ac bd 6e 55 3d 3e 2d 3e aa 3d
       -0.1220195 -0.084022135 0.1848962 0.0831264
0000e0 53 68 a0 bd 0e c1 b8 3d 0f 48 92 be d8 74 a8 3d
       -0.07832398 0.09021197 -0.285706 0.08225411
0000f0 90 6f 09 bd 19 87 d1 3d 39 54 51 be 94 35 82 bc
       -0.03355366 0.10230846 -0.20442285 -0.015894689
000100 a7 04 26 be 21 39 59 bd 99 e2 18 be ab 0d 9d bd
       -0.16212712 -0.053032998 -0.1493019 -0.076686226
000110 04 9d 42 bd b9 97 0d be 88 31 ab 3d 88 7f ac bd
       -0.047513023 -0.13827409 0.08359057 -0.08422762
000120 14 48 3b 3d 9f f4 7f 3b 8d 80 8b ba bc b5 94 bc
       0.045723036 0.0039055718 -0.001064317 -0.018153064
000130 20 58 8d b9 93 d4 0a 3e 1c ca bd bd ce 6f d4 3c
       -0.00026959274 0.13557653 -0.09267065 0.025932219
000140 48 bc cb 3b e4 50 19 bc 3c 06 aa 3b cd 94 a7 3d
       0.0062175132 -0.009357665 0.0051887315 0.08182678
000150 00 b3 26 be 5d 0e 18 bd dd 71 88 3b f1 10 9f bc
       -0.1627922 -0.037123073 0.004163964 -0.019417258
000160 00 81 30 3e 71 43 2e 3d 1a ac e9 3d be bd b1 bd
       0.1723671 0.042544786 0.11409779 -0.086787686
000170 1d aa 21 be f1 0e 3e 3b c2 38 f5 bd b1 c2 26 3e
       -0.1578755 0.0029000605 -0.11973716 0.16285206
000180 8c 57 1a be 1a cb 95 bd c2 a7 91 bc f7 a5 c0 3c
       -0.15072459 -0.07314129 -0.017780188 0.023516638
000190 2a 7f ce 3b 1f 97 06 bd 60 61 b5 bd 27 50 46 3b
       0.00630178 -0.032858964 -0.088564634 0.0030260177
0001a0 fd 65 0d bd fa 9f 09 bb 51 4c cb bc 20 f5 26 3d
       -0.03452109 -0.0020999894 -0.024816664 0.040761113
0001b0 ab a8 37 be 19 4d a6 3d 0a db d4 bd c5 0e 21 3d
       -0.17935435 0.08120174 -0.10393341 0.039320726
0001c0 2a 8c f4 3c f2 8f c5 bd 7e 3a 09 3e 2e fa 1a be
       0.029851992 -0.09646596 0.13401219 -0.15134498
0001d0 33 39 ab 3c 96 d2 73 3a d9 c8 f0 3d 53 c9 03 be
       0.020901298 0.0009301094 0.11757059 -0.12869768
0001e0 32 39 c3 bd 1a 59 0d 3d 3a a8 a1 3d c3 81 c0 3c
       -0.095323935 0.034508802 0.07893415 0.023499375
0001f0 0e e9 69 3e d3 fb 1c 3e d1 ee af bc cd 3f 09 3e
       0.2284281 0.15330438 -0.021476181 0.13403244
000200 db 08 74 bd 84 b0 37 be bb 59 c6 bc 48 91 08 be
       -0.059578758 -0.17938429 -0.024212709 -0.1333667
000210 1c f9 4a 3e 58 40 c7 3d b5 cb 1c 3e 02 04 70 3e
       0.1982159 0.097290695 0.15312083 0.23439029
000220 be 05 62 3e b1 a0 a2 bd c6 95 04 3e 6c b3 e0 bc
       0.22072503 -0.07940806 0.12947759 -0.027429305
000230 af 72 06 be b2 a4 ed 3d 46 95 ad 3d 4e 04 1c be
       -0.13129686 0.11603679 0.08475737 -0.15236017
000240 de f6 8d 3e c9 04 cd 3d 25 26 e0 bd 44 82 22 be
       0.27727407 0.10010678 -0.109447755 -0.15870005
000250 44 fc c2 bd 60 cb 8a be 66 cf 97 bd e4 e7 95 bc
       -0.09520772 -0.27108288 -0.07412605 -0.01829905
000260 0a 3e c6 3d ba 5b 26 3e 8e 90 4d 3e 10 7e 27 3d
       0.09679802 0.16245928 0.20074674 0.040891707
000270 e4 e4 7f bd 61 46 31 3d 5e b4 9c bd e2 9b 3a 3e
       -0.062474146 0.04328001 -0.0765159 0.18223527
000280 31 2f 1c 3d 1d 79 db 3d a4 83 15 bb 15 84 7b be
       0.038130943 0.1071646 -0.002281406 -0.24562104
000290 01 a6 c4 bc bd 7c b1 3d 81 56 51 be b4 49 eb 3d
       -0.024004938 0.0866637 -0.20443155 0.11488667
0002a0 53 cd 33 be 8d 29 42 be 22 49 9f bd 2e c3 26 3e
       -0.17558794 -0.18961163 -0.07777621 0.16285393
0002b0 94 c9 9e bd a9 b5 39 3e a5 71 22 bc 7d 64 0d bd
       -0.07753292 0.18135704 -0.00991479 -0.03451966
0002c0 c3 d8 de 3d 74 a1 c7 bb b4 5f 0c 3e 16 09 09 3d
       0.10881188 -0.0060922448 0.13708383 0.03345593
0002d0 0c c7 ff 3d ff d8 a2 be 24 13 0c 3e ca 56 2f bd
       0.12489137 -0.3180618 0.13679177 -0.042807378
0002e0 5e 95 68 bb e9 a2 87 3d 6d c4 a5 be a8 68 a4 3e
       -0.003548942 0.066228695 -0.32376423 0.32111096
0002f0 cc 15 1f 3d b1 10 f8 3d 71 e5 48 3d 86 6e d3 bc
       0.038839146 0.12112559 0.049046937 -0.025809538
000300 bd 31 b3 bd 9d 35 40 3e ad 13 84 3c 29 71 87 be
       -0.08749721 0.18770452 0.016122663 -0.26453522
000310 4f aa 9c bd 02 73 f4 bd 14 81 2b 3e 18 eb 9d bd
       -0.07649671 -0.119359985 0.16748458 -0.07710856
000320 61 96 7b 3d b4 9b 11 3c 33 06 02 be a5 af 14 3c
       0.06142271 0.00888722 -0.12697677 0.00907508
000330 55 95 84 be 1c 10 6b bc 8b 78 e9 bd 8b a3 b9 3c
       -0.2589518 -0.0143471025 -0.11399945 0.022660991
000340 cf f2 f4 bc 3c e3 14 be 69 10 dc 3d 09 bd 10 bd
       -0.029900936 -0.14539808 0.107453175 -0.035336528
000350 e1 a8 1b bd 82 52 ae be d4 7e 05 bd a0 19 1f 3e
       -0.038002852 -0.34047323 -0.032591656 0.15537119
000360 65 3d ef bd 41 7a 6d bd 8c ae 4e 3e ac 03 9e be
       -0.11681632 -0.05797792 0.20183772 -0.30862176
000370 12 22 dd 3c b9 0a 9f 3e 66 62 42 be 43 34 d1 3d
       0.026993785 0.31062868 -0.18982849 0.10215046
000380 1e f1 12 be 27 72 3b be 8f 0d 61 be 70 e1 ee 3d
       -0.14349791 -0.18305264 -0.21977828 0.116640925
000390 7b 58 92 bd 10 55 26 3e 35 7b 19 bd 06 aa a3 3d
       -0.071457826 0.16243386 -0.037471015 0.07991414
0003a0 70 d1 9c bd 8a c6 8c be 5a b9 9d bd b3 9e 7a be
       -0.076571345 -0.27495223 -0.07701369 -0.24474601
0003b0 f7 0a 71 3e 73 e3 97 3d 63 bd 0a bd f7 40 32 3e
       0.23539339 0.07416429 -0.03387202 0.17407595
0003c0 6f 99 5d 3d 3c 12 94 3e 79 dc 92 3d 03 6e 70 be
       0.054101404 0.28920162 0.07170958 -0.23479466
0003d0 14 de 0e 3d a8 13 43 bd 6b ba f8 bd 97 ae 86 3d
       0.03487976 -0.047626168 -0.121449314 0.06576269
0003e0 a3 30 a0 bd 8d 71 a4 3e 6e b0 9f 3d 68 3f 0a bb
       -0.07821777 0.32117882 0.07797323 -0.0021094922
0003f0 2f e2 03 be 65 68 f2 bd 4d ac eb bb bb 30 10 bb
       -0.12879251 -0.11836318 -0.0071921707 -0.0022001702

rnn.bias_ih_l0 f4 [128]
000000 31 0b 3e 3d d2 52 68 bd cd 3d b4 bc 44 a8 0c bd
       0.04639739 -0.05671961 -0.022002125 -0.034340158
000010 d1 e1 b5 be 0b db 45 bd 2b 33 ab bd 83 9d d0 bd
       -0.35523847 -0.0483046 -0.08359369 -0.10186293
000020 be 2d 85 3e f9 20 b3 bd 6a d2 99 3e 11 fa cc 3d
       0.2601146 -0.087465234 0.30043346 0.10008634
000030 01 51 e2 bd 5e de 8a 3d c7 49 ed 3d 8f bb 7c be
       -0.110506065 0.067806944 0.115863375 -0.24680923
000040 ce 96 08 3e ce 23 52 3e b5 06 39 3e a1 c1 8a be
       0.13338777 0.20521471 0.18068965 -0.27100852
000050 77 a4 08 be 5d d5 60 3e 2d 4e 7a 3e b8 b3 16 3e
       -0.13343988 0.21956392 0.24443884 0.14716995
000060 51 40 8b be cb 55 cc 3d ea 15 89 3e 4c 63 67 be
       -0.27197507 0.09977301 0.26774532 -0.22596473
000070 e3 95 c9 bc 34 2d 39 3e 98 f1 4b be ea 90 a1 3d
       -0.024607604 0.1808365 -0.1991638 0.07888968
000080 47 ed 48 bc 4d b7 62 3c 70 4e 83 3e 97 46 b6 3c
       -0.012263603 0.013837648 0.2564578 0.022250457
000090 6b 0a 86 bd 05 05 31 bd f9 93 1f be 86 f1 51 be
       -0.06544956 -0.043217678 -0.15583791 -0.2050229
0000a0 ea 0f 1f be c9 e7 6c be f0 2c b4 3a e3 70 a9 bd
       -0.15533414 -0.23135294 0.0013746303 -0.082734846
0000b0 7a 9c a4 3b b8 6e 32 be ed 01 a1 3d fa 13 ae 3c
       0.0050235363 -0.17425048 0.078616954 0.02124976
0000c0 c4 74 d8 3d c2 98 61 3e 84 70 4f 3b ee 01 90 be
       0.10569146 0.22030929 0.0031652758 -0.28126472
0000d0 ca f0 c5 3d 6a 96 15 be 0b 3c c5 be 5e 16 3b be
       0.096650675 -0.1460816 -0.38522372 -0.18270251
0000e0 9a b8 4d be fd 17 01 be e6 07 a4 bc 17 b2 2d 3e
       -0.20089951 -0.12606807 -0.020023298 0.16962467
0000f0 99 38 58 3e a8 d5 90 be 4c 35 44 bb 39 0f fc 3d
       0.2111534 -0.28288007 -0.0029938994 0.12307591
000100 dc da 00 be 5d 26 49 3e 14 cc 76 bb 3f 97 91 3d
       -0.12583488 0.1964354 -0.003765826 0.07108926
000110 8a e5 ed 3d 0d 42 34 3d 85 6f 90 3d f4 c7 e5 3b
       0.11616047 0.044008303 0.07052521 0.0070123617
000120 bf 49 a9 3e 43 38 80 3d 6b 42 db 3d 20 14 67 be
       0.33064076 0.06260731 0.107060276 -0.22566271
000130 18 a9 f5 3c ed 82 56 3d 06 e9 2f 3e bf ad b2 3d
       0.029987857 0.052370954 0.17178735 0.08724546
000140 5d 6f c7 bc 5a bb 9f 3c 9a 10 42 be e7 f7 67 be
       -0.024345094 0.019498516 -0.18951645 -0.22653161
000150 85 c3 83 3e e9 47 d7 3d e5 46 9b bd 9d cb ce 3e
       0.25735107 0.10511763 -0.075818814 0.4038972
000160 a0 43 da 3c bb e8 1a be c1 cc 69 3d ac fc b2 3e
       0.026643574 -0.15127842 0.057080034 0.34958398
000170 e1 9a a4 3d aa f3 80 bb d2 ad d0 bb 44 79 ae bd
       0.08037353 -0.003935297 -0.0063683772 -0.08519223
000180 9a de 2c 3e d7 16 36 3d 7a 29 2b 3e 5e ff 4e bc
       0.16881791 0.044455376 0.16715041 -0.0126341265
000190 4b 4f 63 be 96 3a 33 bd 16 b1 0a be a9 4c 85 be
       -0.22198217 -0.043757044 -0.13544115 -0.2603505
0001a0 08 e0 5e bd ab 20 7a bd af d5 20 bd 65 3e 32 be
       -0.05441287 -0.06106631 -0.039266285 -0.17406614
0001b0 aa 18 b3 bd 13 7d 38 be aa 9b 4c be 46 44 81 be
       -0.08744939 -0.18016462 -0.19981256 -0.252474
0001c0 fb 01 98 bd cd e5 c1 3d f5 90 9b bd 7d 3c 19 be
       -0.07422253 0.09467659 -0.07596008 -0.1496448
0001d0 f1 e8 ed 3c 68 22 56 3e d1 2f 64 be 26 3c 1a 3e
       0.02904174 0.20911562 -0.22283866 0.15062007
0001e0 1c 78 52 be e4 92 52 be d3 42 83 3d 63 44 ac bd
       -0.2055363 -0.20563847 0.0640923 -0.08411481
0001f0 09 33 2e be 31 98 31 be 49 15 12 3e b0 c2 36 bc
       -0.17011656 -0.17343213 0.14265932 -0.011154816

rnn.bias_hh_l0 f4 [128]
000000 8b b4 9a 3d a8 cd f5 bd c5 e8 19 be 61 63 27 be
       0.07553967 -0.120021164 -0.15030201 -0.16346504
000010 f1 0e 6e be 33 39 0a bd f7 88 01 be 2b 75 11 be
       -0.23247887 -0.033745956 -0.12649904 -0.14204852
000020 ea 3e b9 3e bf f2 fc bb 82 21 9a 3e 6d 8e 58 3e
       0.36180812 -0.0077193673 0.3010369 0.21148081
000030 a6 7a a3 bd a8 d3 bf 3d b3 97 90 3d 74 b5 9b be
       -0.07982378 0.09366542 0.07060184 -0.30411875
000040 a7 f4 0d 3e 30 1d 38 3e 73 4e 7f 3e 12 7c a3 be
       0.13862859 0.17979884 0.2493227 -0.31930596
000050 9c 99 e6 bd 19 8a 0b 3e 57 84 23 3e 92 1f f1 3d
       -0.112597674 0.13626899 0.15968452 0.117736
000060 e3 01 7a be fd 46 7a 3d 19 d4 87 3e ef 66 54 be
       -0.24414782 0.061102856 0.26529005 -0.20742391
000070 41 48 b2 3d a4 53 86 3e 3d 48 b2 be 40 2d b2 3d
       0.087051876 0.26235688 -0.34820738 0.08700037
000080 66 38 37 3c 7b 54 52 3d 77 bd bc 3e 5b 79 a4 3d
       0.01118288 0.051350098 0.368633 0.08030959
000090 4a 9e 92 3c d4 98 11 bd d0 1f c8 bd 97 58 2d be
       0.017897744 -0.03554614 -0.09771693 -0.16928326
0000a0 31 13 a0 bd 2f 67 ab be ae 8e 97 3d fd 51 98 bd
       -0.078161605 -0.3347716 0.07400261 -0.07437513
0000b0 5a 4f 01 3e d9 dd d1 bd 72 dd f9 3d 4b 2d dc 3d
       0.12627926 -0.10247392 0.122004405 0.107508264
0000c0 ec e4 75 3d bb d0 91 3e 81 e1 cd bd 34 43 83 be
       0.06003277 0.2847956 -0.10052777 -0.2563721
0000d0 58 89 ee 3d 97 89 45 be 81 bf c4 be ba 02 83 be
       0.1164729 -0.19290768 -0.38427356 -0.25588018
0000e0 1a d7 eb bd 47 c9 ea bd ac 77 b6 3c 48 4c 46 3d
       -0.11515637 -0.11464172 0.02227386 0.04841259
0000f0 69 f6 cd 3d 0c d5 14 be 8c 1d a3 3d ef ce 3e 3d
       0.10056765 -0.14534396 0.0796462 0.046584066
000100 23 32 2e be 64 e7 74 3e 72 11 45 3d d3 4a 9d bc
       -0.17011313 0.23916394 0.04811234 -0.019200718
000110 ec a6 a3 3d da 92 a6 3c 2a a9 10 3e ba 7a ad 3d
       0.07990822 0.020333696 0.14127031 0.08470674
000120 ba 30 7b 3e e8 36 7a 3d 89 06 8a bb 6f 1d 06 be
       0.24530306 0.06108752 -0.004212205 -0.13097166
000130 a7 ef 24 bd fc 30 00 bd 46 64 87 3d 8e 8d 56 3e
       -0.040267613 -0.031296715 0.066109225 0.20952436
000140 b6 e6 f9 bd 2f ba 84 bb 4f 3f f7 bd 66 06 57 be
       -0.12202208 -0.004050515 -0.12072622 -0.20998535
000150 77 d0 12 3e 2b b4 ed 3d 02 40 ba bd bb d5 cc 3e
       0.14337336 0.1160663 -0.0909424 0.40006813
000160 f7 7f 0f 3d 4b 29 42 be a6 54 29 3e 43 1e 8d 3e
       0.035034146 -0.18961065 0.16536197 0.2756215
000170 69 60 27 3e be a7 ab bb 8c 73 18 3d 34 03 e1 bc
       0.16345371 -0.0052385023 0.03721957 -0.027467348
000180 a3 1e 68 3d 45 4c 9c 3d d2 24 1e 3e da ac 95 bc
       0.056669842 0.07631735 0.15443733 -0.018270899
000190 7e 89 17 be e4 22 14 bd b2 dd 90 bd 30 d8 41 be
       -0.14798543 -0.036166087 -0.07073535 -0.18930125
0001a0 68 4c 4f bd 68 43 45 bd 04 a9 f6 3d f2 f9 52 be
       -0.050609976 -0.048159987 0.12043956 -0.20603159
0001b0 39 fc 5e be d8 c7 4c be 06 9e 2f be 91 83 3d be
       -0.21775903 -0.1999811 -0.17150125 -0.1850722
0001c0 6c fd 5b ba eb 28 3a 3e e0 4a e9 3c f7 c6 d1 bc
       -0.000839195 0.18179671 0.028478086 -0.02560757
0001d0 e9 ae 80 3d 8c 6f 67 3e 64 81 63 be e4 d4 fa 3d
       0.062833615 0.22601146 -0.22217327 0.12247637
0001e0 82 cd 8f be 82 e9 24 be 10 90 b9 3d 31 b4 77 bd
       -0.28086478 -0.16104701 0.09060681 -0.06047458
0001f0 cd a3 0a be 1e 9e 0d be 0b f6 b4 3c 2d cc 7b 3d
       -0.13539048 -0.13829848 0.022089979 0.061474014

linear.weight f4 [5, 128]
000000 c5 4f 4e be a0 19 a1 be b7 c9 90 3d 66 a5 17 be
       -0.20147617 -0.31464863 0.07069724 -0.14809188
000010 7f 90 ef 3b bc 5c 21 3e 73 41 83 be 52 49 89 3e
       0.0073109264 0.15758032 -0.2563587 0.2681375
000020 54 87 92 3e a8 98 90 3e 44 4e b0 3e 4d f2 ad bd
       0.28618872 0.28241467 0.34434712 -0.08493481
000030 10 40 7f be 66 e2 50 3d 7a 25 a8 3d e4 87 07 bf
       -0.24926782 0.05099716 0.08210273 -0.5294173
000040 67 22 b1 3e 8b 96 79 3e e0 86 6a 3e 0f f0 09 bf
       0.3459656 0.24373834 0.22903013 -0.53881925
000050 40 20 c6 bc cd 8c 8d 3e d8 39 0b 3d a7 61 97 3e
       -0.0241853 0.27646485 0.03399071 0.2956669
000060 28 3f 76 bd 0d a2 4e 3e 30 04 95 3e c4 fd f7 bb
       -0.060118824 0.20179005 0.29104757 -0.007568093
000070 00 4c 2d be 82 98 03 3f 62 6e de be dc 94 94 3e
       -0.16923523 0.51404583 -0.4344359 0.2901982
000080 92 d0 96 3e b0 f9 aa 3e 4e 8e 1c 3f 75 f1 ed bc
       0.29456002 0.3339362 0.6115464 -0.0290458
000090 ff ed 4d 3c 3c c5 72 3d 30 36 85 be 28 09 21 3e
       0.01256895 0.05927013 -0.26017904 0.15726149
0000a0 45 82 86 3d 39 f4 43 be 05 e0 47 bd c9 a2 2c bc
       0.06567816 -0.19136132 -0.048797626 -0.010536858
0000b0 78 4c 8d 3e ae fa 96 be 0e 42 61 be 7e 08 e9 3d
       0.27597404 -0.29488128 -0.21997854 0.11378573
0000c0 a9 49 85 3e 1a a8 84 3e 58 a3 04 3e c7 bc 25 be
       0.2603276 0.259095 0.12952936 -0.16185294
0000d0 95 62 80 be aa e6 85 be ef a2 2e be e6 cb 8a bd
       -0.25075212 -0.26152545 -0.17054342 -0.06777172
0000e0 3f bb 8f be 0f c7 c8 bd c0 17 66 be 3e c2 84 bc
       -0.28072545 -0.098035924 -0.22469997 -0.016205903
0000f0 3c cf 81 be 06 dc 80 3d 01 f8 3f be 69 ac 30 3d
       -0.2535342 0.06291966 -0.1874695 0.043133173
000100 83 f4 a5 be 35 03 19 3d d1 e6 82 be 1f 6a 2c bd
       -0.3241311 0.037356574 -0.25566724 -0.042093392
000110 d2 4d 4f 3e 42 1e 33 3e ff ee 55 3e 57 50 bb bd
       0.2024453 0.17492011 0.20891951 -0.09146183
000120 e8 dd 02 3e ed ec 34 3e 7e 2e 90 bd b4 d0 e7 3d
       0.12779963 0.17668505 -0.07040118 0.11319104
000130 8d 1a ba 3d 8f 43 99 3e df 29 bd 3d 76 27 cf bb
       0.090870954 0.29934356 0.09236502 -0.006321843
000140 fe 35 9e 3e c2 23 d2 bd 18 fa 52 bd b7 51 c1 3d
       0.30900568 -0.102607265 -0.05150804 0.09439414
000150 76 95 65 3e 1e 2d 44 3e 8d 7e 13 be 0e 5b 45 3e
       0.22420296 0.19157836 -0.14403744 0.19273016
000160 11 4c 9b 3d 54 48 0a be 54 dc 42 bc b1 91 c9 3d
       0.07582868 -0.13504153 -0.011893351 0.098422416
000170 16 bb 19 3e bd 46 21 be 04 b6 3f 3d 3a 3c 05 be
       0.15012774 -0.15749641 0.046804443 -0.13011256
000180 fa 8f f5 bd 5f 1e 8b bd 62 2f b5 be a8 7a 86 be
       -0.11990352 -0.06792902 -0.35387713 -0.26265454
000190 e5 43 3c be 68 12 b7 bc b7 00 3a be 62 2e 86 bd
       -0.18385275 -0.022347644 -0.18164335 -0.065518156
0001a0 a5 a7 54 be 48 f9 dc b8 3c d3 00 bd 91 52 44 bd
       -0.20767076 -0.0001053685 -0.03145145 -0.047930304
0001b0 5b 77 89 be 36 e0 d1 3d 45 6b 01 be b2 5a 59 be
       -0.26848873 0.10247843 -0.12638576 -0.21226004
0001c0 62 0d ba 3e e4 f4 67 3e 5a a6 1f 3d 40 03 a2 be
       0.36338335 0.22652012 0.038977005 -0.31643105
0001d0 86 af 09 bd d2 2d 4c 3e 20 c9 de be 4e 61 01 3e
       -0.033614658 0.19939354 -0.4351282 0.12634775
0001e0 90 bd 09 be 29 16 0f bd 54 99 75 3d 35 47 3f be
       -0.13451219 -0.034933243 0.05996068 -0.18679507
0001f0 3a 88 be 3d 4d 54 97 3e 8f 4a 1a 3e 0a b8 55 3e
       0.09303327 0.29556504 0.15067504 0.20870987
000200 c1 dd 31 3e 22 1b 29 be 4c 01 a1 be 97 de f2 3d
       0.17369749 -0.16514257 -0.31446302 0.11858862
000210 0a f3 d1 bd 15 b1 2c be 34 3f b2 be ac 82 2b be
       -0.10251434 -0.16864426 -0.34813845 -0.16749066
000220 c2 fc 19 3e df 4a 7e 3e 91 4f 1c 3e 45 3a 47 3e
       0.15037826 0.24833249 0.15264727 0.19455822
000230 da 2f 5c bd 91 ce 35 3d f1 ca 2b 3d 12 19 8a bd
       -0.053756572 0.04438645 0.041941587 -0.06743063
000240 a9 a0 16 3d e1 bf 10 3d ee 68 24 bf 1f 3a fc bd
       0.03677431 0.03533924 -0.6422261 -0.12315773
000250 5f 3e db be cf fa 27 be 4c 36 08 3f 43 cf 76 3d
       -0.42821023 -0.1640427 0.5320785 0.060256254
000260 90 02 b3 3d 9f a5 45 3e 70 8e 97 3e 78 16 ea bd
       0.08740723 0.1930146 0.2960086 -0.11430067
000270 42 db 1a 3e 56 ab 0f bc d4 f0 92 bc 43 5a db bc
       0.15122703 -0.008768877 -0.017937101 -0.026776439
000280 14 88 f5 bd 89 0c 21 bd 2f ac f3 3d 1d a1 6e 3d
       -0.119888455 -0.039318595 0.11898076 0.05825912
000290 b3 2a fa be 60 bc d0 be cc cf 1a 3e 0c 2b 7c be
       -0.48860702 -0.4076872 0.1511833 -0.24625796
0002a0 b8 8f 8b 3e 15 2e 82 3e b6 cb 4b be cc 42 68 be
       0.27258086 0.25425783 -0.19901928 -0.22681731
0002b0 4a 7e 53 3e b9 1b 5e be b5 d1 80 bd bc a3 8a 3e
       0.20653644 -0.21690263 -0.062899984 0.27078044
0002c0 67 4e 2e 3e 54 9a 61 bd 54 7a 67 3e 63 03 c1 3e
       0.17022096 -0.05507882 0.22605258 0.37697896
0002d0 28 3b 78 3d d0 fa 4f 3e b8 b2 2f 3c 60 df e8 be
       0.06060329 0.20310521 0.010723762 -0.45482922
0002e0 82 f3 b0 be 4e 47 e3 3c 6e d0 c9 bd 2f 63 24 3e
       -0.34560782 0.027743962 -0.09854208 0.1605346
0002f0 fc bb 61 be d5 31 4d 3d fe 03 df 3e d5 e5 d6 bc
       -0.22044367 0.05009635 0.43557733 -0.02623264
000300 d4 fa 5d bd 1c 15 9d 3e 43 0c 17 3f 0f 14 49 3e
       -0.054194286 0.30680168 0.59003085 0.19636558
000310 6f df 04 bf 5a 7b d6 bd cc 21 42 be 23 8c 98 3e
       -0.5190343 -0.10472746 -0.18958205 0.29794416
000320 a5 a8 da be d4 3b 24 bc a0 eb 03 be 20 f2 f9 3d
       -0.4270679 -0.01002403 -0.12882853 0.12204385
000330 b1 24 97 3c f7 16 17 bd da 38 d0 bd 97 d7 c1 bc
       0.018450113 -0.036887135 -0.101670936 -0.023662372
000340 cf 2c 06 bf ad 95 77 bd 01 15 33 3e 0a 98 44 3e
       -0.5241212 -0.060445476 0.17488481 0.19198623
000350 f5 5e 36 bd d1 57 8c be d7 31 e5 3e b6 eb 96 be
       -0.04452415 -0.2741075 0.44764587 -0.29476708
000360 9a 91 00 be fe f5 fc 3e 5c 09 04 3e 69 b7 5f be
       -0.12555543 0.49406427 0.12894195 -0.21847309
000370 a0 b7 48 be 89 ba 26 3d 05 1b 9f 3e 20 33 70 be
       -0.19601297 0.040705238 0.31075302 -0.23457003
000380 72 c1 e0 3d 02 dd 22 be 1f 9e c1 3e 36 34 1c 3f
       0.10974397 -0.1590462 0.3781595 0.6101717
000390 46 fe c1 3d 1b b7 f6 be 5c 6b f9 3d ce 02 a1 bd
       0.09472327 -0.48186573 0.1217868 -0.07861863
0003a0 3b 34 c9 bd 49 37 3f bd d8 d9 36 3e 43 df 90 3e
       -0.09824415 -0.046683583 0.17856538 0.28295335
0003b0 4b 89 81 be 0b de b9 3d df b6 8f 3e a7 74 57 3e
       -0.2530006 0.090755545 0.28069207 0.21040593
0003c0 13 7d 80 be 16 44 af 3e ad a6 08 be 2e bb 65 3e
       -0.25095424 0.34231633 -0.13344832 0.22434685
0003d0 15 f9 13 3e ec 39 78 bd 4e ea ea 3d 7d 9e 91 3e
       0.14450486 -0.060602114 0.11470471 0.2844123
0003e0 fa a8 98 3e e6 ce df bd c9 36 d6 3d d0 7d b2 be
       0.2981642 -0.109281346 0.10459668 -0.34861612
0003f0 57 f4 81 be cc 96 34 3d 91 4d ce bd 37 6e 0a 3e
       -0.2538173 0.044089124 -0.10073388 0.13518606

linear.bias f4 [5]
000000 c8 6f 2b bd b5 13 61 3d 57 1b a0 bd ab 77 97 bd
       -0.04185465 0.054950435 -0.07817715 -0.07395872
000010 3b 2e 24 bd
       -0.04008315
