ys/week03/model.pth (torch, 84919 bytes, 7 tensors)

embedding.weight f4 [27, 20]
00000000: 41d3 ef3e 0406 a33f 1e1d 053f e134 82bf
00000010: 7302 01c0 ec61 fbbe a6e1 4dbe 5729 823e
00000020: 19f6 a03e f510 21be 8cab 1cbf a703 e93d
00000030: 67ad f8bf d600 6c3f cf4c 41be 1589 a0bf
00000040: 0999 9a3f 1f64 8b3f 2ac5 b0bf 7150 5fbf
00000050: bfcf 90bf 0457 96be 1c81 293e 6f37 6f3e
00000060: 67b5 91bf 1091 ad3e 3558 9dbf d897 bc3f
00000070: c44c 903d 4a82 3e3f a062 a03d c240 91bf
00000080: abd5 95bf 00d7 053f aa08 cc3f 31d0 9cbf
00000090: 928b 4b3f f7b3 b2bf 4a36 3d3e d6a3 403f
000000a0: 4217 9abd 902b 013e adcf c03f d850 b3be
000000b0: a650 49bf 1bf9 0bbf 9e79 bcbf 1fa1 f8be
000000c0: 4bae 08bf c5a8 31bf 44c9 08bd 9f20 9abe
000000d0: 41d0 023f 2498 0d3f 2c0a 743f fd93 7e3f
000000e0: 80e0 8cbf 155f 41bf ed2d 06bf df94 103f
000000f0: 04dc a63f 059f 46bf ccc2 fb3e f838 e6be
00000100: 09e8 dcbe 780d ab3e 8f31 023e b944 4fbe
00000110: 22d1 8dbf 7a1a 063e 932b 8d3f dfc7 223f
00000120: e959 223e f858 803f d7b7 bf3d 9fcc 5a3e
00000130: aa27 5f3f 0af7 ef3d 6ada 4cbf 98c7 2f3f
00000140: f943 703e 6ba1 92bf c226 ccbf c7ad 77bf
00000150: 3c1e c43e 1982 883e 23ba 753f 6d09 763f
00000160: 8433 3a3f 3a51 0fbe 1b7f e5be c5fb df3e
00000170: bb7f c8bf 5b0b 643f 4ec2 fdbe 1228 7b3f
00000180: 5248 eb3d c042 2a3e 2621 e23f e88a 05bf
00000190: 2935 a5bf ddd6 dd3f d13d 623f 149f 5e3f
000001a0: 5d62 39bf e0ca 3b3d d14c 82be c67d f43e
000001b0: 372c 2cbf 2aa7 9f3f e278 1b3f be76 073f
000001c0: eff8 c13e 2489 90bf 44c4 86be 264c ffbc
000001d0: 3ce5 9e3f d462 32be d8c4 ff3e a901 f63e
000001e0: 258f fd3e dd09 98bf ab3e 1f3f 23aa b13f
000001f0: 3c80 163e d997 5f3f 6214 f03e 5516 91bf
00000200: e709 0abf 5384 ae3f 4a73 e13e 499a 0ebe
00000210: 615f 903f 3067 8a3f f945 85be 6b28 35bf
00000220: e9bd 163f e44e 0fbe 9784 983f e019 1fbf
00000230: 083e e8bf 57b4 5abd 0be0 c2be 1e76 663f
00000240: 1a71 dcbe fd70 3b3f 1167 d03e cc15 6c3f
00000250: 7c50 a5bc 4d1d bcbd 3689 5d3f 4c80 ea3e
00000260: d221 2cbf 2fe2 15bf 51f4 efbf 41e5 1ebf
00000270: dfc5 b13f 6f7b bd3e eece 7cbd 267b 2bbe
00000280: 8aa5 e7bd e1cb 033f b5df 08bf 78fd f93d
00000290: 470e 3ebf 4ccf a23b f871 fbbf 82f1 b13f
000002a0: 94e7 d43d 6ca5 26bf 46ff 873d bf5d 6f3f
000002b0: 0de2 033f 7622 eabe 093e 593f 2ae1 8dbf
000002c0: 3924 1ebe 22a2 2d3f 9889 76bf 1be0 783f
000002d0: 6ab7 083f fec4 8bbf be52 283d 9a12 023f
000002e0: 67f7 99bf ce6b 90bf 408e 1dbf c96e 4abf
000002f0: 815b 13bf 5406 893e dfc5 393e 1604 1ebf
00000300: 3aaf a2bf f696 633f 9553 233f e69f a9bd
00000310: ed92 b2bf 4343 ae3f 76d3 893f 2a1c d33f
00000320: 3e30 8dbf cbed d9be d0df c13f bf38 cdbe
00000330: 78e3 74bf acc8 40bf ae20 dd3f 1dc8 aa3f
00000340: 547c 24bf f746 6e3f 1f97 a03e 2332 97bc
00000350: 17e5 1f3e 4e09 963f fe8d bf3f f8d0 c9be
00000360: 35dd b2be 64d1 3fbf 140a 003f d91f e9bc
00000370: a612 05bf de7d 82bd af06 023e 618f f3be
00000380: b193 c93e 685b 95be 52cc 8c3e 1dd2 b9be
00000390: 629f bd3f 6ce8 28bf 3c52 5c3f 5c61 0b3f
000003a0: 77ef c33e 1739 89bf 0f85 7abf 8845 613f
000003b0: ff4c 31bf ee17 ec3e 6acb 05bf a7e9 cf3e
000003c0: 76a5 abbe a7a2 a33f c809 a53f 2408 f3be
000003d0: 5dee 3140 6d46 c03d 4eb3 c7bd a8e7 d2be
000003e0: 97a4 2e3e 6d7f 80bf f4da 0dbf 84b0 343e
000003f0: 83ec 5bbf 8d7c 18bf 3df0 013e 09aa 17bf
0.4684086 1.2736211 0.51997554 -1.0172387 -2.0157745 -0.49098146 -0.2010561 0.25422165
0.31437758 -0.15729125 -0.6119926 0.1137765 -1.9427918 0.92188776 -0.18876956 -1.2541834
1.2077953 1.088993 -1.381017 -0.8723212 -1.1313399 -0.29363263 0.16553158 0.2336099
-1.1383485 0.33899736 -1.2292544 1.4733839 0.07045892 0.74417555 0.07831311 -1.1347888
-1.1705831 0.5228119 1.5940144 -1.2251035 0.7950984 -1.3961171 0.18477741 0.75249994
-0.07523967 0.12614274 1.5063378 -0.35022616 -0.78638685 -0.5467698 -1.4724615 -0.48560426
-0.5339095 -0.69398147 -0.033395067 -0.30103013 0.5109902 0.55310273 0.9532802 0.9944456
-1.1006012 -0.7553571 -0.5241383 0.5647716 1.3035893 -0.77586395 0.49172056 -0.4496534
-0.4314578 0.33408713 0.12714218 -0.2024106 -1.1079447 0.13096038 1.1028923 0.6358623
0.1585461 1.0027151 0.093612365 0.21367119 0.871699 0.11717041 -0.80020773 0.6866393
0.2346343 -1.1455511 -1.5949328 -0.9674954 0.38304317 0.26661757 0.9598715 0.9610813
0.72734857 -0.13995829 -0.44823536 0.43746772 -1.566398 0.8907983 -0.49562305 0.9810802
0.114884034 0.16627026 1.7666366 -0.5216508 -1.2906848 1.7331196 0.88375574 0.86961484
-0.72415715 0.045847774 -0.2544923 0.47752208 -0.67254966 1.247289 0.6073133 0.5291556
0.37885234 -1.1291852 -0.26321614 -0.03116424 1.2413707 -0.17420512 0.49954867 0.48048142
0.49523273 -1.187801 0.62205 1.3880047 0.14697355 0.87341076 0.4689055 -1.133494
-0.5392136 1.3634132 0.4403327 -0.13926043 1.1279107 1.081274 -0.26029947 -0.707648
0.5888353 -0.13994938 1.1915463 -0.6214886 -1.814393 -0.05339464 -0.38061556 0.9002398
-0.4305504 0.7321928 0.40703633 0.9222076 -0.02017998 -0.09185276 0.8653749 0.45801008
-0.67239106 -0.58548254 -1.8746434 -0.62068564 1.388851 0.37008235 -0.06172078 -0.16746196
-0.11310871 0.5148297 -0.5346635 0.122065485 -0.74240535 0.0049685594 -1.9644156 1.3901827
0.103957325 -0.65096164 0.066404864 0.9350242 0.515168 -0.45729417 0.84860283 -1.108434
-0.15443505 0.6782552 -0.963037 0.9721696 0.5340487 -1.0919492 0.041094534 0.50809634
-1.2028626 -1.1282899 -0.6154518 -0.79075295 -0.575615 0.2676264 0.18141888 -0.61724985
-1.2709725 0.88902223 0.6379941 -0.08282451 -1.3951088 1.3614277 1.0767658 1.649297
-1.1030347 -0.42564234 1.5146427 -0.40082356 -0.9565959 -0.753062 1.7275598 1.334232
-0.6425221 0.93077034 0.31365296 -0.018456524 0.15614735 1.172159 1.4965208 -0.39417243
-0.34934393 -0.7492888 0.5001538 -0.028457569 -0.5198158 -0.063716635 0.12697862 -0.47570327
0.39370492 -0.291713 0.27499634 -0.36293116 1.4814265 -0.6597965 0.8606298 0.54445434
0.38268635 -1.0720547 -0.9785928 0.8799672 -0.6925811 0.46112007 -0.5226351 0.4060795
-0.33524674 1.2784013 1.289361 -0.47467148 2.7801735 0.09388433 -0.097509965 -0.41192365
0.17054974 -1.0038887 -0.5541222 0.1764546 -0.85907763 -0.5956505 0.126893 -0.5924383

rnn.weight_ih_l0 f4 [128, 20]
00000000: 0dfd ea3c d244 90bd 2059 89bd a9d7 03bb
00000010: be51 e73d 62e4 523d cead fc3b 6278 913d
00000020: d5e4 6abd 0a51 60bd bd85 40bc 7e73 9d39
00000030: f42e 58ba 8f25 84bd 8eb7 a0ba 3158 dc3d
00000040: 9c52 cabd 8bf3 fbbd 695e 1abd de78 87bd
00000050: b9b1 93bd 8151 02bd 3a78 613d 599b dbbd
00000060: 2a86 003d be8d 0c3d 2092 b1bc 4bcd 9bbd
00000070: 9b9e 97bd 1f86 a8bc 0d02 d6bc f0ee 7bbd
00000080: cf6e d7bd d276 463d dd15 a1bd 5899 76bd
00000090: 9d33 b63d 5b26 a53d a157 a23c 4589 97bc
000000a0: 485c 4ebd b411 eb3c 9e56 9a3d ee5d 3bbd
000000b0: 9361 8bbd 89bf 44bd 229e 1f3d b3c9 91bc
000000c0: 695d 8b3d 1443 08bd a447 8dbd 58d4 84bd
000000d0: e8c5 5d3b 192a 743d 8082 e43c 040a a53c
000000e0: 180c dd3d ff19 043e 773e 6fbd 96a8 14be
000000f0: 346d fabc 1178 9e3c 378c 053d 984a fcbd
00000100: b0a0 6d3c eb7f eabd 9470 713c 7ac6 ebbd
00000110: 44ec 0d3e 1b05 773c 5e6b 87bd 22a9 753d
00000120: b47b 71bd 5383 a8bb 049d f9bb 7578 f3bc
00000130: 7fcd 2d3e c68d bd3d 6917 f9bd 5074 843c
00000140: 578e 643b 42c2 5b3d 3401 adbd 65a4 06bd
00000150: 252b bb3c f0e8 d13d 3fca 61bd 1e2d dd3c
00000160: ea05 fe3c b5a4 733d 421b 913d c996 b63d
00000170: 7d16 c33d 49e3 91bc dbe8 f0bc f2b7 3c3d
00000180: 7469 5dbd 831d bcbd 37c8 c43d c1ad c23b
00000190: 33c1 99bd 8ec1 c93c c392 bd3c 8bc5 82bd
000001a0: 47f3 a43d 1337 e63c 16bf 593d 47d7 e0bc
000001b0: fc50 81bb 584f 333d f865 94bd 1da1 be3b
000001c0: 448a 8abd 753a 2e3d e342 293d 127b 293c
000001d0: 4066 c8bb 5238 173c 837d d4bc d681 fabb
000001e0: 55f1 29bd 962a e9bd b506 ce3a 3eb0 c23d
000001f0: bab1 1a3d 2cbb 083d f802 14bd 97f6 0d3e
00000200: c57e 48bd e05c d63d 1112 533d cc37 c0bb
00000210: 16c6 133d 1407 a0bd 5597 02bd 57a6 d83c
00000220: 4e74 05be c1d1 bbbd 148d 323d 4792 01bc
00000230: ba59 96bc 9f0d 143d b38d b2bd cb06 c33d
00000240: 5327 ec3d b507 d33d ecde 793d a036 633d
00000250: 21d2 8dbc 786c 8e3d f6e3 22bd 2bb2 d6bb
00000260: 15dd 243d 5932 ca3b 8c26 f73c bd24 63bd
00000270: d4b9 01be 22b5 a63b 51ed bc3c f743 8a3d
00000280: b358 f6bd 8a56 6fbd 99da afbd 7faa 213e
00000290: bfb7 9d3d 0de7 e83d 444e 133c 3e44 273e
000002a0: ea4f 8ebd 816c 28bd b7f6 e6bc 20bc 1dbd
000002b0: e8af f23d 117b b1bd c5c8 3abd 40fb 54bc
000002c0: 1f90 a6bd d7b3 e8bd f86e cb3d ba6c 84bb
000002d0: 2a0e 81bc 723b 89bd b0e6 533c 002d 0f3e
000002e0: 54c0 f83d 6eed b83c 5325 47ba 6649 233e
000002f0: 7b9b dcbd 79b0 b23c 97b4 693d 4549 01bd
00000300: d8fd 423c af94 94bd e7be 223d b337 7e3d
00000310: 2328 43be 70c0 f7bd cb58 133e a70d 7f3d
00000320: fa68 d6bc 87dd 593d 41b4 343a 9ed9 dcbd
00000330: dcb7 51bd 6c42 ae3b 3de6 28bc 762c 7abd
00000340: 8580 0ebd af48 a33d 67f8 273c 77c4 5f3d
00000350: bebd 39bd ecf5 2e3c b7aa 9dbb 0288 453d
00000360: bb03 953d d914 003d 3554 1cbd a854 c7bd
00000370: d9ff 76bc 36b5 433c 32d2 b7bd 22bb 523d
00000380: 4ce8 073e 95ab bc3d 6c95 0a3d 9b8c 113d
00000390: 9d52 1dbd 957f 25bd 5f22 2ebd 9861 2ebb
000003a0: c9fa 193d dbdd 99bd 7087 43bd 0582 523c
000003b0: 0dff 0cbe 84e1 67bd a8cf 4d3a 3098 053e
000003c0: 75e6 a0bd 825e 2cbe fff6 0ebe 6d6b 1a3d
000003d0: 7f89 a63d a272 0d3e eeb4 a7bd 3698 c6bc
000003e0: c9b0 cebc 37f5 a73d d8f2 043e f1fd 633d
000003f0: 8757 123d 20ea f3bd 3fb5 37bd 9a4e 173e
0.028685117 -0.070443764 -0.06706452 -0.0020117557 0.11294888 0.051487334 0.007711149 0.07103039
-0.057347137 -0.054764785 -0.011750636 0.00030031422 -0.00082467427 -0.06452476 -0.0012261735 0.10759009
-0.09879038 -0.123023115 -0.037687693 -0.066148505 -0.07211632 -0.03181601 0.055046298 -0.107229896
0.03137795 0.034314863 -0.021676123 -0.07607516 -0.074032985 -0.020571766 -0.026124025 -0.061507165
-0.10519182 0.04845316 -0.07865498 -0.060204834 0.08896563 0.08063956 0.019817175 -0.018498072
-0.050380975 0.028694965 0.07536052 -0.045743875 -0.0680572 -0.048034225 0.038969167 -0.017796373
0.06804926 -0.033267096 -0.0689843 -0.06485814 0.0033839885 0.05961046 0.027894258 0.020146377
0.10793322 0.12900542 -0.05840918 -0.14517435 -0.03056965 0.019344361 0.032604422 -0.12318915
0.014503643 -0.1145018 0.014736313 -0.11512466 0.1385966 0.015076901 -0.066122755 0.05997575
-0.058955863 -0.005142608 -0.0076175947 -0.029720524 0.16972922 0.09255557 -0.12162668 0.016168743
0.003487488 0.053652056 -0.08447495 -0.032871623 0.022847721 0.102495074 -0.055124518 0.026999053
0.03100868 0.05948325 0.07085277 0.08915479 0.09525774 -0.017808573 -0.02940791 0.04607386
-0.054055646 -0.091853164 0.096085005 0.0059411232 -0.07507553 0.024628427 0.02314127 -0.063853346
0.08054214 0.028102433 0.05316075 -0.027446402 -0.0039464217 0.04377684 -0.072460115 0.005817546
-0.06764653 0.042536218 0.041323554 0.010344284 -0.006115705 0.009229736 -0.025938755 -0.007644872
-0.041489918 -0.11385076 0.0015718552 0.09506272 0.03776715 0.033381626 -0.036135644 0.13863598
-0.04894902 0.10466933 0.0515309 -0.0058660265 0.03607758 -0.0781385 -0.031882603 0.026446505
-0.13032648 -0.09170867 0.043591574 -0.00790841 -0.018353332 0.036145803 -0.08718433 0.0952278
0.11530938 0.103042044 0.06100361 0.055472016 -0.017312111 0.069542825 -0.03976818 -0.006552001
0.040249903 0.0061705527 0.030169748 -0.05545496 -0.12668544 0.0050875107 0.02306238 0.067512445
-0.12028637 -0.05843214 -0.08586616 0.15787695 0.077010624 0.113721944 0.008990828 0.16334626
-0.06948836 -0.041119102 -0.028193815 -0.038509488 0.11849958 -0.08666051 -0.045601625 -0.012999356
-0.08132958 -0.11362427 0.09933275 -0.0040412815 -0.015753824 -0.067007914 0.012933418 0.1398201
0.12146059 0.022574153 -0.00075968093 0.15945968 -0.10771843 0.021812664 0.05705699 -0.031564016
0.011901341 -0.07254922 0.03973284 0.062064838 -0.1905828 -0.120972514 0.1438934 0.06226888
-0.026173104 0.05318978 0.0006893315 -0.10783695 -0.051200733 0.0053179767 -0.010308799 -0.061077558
-0.034790535 0.07972848 0.010252095 0.054630723 -0.045346968 0.0106787495 -0.0048116106 0.04822541
0.07276102 0.031269882 -0.038166244 -0.09732944 -0.015075647 0.0119450595 -0.089756384 0.051447995
0.13272208 0.09212414 0.033833906 0.035534482 -0.038408864 -0.040404875 -0.042513248 -0.0026608463
0.037592683 -0.07513019 -0.047736585 0.012848382 -0.13769169 -0.056611553 0.00078510726 0.13046336
-0.07856456 -0.16832927 -0.13961409 0.037700105 0.08131694 0.1381326 -0.081888065 -0.024242502
-0.025230782 0.08201068 0.12983263 0.0556621 0.035728004 -0.1190989 -0.044850584 0.14776078

rnn.weight_hh_l0 f4 [128, 128]
00000000: 5ab4 093c db51 38bd dba3 dbbd 0e1d d2bc
00000010: 69f7 b03c b1e8 2dbd a8d7 10bd 69ec 0fbd
00000020: a7a1 903d 3753 dbbc 66f6 3abd f51d 0ebd
00000030: cf35 c3bc ece9 a5bc 12ac 61bd b80a 6abd
00000040: c50e 973d d831 a33c 6aeb 6a3d 0a44 09be
00000050: b1a4 e7bd 47da 2bbd e327 bcbd 2f34 06bd
00000060: 7397 70bd 7479 883d 807e 0c3d 0189 1c3d
00000070: 5965 82bd 9af0 09bd e795 de3c 9771 163e
00000080: 3517 9cbd 0f8e 91bc fa25 47bb 68ca 9a3d
00000090: c24c c63d f2c0 49bc c851 8f3d 284f d73d
000000a0: 52d4 a33c 5507 043c 146e c2bc 04be 0e3d
000000b0: c42f 97bd 61e4 023e 108b 76bd 936b 5c3c
000000c0: 7d7e eabb 5710 c4bd 3306 c83d d9ae 93bc
000000d0: a136 7d3c 88db 073d bb9c c83c 1a2e f0bd
000000e0: d49a 30bd 7c21 e93b 2538 95bc 0fdf 4cbd
000000f0: f12d 5f3d 4942 a53d 6589 f9bc bb7a 4b3d
00000100: 1199 fe3b b7f6 003d b95b 49bc 4c9f 593d
00000110: f141 b43d 0904 7d3d 6d2f a5bd a600 fe3a
00000120: 08de 27be 2c0a 9cbb 5236 693c 6b5a ce3d
00000130: 65ae 5cbb 5045 bd3d fe5d 1cbd 4e7c 04be
00000140: f395 46bb df38 37bd e86d 0e3c 9fca c4bd
00000150: 6810 403c 068c fc3d 7ee6 82bd 7397 b23d
00000160: 441d 1fbc ab1f ab3d 29da 5e3c bab2 1d3d
00000170: 49e5 13bc ebe7 4d3d 3987 a53d 40e4 30bd
00000180: cdd3 58bd 2f48 76bd 0a83 d43d 20c6 da3c
00000190: 3e3e b03d 46df 003c 01c2 ad3d f0af 433d
000001a0: b2e2 a93d 765e 7dbc 9b7f c83c 0a4a db3d
000001b0: 72cb ebbd b90d 473d 5cfa e1bc a4db a7bd
000001c0: 9859 02be 517b 1d3d 4477 aebd 7b0e aebd
000001d0: 9d48 a53d 75ba 743d bfce 03bd c00a 123e
000001e0: 8862 91bd 0c23 0dbe 7d0b 06be 818d df3b
000001f0: a670 793c ea98 1f3d 8671 053e fd95 d9bb
00000200: b21e 68bd 616d f9bd d37b 83bc a52d acbd
00000210: 9baf 213d e052 8c3d 0030 f23d b143 523d
00000220: d449 bb3d 8a37 493c d28f 583c 3ef6 67bc
00000230: 90ad 35bd 3318 f53d f339 aebd 2441 b2bc
00000240: bc9d af3d 6411 733c 2bce e0bd 8986 50bd
00000250: dc7b abbd e9ba 823d e546 1e3d 2b6b fa3d
00000260: 8bd0 99bc 6608 8b3c 869a bc3c eb74 663d
00000270: c10f 323d 0776 97bd 878b 773d 02de c3bd
00000280: 834e ab3d a3d7 8bbd 673c fdbc 6ade 063d
00000290: 3a96 c53b 598e d5bd e5a4 20bc ce11 cbba
000002a0: adcf abbd 65ca c9bc a488 0ebd c549 eebc
000002b0: a8dc 613d 0c9b 8cbd d1b5 48bd b108 7e3d
000002c0: 1c45 5e3d a2c4 b7bd a89d 9f3d fbd5 44bd
000002d0: aca7 203d 128e 54bd 7f3d c33d 9c2f 39bc
000002e0: c2c3 963d 4540 64bd 3ce5 33bd 6c92 c43d
000002f0: 6e51 cdb9 3616 2ebd 105e f1bc 89c0 d1bc
00000300: 41e6 afbc 6654 6e3d cd1a 43bd 85f3 623c
00000310: cebe 4a3d 1d58 b03d 2919 a2bd df98 6cbc
00000320: 624b a1bd e903 1c3d e264 44bd 452f 4c3d
00000330: d531 053e af97 82bd 9b3d 89bd fb26 663c
00000340: c44c 0abd 63b1 bbbc d0d0 943d 3ab6 a4bd
00000350: 4b12 91bd 15a9 10be 081b 7ebd 1f0c b23d
00000360: 7071 573d c5f0 153d 9f10 e83d d571 c7bc
00000370: 658f 06bd 0942 2f3d 2c9a fabd 2951 673c
00000380: f3ee e33c 7e42 c7bb 6249 063c fbc0 f7bc
00000390: 60ef e73d 061c 183c be85 d3b9 78d0 0ebd
000003a0: 3c97 ff3c 63f6 9cbd ae3e 33bc ab4b c23d
000003b0: c1b2 edbc bb08 a4bd f10c fd3c 835e f33b
000003c0: eb30 633d d00f 353d c800 9b3b 77ca 25bc
000003d0: 6686 7fbd f0ec 9cbd ad0e 77bc ae14 093d
000003e0: 347f cd3b ec73 e03c 22a6 483d b6a4 bbbd
000003f0: 31d5 a53c bb63 77bb 746b ecbb 0092 cbbd
0.008404816 -0.04499994 -0.10724612 -0.02564862 0.02160235 -0.04245824 -0.035361916 -0.035137568
0.07062083 -0.026773078 -0.04564514 -0.034696538 -0.023829369 -0.020253144 -0.05509574 -0.05713913
0.07375864 0.019921228 0.057353415 -0.13404861 -0.11310709 -0.041956212 -0.09187295 -0.03276461
-0.058738183 0.0666379 0.034300327 0.038216595 -0.06366987 -0.03367672 0.027171088 0.14691769
-0.07621614 -0.017767934 -0.0030387626 0.07558137 0.09682609 -0.012314068 0.069980204 0.10513145
0.019998703 0.008058389 -0.02373413 0.03484918 -0.073821574 0.12782432 -0.060191214 0.013453382
-0.007156192 -0.09573429 0.097668074 -0.01802771 0.015454919 0.033168346 0.024488797 -0.11727543
-0.043116406 0.0071145874 -0.018215248 -0.050017413 0.054487173 0.080692835 -0.030461023 0.04967759
0.007769712 0.031485286 -0.012289935 0.053130433 0.0880164 0.061771426 -0.080656864 0.0019378855
-0.16393292 -0.004761955 0.014234142 0.100758396 -0.0033673283 0.09241736 -0.038175575 -0.12938043
-0.003030178 -0.04473197 0.008693196 -0.096089594 0.011722662 0.12331395 -0.06391619 0.08720293
-0.009711567 0.083556496 0.013601818 0.038500525 -0.009026834 0.050270002 0.08082432 -0.043186426
-0.052936364 -0.060127433 0.10376556 0.026705801 0.08605622 0.007865733 0.08484269 0.04777521
0.08295192 -0.015464416 0.02447491 0.10707481 -0.115134135 0.04859707 -0.027585201 -0.0819619
-0.1272949 0.03844768 -0.08518842 -0.08498856 0.080704905 0.05974813 -0.03217959 0.14261913
-0.070988715 -0.137829 -0.1309032 0.0068222885 0.015224611 0.03896419 0.13031587 -0.0066401944
-0.0566699 -0.121790655 -0.016050255 -0.084071435 0.03947411 0.06851745 0.118255615 0.051334087
0.09144941 0.012281308 0.013217883 -0.01415783 -0.044354975 0.11967506 -0.08507147 -0.021759577
0.08575007 0.014835689 -0.109768234 -0.050909553 -0.08373234 0.063833065 0.03864183 0.12227472
-0.018776199 0.016971778 0.023022901 0.056263845 0.043472055 -0.07395559 0.060435798 -0.09563829
0.08364584 -0.06828239 -0.030912591 0.032926954 0.0060298713 -0.10427541 -0.009804939 -0.0015492977
-0.083892204 -0.024632642 -0.03479828 -0.02908791 0.055142075 -0.0686551 -0.04900152 0.062020008
0.054265127 -0.089730516 0.077937424 -0.04805563 0.039222404 -0.0518933 0.09533214 -0.011302855
0.073615566 -0.055725355 -0.043919787 0.0959824 -0.00039161317 -0.04250165 -0.029463798 -0.025604503
-0.021472098 0.058185957 -0.04763298 0.013852005 0.04949837 0.08610556 -0.07914955 -0.014440744
-0.07875706 0.038089667 -0.04794777 0.049849767 0.1300729 -0.063765876 -0.067012034 0.01404738
-0.033764616 -0.022911733 0.0726639 -0.080425695 -0.07083567 -0.14127 -0.062037498 0.08693718
0.052598417 0.03660657 0.11331295 -0.024346272 -0.032851595 0.042787585 -0.12236437 0.014118471
0.0278239 -0.0060809245 0.008196207 -0.030243387 0.11324954 0.009284025 -0.00040344702 -0.03486678
0.031200044 -0.07664182 -0.010940237 0.09487089 -0.0290159 -0.08009478 0.03088996 0.007427038
0.055466574 0.044204533 0.0047303177 -0.010119072 -0.06238403 -0.0766238 -0.015079183 0.033466987
0.0062712673 0.027399026 0.04898656 -0.091622755 0.02024326 -0.0037748653 -0.007214958 -0.09939957

rnn.bias_ih_l0 f4 [128]
00000000: 4678 8abc 64c7 07bc 94c3 96bc 5821 d23a
00000010: 72d8 8cbd 109a 5db9 b194 dfbc 2719 db3d
00000020: e963 033e daf1 e53d 571d 693b 7db4 1bbd
00000030: 2b9b 9d3d 17a3 27bd b949 ae3c 198a b13c
00000040: 7c83 903d 33af d03c c0d7 7c3d b63f fa3d
00000050: 6823 f3bd 317a 703b 34ab 913c f512 213d
00000060: b888 923c 7ed8 84bd 9262 dbbd 1da3 c0bc
00000070: 78e1 ef3c 43cc ad3c eedc b23c b346 aabd
00000080: 2500 9bbd 081a 113b c645 bf3c f2d5 e23b
00000090: 9035 52bd 9a45 cbbd a0b3 46bd 1d8d 93bd
000000a0: c47c 933c ec73 9fbc c786 b63d fa92 f63c
000000b0: b2a3 84bd d95c 6bbd 8c41 d63c 458a d33d
000000c0: 4a38 f53d 41b0 84bc 9ac0 323d a0d0 e4ba
000000d0: b5dd e23c 7452 03be 39f5 5bbc 3ffa 643c
000000e0: 4c31 4a3d 75d4 c6bd fa21 89bd 29d0 f43d
000000f0: 4f30 c6bd 203e 263d 10c9 0f3e fb79 00be
00000100: 632b 01bd 1e68 723d 77dd 19bd 9efa d6bd
00000110: 5e24 bf3d 5cc6 143c 277a 063d ea4c 833b
00000120: 606c b03b e9f4 8abd c0b6 eebc 9e94 da3c
00000130: 8e3a 2c3d cd6f cfbd a456 523c 6e1e 773d
00000140: c2a8 8ebd 032f 1dbd 042b f5bc b090 2fbc
00000150: d4a9 50bc 3ded 073c 966f bd3d 5da6 bd3c
00000160: 49c2 92bd 0dfd 99bd 8496 6b3d 573b 59bd
00000170: a57f 8ab9 c07b cdbc 041d bfbd c500 7a3d
00000180: 8792 3ebd e428 52bd 6ce0 3f3d 0970 67bd
00000190: 7565 503d 51fc bbbd 7e73 9a3b 61d4 c93d
000001a0: 3a97 923d be2f 873d e6e8 293d 9d7a 16bd
000001b0: 482c ae3c 46fa c13c fa92 a0bd 4892 2cbb
000001c0: db0b a53d 346a 1fbd 38bd 033d 1b7c 23bd
000001d0: 6986 27bd 5dbe 023d 6248 92bc 2524 c3bd
000001e0: 6b87 85bc 28a3 273c 37de 9ebd 7a9e 043d
000001f0: f84e 0ebd 0c94 c53c f578 8abd 4809 1fbd
-0.016903054 -0.0082872845 -0.018403806 0.0016031666 -0.06877221 -0.00021133595 -0.027292581 0.10698157
0.12831081 0.1122777 0.0035570466 -0.038013924 0.076956116 -0.04092702 0.021275388 0.021672295
0.07056329 0.025474166 0.061729193 0.12219183 -0.118719876 0.0036693926 0.017781831 0.03932472
0.017887458 -0.06486605 -0.1071216 -0.023515278 0.029282317 0.021215564 0.021833863 -0.08314266
-0.07568387 0.002214076 0.0233487 0.006922477 -0.051320612 -0.09925385 -0.048511147 -0.072046496
0.018003829 -0.019464456 0.089124255 0.03009938 -0.06476535 -0.057461593 0.026154302 0.10329107
0.11973627 -0.016197326 0.04364071 -0.0017457195 0.027693609 -0.12824422 -0.013425165 0.013975679
0.04936342 -0.09708492 -0.06695934 0.11953766 -0.09677183 0.04058659 0.14041543 -0.12546532
-0.031535517 0.059181325 -0.03756472 -0.1049702 0.09333108 0.009080496 0.032831337 0.0040069716
0.005384013 -0.06784994 -0.029139876 0.026682194 0.04204803 -0.10128746 0.01283804 0.060331754
-0.06965782 -0.038374912 -0.029927738 -0.0107156485 -0.012735803 0.008296308 0.09249799 0.023150617
-0.07165963 -0.07518969 0.05751659 -0.053035107 -0.00026416514 -0.025083423 -0.09331706 0.06103589
-0.046526458 -0.051308528 0.046844885 -0.05650333 0.050878007 -0.09178985 0.004713475 0.09854961
0.071577504 0.06600903 0.041481875 -0.036738027 0.02126135 0.02367891 -0.078405336 -0.0026332308
0.08058902 -0.038919643 0.032162875 -0.039913278 -0.040899668 0.031919826 -0.01785678 -0.095283784
-0.016299924 0.010231771 -0.07757228 0.032377698 -0.03474328 0.024118446 -0.06761352 -0.03882721

rnn.bias_hh_l0 f4 [128]
00000000: 79e6 873d ac61 99bd 2716 083d 12c5 ddbd
00000010: 333b 313d c6d3 68bd e08f 113d b71e 063e
00000020: e724 293c 0a76 ac3d e6ec 0ebd e84c 1fbd
00000030: d065 de3d 9934 27bd 7fb3 78bd 7d03 c33b
00000040: 890c 273e c990 c33d 7688 93bd 404c 113d
00000050: 1549 8b3c 7e13 a9bd 76a6 983c 7cb6 4b3c
00000060: 8c55 b1bc cb29 4bbd c42d 13bc d58f 51bd
00000070: 79b7 58bc ae7a e4bd 53b9 50bd e59c 7e3c
00000080: 56e5 fdbb 2bf2 a1bd eca8 063d 203c 12bd
00000090: a0a7 153d 652c 24be 152c e5bd 8498 b8bd
000000a0: 936e 74bd 2a36 cfbd 3a34 873d 210e ae3c
000000b0: 5afd a73c 7bf8 96bd b95c b5bd 56d8 443e
000000c0: 261b a03d 6439 4b3d 4af6 363d fe91 77bd
000000d0: c8a0 083d dc27 22bd 1eaf 45bd e6dc b23c
000000e0: 53dc e53c 7ff8 29bd dd06 0bbd ac2f 163e
000000f0: dc4c ca3c 0d6e bf3c 8b97 133e 0105 1fbe
00000100: cbda 823d d551 1f3d fbc2 ee3c 2c3b be3c
00000110: 465e c83d 6565 3c3d 1a5a 03be 8d1d 07bc
00000120: dfa8 2ebd a200 473d 1032 39bd 26cb 023d
00000130: 45d7 6ebd b1cb 763d 3705 1f3e b857 15bd
00000140: d40d d0bd 953c 39bd e563 ba3d 6663 0abc
00000150: b65d fc3c 9b75 aebc 0545 a73d b0b2 b43d
00000160: 9837 353d af89 853d 0a29 84bc e1fe 42bd
00000170: 1be2 debd cb98 303d 449d f03c 858c c73c
00000180: 1a7c 8fbd a66b ab3d 308a e9bd 4196 20be
00000190: 4920 243e 78ae 743d 2a66 a2bb 9e64 50bc
000001a0: bfee bebd 7606 c53d a4f7 333d aefe 78bc
000001b0: f128 bcbd 8daf 433c 436b afbd 06b6 0e3e
000001c0: fc79 45bc 376c 3bbd ae38 bdbc 3c91 cf3d
000001d0: a35b b1bd 368b bdbb 1ab9 aabd bf1b d63c
000001e0: 27f2 21bc e7f1 8ebd c457 cbbd bbe3 dabc
000001f0: eede 073d 7306 243c 8da7 f9bd 3b5f 63bc
0.06635756 -0.074893326 0.03322425 -0.10828604 0.043269347 -0.056842588 0.0355376 0.13097654
0.01032374 0.08420952 -0.034893893 -0.038891703 0.10859263 -0.040821645 -0.060718056 0.0059513436
0.16313376 0.095491 -0.07203762 0.03547311 0.017002622 -0.08255671 0.018634062 0.012433644
-0.021647237 -0.049600404 -0.008983079 -0.05116256 -0.013227337 -0.11156212 -0.05095799 0.015540336
-0.0077482862 -0.07907518 0.03287594 -0.03570187 0.036536813 -0.1603256 -0.111900486 -0.09013465
-0.059675764 -0.10117753 0.06601758 0.021246972 0.02050655 -0.07371613 -0.08855576 0.1922315
0.07817678 0.04961528 0.044668473 -0.060441963 0.033356458 -0.039588794 -0.048262708 0.021833848
0.02805916 -0.04149675 -0.033942092 0.14666623 0.024694853 0.023367906 0.14413278 -0.15529253
0.06389388 0.0388964 0.029145708 0.023221575 0.09783606 0.045995135 -0.1282734 -0.008246792
-0.042641517 0.048584588 -0.04521376 0.03193202 -0.058310766 0.06025285 0.15529333 -0.03646061
-0.101588875 -0.04522379 0.091010846 -0.00844655 0.030806404 -0.021296313 0.08167461 0.088231444
0.04424247 0.06520402 -0.01613285 -0.047606353 -0.1088297 0.043114465 0.029371865 0.024358997
-0.07006092 0.08370142 -0.1140331 -0.15682317 0.16027941 0.0597367 -0.0049560266 -0.0127193015
-0.09322881 0.09620373 0.04393734 -0.015197439 -0.091874965 0.01194371 -0.085653804 0.13936624
-0.012053009 -0.0457575 -0.023098316 0.10135123 -0.086600564 -0.0057844175 -0.083360866 0.026136277
-0.009884394 -0.06979733 -0.09928849 -0.026719918 0.033171587 0.010011303 -0.12190161 -0.013877685

linear.weight f4 [6, 128]
00000000: 6fd6 c7bd 844e abbc f07e 993d 7b6c 643c
00000010: 615b 963d 397b d23d e5f5 b6bd 1d33 4e3b
00000020: ca47 0cbd f9a0 ad3d 8c5b dabc 531f 323d
00000030: 0228 c83d 7f16 c33d c8b4 1fbe cdfd de3d
00000040: 184a 8bbc 8cec 133e 1a72 17be 316d eb3d
00000050: 731f 69bb 33cf 073d 6128 f4bb 05f6 163c
00000060: ad48 2bbd 5c96 9a3d 8b98 543c 4e35 acbd
00000070: b620 d6bd 48d2 dabd 0488 e4bd a478 b2bd
00000080: a688 103d 43e0 12be 4fe1 dcbc 5865 bebd
00000090: 087f 0a3e 73da 8bbd 7886 43bd e940 e2bc
000000a0: 9db6 abbd 5601 98bd 7a01 823d ffc5 033e
000000b0: 000e f63d c803 e8bd 941a d13d 9bcd e83d
000000c0: f374 20bd 8927 33bd 2df7 e8bd 31ec 0e3d
000000d0: d5fd f73c bb98 5cbd d2d9 95bd 0b9c 723d
000000e0: aefa 863d 00fe 4fbd d9e8 44bd 9a0c 0c3e
000000f0: 3118 a4bd 1b98 303c f208 e8bb 7631 f2bd
00000100: 9464 493d c6c9 9e3d 7339 6dbd 3a4a 833d
00000110: aa4c 503d dff2 ae3c 8b6a cbbd 523a 06be
00000120: 4756 37bd 3619 b03d 88d6 80bd bc80 d3bb
00000130: 43b7 f1bc c005 63bd 35b0 483d 8920 3339
00000140: 3c22 bdbd 3e84 533d bc2b cf3d 512a bd3d
00000150: fd4c bc3c 52e5 dcbd 1d91 afbc 11d1 b23d
00000160: de10 f6bc 4592 9f3d 2a69 eb3d 3bf8 823d
00000170: 3fea 6a3d 0c42 01be 0ae6 46bc 061b b9bd
00000180: b3db 993d 796c c9bd ace5 74bd 2be9 ae3b
00000190: dc91 13bd 20ca 44bd 54ed 543d 135d e83d
000001a0: c85a 8fbd 1015 96bc 71e2 243c 4cbe 71bb
000001b0: 5d4f 693d 12a0 623d 6628 943d a40a 663d
000001c0: 8d30 18bd d50d 613d 0a14 973d 529f c9bc
000001d0: 63fd 20bc 6b36 643d 0794 82bd 5092 e3bd
000001e0: d871 5c3d d320 75ba 9ed3 093d 4fdf 8ebc
000001f0: 39f1 d83d 956e 83bd 6a4e 3b3d a4d3 f03d
00000200: 9b5b ca3d d8dc 09be 31c0 9fbc 58c7 ac3d
00000210: d9b8 34bc 702f abbc b4f8 7dbd 864a 883d
00000220: 52ac fb3a e727 283d 7a8f d7bc 9f7a 8bbd
00000230: 906b 39bd 1098 2cbd c905 12bb a986 edbd
00000240: d893 c63d a1f1 40bd 5130 803d 60b2 123d
00000250: 61e1 77bb a966 fdbd 344b 153e b12f 853d
00000260: dd39 c43d f03e 0dbe d08e 583d 0089 d73c
00000270: c421 d4bd 94bd 7f3d 4db2 d53d 335b bdbd
00000280: d908 7c3b cab2 c03d 3f7c 0abe 5b12 03be
00000290: 2a6e bdbd a340 62bd 682e f9bc 32e1 b6bd
000002a0: fd20 b3bd b980 87bd 1335 493c ca88 dabd
000002b0: 8e79 6dbd 4fea efbc 3f6a 4abd b197 74bc
000002c0: 2949 6e3d 0380 e93b e8f6 0cbe 5f6b 92bd
000002d0: 5417 f53c 24f7 a13d 09a7 3b3d fdce e23b
000002e0: fb54 9ebd 5f95 fe3b 5ca9 babd d7b6 143e
000002f0: 1df3 263c 75a0 dabd 1f69 aa3d 263d 51bd
00000300: 6569 103e 380e 2c3c c4b2 e0bd 4575 c7bd
00000310: 541a 7a3d 72df 85bd 9039 4abd 9c0e aa3d
00000320: 5604 1abd 6d89 de3d ffb8 313d 0f91 9f3d
00000330: e6a8 fbbd a888 a3bd bf1e 4c3d 4d15 033e
00000340: 2534 b3bd b585 4bbd 0a4a 13be ea89 4fbc
00000350: aba2 933d 7b4a 10bd d1fd c83d ec23 86bd
00000360: 03c5 2c3d a4a4 7c3b ba79 29bd 5598 13be
00000370: 6e24 eabd 5c02 9a3d 8b9f 92bd 5099 e7bd
00000380: 5edc 54bd 4d10 f73d a2c7 e8bd 0e0d d5bc
00000390: d0b5 4a3d 82c3 913d 41d7 d2bd cc1b b8bd
000003a0: 442a fa3d 1361 9a3d ef4b 31bd 208d 86bd
000003b0: d10e c9bd 6567 2bbe 2b79 bc3d de0d 073c
000003c0: d064 a73d f4fa 12be aad5 24ba 6ff7 29bc
000003d0: 1068 9c3c 8c84 9c3d 27a3 4b3d e7d6 cdbd
000003e0: 3e27 483d f877 f238 6648 013d 93c3 f8bd
000003f0: 26fe cf3d f599 d53d 1a1d e9bd 1507 d3bd
-0.09757697 -0.020911463 0.074949145 0.013941879 0.07341648 0.10277409 -0.089336194 0.0031463571
-0.03424815 0.08477969 -0.026654981 0.043486904 0.09773256 0.09525775 -0.15596306 0.108882524
-0.017003104 0.14445704 -0.1478962 0.11495436 -0.0035571724 0.033156585 -0.0074511026 0.009213929
-0.041817356 0.0754821 0.012975822 -0.084086046 -0.10455458 -0.10684639 -0.111587554 -0.087144166
0.035286568 -0.14343362 -0.026962904 -0.092966735 0.13525021 -0.06828775 -0.04773566 -0.027618842
-0.0838444 -0.0742213 0.06347938 0.12868498 0.12014389 -0.11328846 0.102101475 0.11367341
-0.03917403 -0.043738876 -0.1137527 0.03489322 0.030272404 -0.053856593 -0.073169366 0.059230845
0.06590782 -0.050779343 -0.048073623 0.13676682 -0.08012427 0.010778452 -0.0070811445 -0.1182584
0.049168184 0.07753329 -0.057916116 0.06410642 0.050854363 0.021356044 -0.09932431 -0.13108185
-0.044760015 0.085985586 -0.062909186 -0.0064545553 -0.029506331 -0.055425406 0.04899617 0.0001708289
-0.09235045 0.051639788 0.101157635 0.09236587 0.02298593 -0.10785927 -0.0214315 0.087312825
-0.03003734 0.077915706 0.11494668 0.063950025 0.0573523 -0.12622851 -0.0121398065 -0.090383574
0.075126074 -0.09835143 -0.059789345 0.0053378544 -0.036027774 -0.048044324 0.051984146 0.113458775
-0.06999737 -0.01832059 0.010063753 -0.0036887107 0.056960452 0.055328436 0.07234268 0.05616249
-0.037155677 0.054944832 0.07376869 -0.024612103 -0.009826037 0.05571596 -0.0637589 -0.11111891
0.053819507 -0.00093508995 0.03364908 -0.017440466 0.105928846 -0.06417576 0.04572908 0.11759117
0.098807536 -0.13463151 -0.019500824 0.08436459 -0.011030399 -0.020896643 -0.06200476 0.06654839
0.0019201136 0.04105368 -0.026313532 -0.068104975 -0.045268595 -0.042137206 -0.002228128 -0.1159795
0.09696168 -0.047105435 0.062592156 0.035814643 -0.0037823545 -0.123730965 0.14579469 0.06503237
0.09581349 -0.1379354 0.05287057 0.026310444 -0.10358003 0.062436655 0.10434399 -0.092459105
0.0038457422 0.09409101 -0.13523959 -0.12799971 -0.09249528 -0.055237424 -0.030417636 -0.08929671
-0.087465264 -0.06616349 0.01228072 -0.10670622 -0.05797725 -0.029286532 -0.04941773 -0.014928744
0.05817524 0.007125856 -0.13766062 -0.07149386 0.02991835 0.079084665 0.045813594 0.0069216476
-0.077310525 0.0077692713 -0.09114334 0.14522873 0.010189799 -0.10675136 0.083208315 -0.051083706
0.14102705 0.010501437 -0.10971597 -0.09739164 0.061060265 -0.065367594 -0.049371302 0.08303568
-0.03760179 0.10866056 0.043389317 0.077913396 -0.12288074 -0.079850495 0.04983401 0.12801094
-0.0875018 -0.04968806 -0.14383712 -0.012667159 0.07208761 -0.03522728 0.09814037 -0.0654982
0.042180073 0.0038550282 -0.041375853 -0.14413579 -0.1143273 0.07519981 -0.07159337 -0.11308539
-0.05196797 0.12063656 -0.11366202 -0.026007202 0.049489796 0.07117368 -0.10294963 -0.08989677
0.12215093 0.07538047 -0.043285307 -0.06569886 -0.09817279 -0.1673866 0.092027985 0.008243052
0.08173525 -0.14353544 -0.0006287942 -0.010373934 0.01909259 0.07642469 0.04971614 -0.10050755
0.04886555 0.00011561805 0.031563185 -0.12146678 0.10155897 0.104297556 -0.11382504 -0.10304085

linear.bias f4 [6]
00000000: e7ff b73d 9d46 10bd ceaa 713d b473 57bd
00000010: 21e3 c7bc 431f 96bd
0.089843564 -0.035223592 0.059000783 -0.052600577 -0.024400296 -0.073301814
