jchuang/homework/week03/model.pth (torch, 14318 bytes, 7 tensors)

embedding.weight f4 [28, 30]
0	0x3e6128ec	0.21988267
1	0x3f37d5c3	0.7181055
2	0x3f1c9645	0.61166793
3	0x3f7598d9	0.9593635
4	0xbf3c5247	-0.73563045
5	0x3e7599a8	0.23984396
6	0x3f9abcce	1.2088869
7	0xbf69c605	-0.9131778
8	0x3ef9e716	0.48809117
9	0x3fe66ec7	1.8002557
10	0xc01ceb81	-2.451874
11	0x3f0b2b14	0.54362607
12	0xbfbe079d	-1.4846073
13	0x3d3b5d52	0.045743294
14	0xbfe62efb	-1.7983087
15	0x3da946fb	0.082654916
16	0xc025b25d	-2.5890114
17	0xbe4fdefc	-0.20299906
18	0xbfd67a7f	-1.6756133
19	0xbfb46498	-1.4093199
20	0x3f9e7d34	1.2381959
21	0x3eced274	0.40394938
22	0x3d0440e6	0.032288454
23	0xbe5b5ef4	-0.2142294
24	0xbe969876	-0.29413193
25	0xbf5b7b9c	-0.8573549
26	0xbf23c1df	-0.639677
27	0x3de1891c	0.1101248
28	0xbf906366	-1.1280334
29	0xbfe5345d	-1.7906605
30	0xbebd57f6	-0.3698117
31	0xbf3e11f1	-0.74246126
32	0xbfab357f	-1.3375701
33	0xbed4f19a	-0.41590577
34	0x3e1b880f	0.15188621
35	0xbff4bbdf	-1.9119834
36	0xbfa7c18d	-1.3105942
37	0xbf8fa04f	-1.1220797
38	0xbd39d98a	-0.045373477
39	0xbdfb269f	-0.12263226
40	0x3ff95e07	1.948182
41	0xbf394dbd	-0.72384244
42	0x3e65d6c2	0.22445205
43	0xbf6dbbb4	-0.9286454
44	0x3ef2c03f	0.47412297
45	0xbcb7c4ca	-0.022432704
46	0xbfcde387	-1.6085061
47	0xbf0f0574	-0.55867696
48	0xc013f043	-2.3115394
49	0xbf2d926b	-0.6780154
50	0x3e191749	0.14950289
51	0xbfe4b2d0	-1.7867069
52	0xbf89a2d5	-1.0752817
53	0x3f8656d5	1.0495249
54	0xbfcda16f	-1.6064891
55	0xbffe7b46	-1.988137
56	0xbea19873	-0.31561622
57	0x3f3e8000	0.7441406
58	0xbf961e8c	-1.1728072
59	0xbfcb0e8e	-1.5863817
60	0x3f988fc4	1.1918874
61	0xbf1cb02b	-0.6120631
62	0x3e010229	0.1259848
63	0xbfbb8a78	-1.4651632
64	0x3fdce2c5	1.7256705
65	0x3f9575e1	1.1676599
66	0xbe295a6e	-0.16538402
67	0xbfbf74a1	-1.4957467
68	0xbf9b0be4	-1.2113004
69	0xbeb2cedd	-0.3492345
70	0x3f4d3365	0.80156547
71	0x3ec22e49	0.37925938
72	0x3f4de992	0.80434525
73	0xbfd172d2	-1.6363165
74	0xbf39c6a6	-0.7256874
75	0x3e986b0e	0.29769176
76	0xc0027219	-2.038214
77	0x3f4e39b8	0.8055682
78	0x40053034	2.081067
79	0x3e7f9f23	0.2496305
80	0x3ef2653b	0.47342858
81	0x3b8560fa	0.0040703984
82	0xbe729270	-0.23688674
83	0x3fe91fc4	1.8212819
84	0xbfb3ce60	-1.4047356
85	0x3db6821b	0.089115344
86	0xbf422d85	-0.7585071
87	0xbfa25c41	-1.2684404
88	0xbca800f5	-0.020508269
89	0x3d0a0ab3	0.03370161
90	0x3d8c8540	0.06861353
91	0xbf8504ea	-1.0392125
92	0x3f88d97c	1.0691371
93	0x3ed91e9e	0.42406172
94	0x3f941282	1.1568148
95	0xbf11e9ae	-0.5699719
96	0x3f1f39ee	0.6219777
97	0x3d693688	0.05693677
98	0xc0079bcf	-2.1188848
99	0x3ee67e83	0.45018396
100	0x3e32145a	0.17390576
101	0x3f6a3684	0.91489434
102	0xbf4ce063	-0.80029887
103	0xbdb992da	-0.09061213
104	0xbf4abaeb	-0.79191464
105	0xbf3ad1d5	-0.7297643
106	0x3f3b837b	0.732475
107	0x3f393ff1	0.7236319
108	0xbfa0acc5	-1.2552725
109	0x3ea1a2c9	0.31569508
110	0x4000e61c	2.0140448
111	0x3f82be82	1.0214388
112	0x3e55330e	0.20820257
113	0xbfbc20d4	-1.4697518
114	0xbe2f7743	-0.17135338
115	0xbec8da3d	-0.39229003
116	0xbe178da7	-0.1480013
117	0xbf426980	-0.7594223
118	0xbea7ae7b	-0.32750306
119	0xbfb6af45	-1.4272238
120	0x3dfe2bc0	0.124106884
121	0xbbc3b81f	-0.0059728767
122	0xbee5f3dc	-0.44912612
123	0x3fd0b998	1.6306639
124	0x3eefb26b	0.4681581
125	0xbf6669be	-0.900051
126	0x3f5d6e9d	0.8649691
127	0xbb756aa4	-0.0037447596
128	0xbf959ef4	-1.1689134
129	0xbeea6c05	-0.45785537
130	0xbfd1542a	-1.635381
131	0x3f40c8e3	0.7530653
132	0xbec1c5d7	-0.37846252
133	0xbe120b92	-0.14262226
134	0xbe05a7fa	-0.13052359
135	0xbd38cb9f	-0.045116063
136	0x3f63fd4b	0.8905837
137	0x3fe2b1cd	1.771051
138	0xbe1fd9fa	-0.15610495
139	0xbef1b98c	-0.47211874
140	0xc0103a4a	-2.2535577
141	0xbf161390	-0.586236
142	0x405422a7	3.314615
143	0x3e7da4b1	0.24769856
144	0xbebbed3a	-0.36704427
145	0xbece04c3	-0.40238008
146	0x3d08c1b7	0.033387866
147	0x3f506383	0.8140184
148	0x3f99c33d	1.2012707
149	0xbf0ee0f6	-0.55812013
150	0x3fcfcda0	1.6234627
151	0x401d5f78	2.458952
152	0x3f0d70cb	0.55250233
153	0xbeacb0de	-0.3372869
154	0xbf8a5715	-1.0807825
155	0xbfbace1d	-1.4594151
156	0xbdff4ba2	-0.12465598
157	0xbf8dd873	-1.108168
158	0xbfade0d6	-1.358424
159	0x3eb5a018	0.35473704
160	0xc01064cc	-2.2561522
161	0xbefd3e7a	-0.49461728
162	0x3ebf982d	0.37420788
163	0x3ed2a82f	0.4114394
164	0xbf3239d2	-0.69619477
165	0x3f930b22	1.1487772
166	0x3f5039bc	0.81338096
167	0x3f0c1139	0.5471378
168	0xbee4f256	-0.44716138
169	0x3d92f20c	0.07175073
170	0x3e934390	0.28762484
171	0x3e9e4533	0.3091217
172	0x3f4b85d1	0.7950106
173	0x3e5b1bb7	0.21397291
174	0xbf2bd0a1	-0.6711522
175	0xc025ae76	-2.5887733
176	0x3f0ffe80	0.5624771
177	0xbbbab4a4	-0.0056978036
178	0x3e6d28d9	0.23160113
179	0x3ee543f5	0.4477841
180	0x3ff4e4ff	1.9132384
181	0xbf55e63b	-0.8355443
182	0x3f0d5d84	0.5522082
183	0x3e8f6d4c	0.28013074
184	0xbea43816	-0.3207404
185	0x3ebcbde8	0.36863637
186	0xbfcb834b	-1.5899442
187	0x3f717635	0.94320995
188	0xbf7e91d3	-0.9944126
189	0x3f3a8b24	0.7286856
190	0xbfc75c19	-1.5574981
191	0x3fa49ef1	1.2861005
192	0x3f67de2b	0.90573376
193	0x3c92443e	0.017854806
194	0x3ff9c903	1.9514469
195	0x3f7275a9	0.94710785
196	0xbe8619d3	-0.26191577
197	0x3fa09955	1.2546793
198	0xbf4a169b	-0.78940743
199	0xbf5e8f00	-0.8693695
200	0xbf3c134b	-0.7346694
201	0x3fdf1e69	1.7431155
202	0xbe61a0c9	-0.22033991
203	0x3f4fc336	0.81157243
204	0xbf394673	-0.7237312
205	0xbf1470f1	-0.57984835
206	0x3f5101ba	0.8164326
207	0xbfb21639	-1.3913032
208	0x3f3720fa	0.71534693
209	0x3ede8d36	0.4346711
210	0xbfa6529b	-1.2993959
211	0x3e8865c5	0.26640144
212	0x3f17f270	0.59354305
213	0x3f363d1d	0.71187
214	0xbeffff57	-0.49999496
215	0x3f685a24	0.90762544
216	0x3e5cd453	0.2156537
217	0x3f5b71df	0.8572063
218	0xbf169062	-0.5881406
219	0x3e522c28	0.20524657
220	0x3e0c177c	0.13680834
221	0x3fba438b	1.4551862
222	0xbf589aa8	-0.84610987
223	0xbf6c4630	-0.922946
224	0xbf0a72d1	-0.54081446
225	0xbf9b4c7e	-1.2132719
226	0x3ee1f345	0.44130912
227	0xbf67c921	-0.90541273
228	0xbcde5b10	-0.027143031
229	0x3fb1a027	1.3877
230	0x3f30be51	0.690404
231	0xbf2e4cce	-0.68085945
232	0x3f8dfdea	1.1093113
233	0x3fd1cb80	1.6390228
234	0x40053da0	2.0818863
235	0xbeadade9	-0.33921745
236	0xbe196387	-0.14979373
237	0x3fac1f9b	1.3447145
238	0xbe483f25	-0.19555338
239	0xbf2a53bd	-0.66534024
240	0x3f9eb9b1	1.2400419
241	0xbfc2cb8d	-1.5218369
242	0xbaf6871c	-0.0018808576
243	0x3f98dd20	1.1942482
244	0x3f2290d6	0.6350225
245	0x3ede4ca6	0.43417853
246	0x3f1dd05a	0.61646044
247	0x3f2c9aa8	0.67423487
248	0x3e3f7007	0.18695079
249	0x3f8b5194	1.0884271
250	0x3ef3dcd6	0.47629422
251	0xbca820ba	-0.020523418
252	0x3e9d13e4	0.30679238
253	0xbfb03b8d	-1.3768173
254	0xbe0bc3d0	-0.13648915
255	0xbf302fb6	-0.688228

rnn.weight_ih_l0 f4 [30, 30]
0	0xbdabe0dc	-0.08392498
1	0x3cef61b4	0.029221393
2	0xbd7dc471	-0.06195492
3	0xbd4b7575	-0.049672563
4	0x3d9f7caf	0.077874534
5	0x3c8febfe	0.017568585
6	0xbd620ef3	-0.055190038
7	0x3e178ee5	0.14800604
8	0x3e0e6729	0.1390654
9	0x3c8e61a8	0.01738055
10	0xbbf0a80e	-0.0073442524
11	0xb92d865f	-0.00016548623
12	0xbd8c8206	-0.068607375
13	0xbe3a59c6	-0.18198308
14	0x3e2fc88a	0.17166343
15	0xbd2123b0	-0.039340675
16	0x3e2309e8	0.15921748
17	0x3deb05f0	0.11475742
18	0x3e069243	0.13141732
19	0xbd73f885	-0.05956318
20	0xbca4e86f	-0.020130364
21	0x3da5ab00	0.08089256
22	0xbdcfee8e	-0.101529226
23	0xbe01624c	-0.12635154
24	0xbdce8545	-0.10084013
25	0xbe0aff2e	-0.13573906
26	0xbd881440	-0.066444874
27	0x3d82ac2a	0.06380494
28	0x3dfa48c5	0.12220911
29	0xbd4bc1da	-0.049745418
30	0x3cceb37e	0.025232073
31	0x3d802db4	0.06258717
32	0x3d29cf5c	0.04145752
33	0xbd98ff04	-0.07470515
34	0xbd83d9c9	-0.064380236
35	0x3d036c0a	0.032085456
36	0x3d8b66b4	0.068066984
37	0xbde3ec16	-0.11129014
38	0x3e0ebb81	0.13938715
39	0xbdde88b8	-0.10865921
40	0xbc32e7aa	-0.010919491
41	0xbdcea3a4	-0.10089806
42	0x3e231b4d	0.15928383
43	0x3d970b01	0.07375146
44	0x3d92d6db	0.07169887
45	0xbdba7aa5	-0.09105424
46	0x3ca53d23	0.020170754
47	0x3dc34fdf	0.095367186
48	0xbcdfd325	-0.027322361
49	0x3ded244c	0.11579189
50	0xbdf1cb52	-0.118063584
51	0x3da8f947	0.08250671
52	0xbcb3421c	-0.02188211
53	0xbcf0be49	-0.02938761
54	0x3e3f5707	0.18685542
55	0xbded5fc8	-0.115905344
56	0xbd91ccd4	-0.07119146
57	0x3d96c045	0.07360891
58	0xbdc357a8	-0.095382035
59	0xbc4156ec	-0.011800509
60	0xbdcfe12e	-0.101503715
61	0x3dcfd05e	0.10147165
62	0x3e6aaaa7	0.22916661
63	0x3d39a576	0.04532381
64	0xbe342658	-0.17592752
65	0x3e139640	0.14412785
66	0x3e60f28f	0.21967529
67	0xbdaed1ba	-0.08536096
68	0xbdeedcb9	-0.11663193
69	0xbdf24d80	-0.11831188
70	0x3d8191ee	0.06326662
71	0x3d05e09e	0.032684915
72	0xbe3c4e0f	-0.18389152
73	0x3cab296f	0.02089378
74	0x3dc34e3c	0.095364064
75	0x3c863162	0.01638097
76	0xbd7f6ee8	-0.062361628
77	0xbb84e39b	-0.004055453
78	0x3e30ed15	0.1727794
79	0xbbae5e22	-0.00532128
80	0xbd560930	-0.052254856
81	0x3e66fbf7	0.22557054
82	0xbb173c4f	-0.0023076718
83	0x3cc67cd8	0.024229452
84	0x3e2a4efe	0.16631696
85	0x3d5b3859	0.053520534
86	0xbc643512	-0.013928669
87	0xbc081ab3	-0.008307147
88	0x3d43452e	0.047673397
89	0x3e54952a	0.20760027
90	0xbd6264b8	-0.055271834
91	0x3e0f3d05	0.13988121
92	0x3d34ae38	0.04411146
93	0x3de570de	0.11203168
94	0xbd2c2c46	-0.04203441
95	0xbc35c324	-0.011093888
96	0x3da2e12f	0.079531066
97	0x3de1dedb	0.110288344
98	0x3d994e1e	0.07485603
99	0xbde2b92b	-0.11070474
100	0x3d619688	0.0550752
101	0x3daebe5e	0.085324034
102	0x3d56aba7	0.052409794
103	0xbcab1847	-0.0208856
104	0x3e34ef02	0.17669299
105	0xbbc493e9	-0.0059990776
106	0xbdd454c8	-0.10367733
107	0xbd8453d5	-0.06461302
108	0xbe19bdb3	-0.15013771
109	0x3d9d6a72	0.076863185
110	0x3d3fe1c2	0.04684616
111	0x3cd9cef3	0.026587939
112	0xbceeb713	-0.029140031
113	0x3cabd6eb	0.020976504
114	0xbc983e43	-0.018584376
115	0xbbd5c402	-0.00652361
116	0xbdcc8013	-0.09985366
117	0xbcff3f91	-0.03115824
118	0xbd4c9987	-0.049951103
119	0xbd67d3be	-0.056598417
120	0xbc0d1393	-0.008610624
121	0xbdc856aa	-0.09782155
122	0xbe51f959	-0.20505275
123	0x3dd1115e	0.10208391
124	0xbca838ab	-0.020534834
125	0xbe395a00	-0.18100739
126	0xbe062ccb	-0.13103025
127	0xbe176fcd	-0.14788742
128	0x3cae0e38	0.021247014
129	0xbd969de5	-0.07354335
130	0x3e6102dd	0.21973749
131	0x3dc2891d	0.094988085
132	0x3dd7a8bd	0.10530231
133	0xbd3f3fad	-0.046691585
134	0x3e138546	0.14406309
135	0x3d44b70f	0.04802614
136	0xbe3e971e	-0.18612334
137	0x3da3d606	0.07999806
138	0xbe4b7337	-0.1986817
139	0x3d5d8014	0.054077223
140	0xbc97f3ec	-0.018548928
141	0xbc058e91	-0.008151666
142	0xbe197764	-0.1498695
143	0xbd650e1f	-0.05592167
144	0xbd5d1ec5	-0.053984422
145	0xbe5207b3	-0.2051075
146	0x3de37d80	0.111079216
147	0x3d8bf8d3	0.06834569
148	0xbd9d9c7d	-0.076958634
149	0xbdb5e632	-0.08881797
150	0x3dfc5531	0.123209365
151	0x3e166634	0.14687425
152	0x3de85425	0.11344174
153	0xbd867db5	-0.065669455
154	0x3d8a8652	0.06763901
155	0x3e619a4a	0.22031513
156	0xbc21159f	-0.009831815
157	0xbd994446	-0.07483725
158	0x3d8a40d1	0.06750644
159	0x3cff074b	0.031131407
160	0xbd5c1c2a	-0.053737797
161	0x3e12c369	0.14332356
162	0x3b5331f6	0.0032225824
163	0x3d09d038	0.03364584
164	0x3dc61fd1	0.09674037
165	0x3e292440	0.16517735
166	0x3d95a95b	0.073076926
167	0xbd3add3f	-0.045621153
168	0xbc1a5739	-0.00942021
169	0xbdc4cc1b	-0.096092425
170	0x3daf8072	0.08569421
171	0x3c453366	0.01203618
172	0x3cf327e5	0.02968211
173	0xbe028daf	-0.1274936
174	0x3d95ac8e	0.07308303
175	0x3e38fe49	0.18065752
176	0x3c9ededb	0.019393375
177	0x3ca8063e	0.020510789
178	0x3da0adb3	0.078456305
179	0x3e17a0b3	0.14807396
180	0x3ccb8991	0.02484587
181	0xbdc34934	-0.09535447
182	0xbe48d473	-0.19612293
183	0xbced6f22	-0.028983656
184	0xbcc6fd93	-0.024290835
185	0xbe1010c9	-0.14068903
186	0x38a597fa	7.896121e-05
187	0xbb9439b4	-0.0045234803
188	0x3c5ff799	0.013669872
189	0xbc0a2f01	-0.008434058
190	0x3dfe8166	0.124270245
191	0xbdbb87ef	-0.09156787
192	0x3e6a4027	0.22876035
193	0xbcbb4e42	-0.022864465
194	0x3d4d3eb6	0.050108634
195	0xbe7e1754	-0.24813586
196	0xbd185c06	-0.037197135
197	0xbd5ca5ec	-0.053869173
198	0xbe1eb9c3	-0.1550055
199	0x3cb40190	0.021973401
200	0xbda3b02e	-0.07992588
201	0x3ca51965	0.02015371
202	0xbcba735a	-0.022760082
203	0xbd4ec743	-0.050483
204	0xbe6ac7f8	-0.22927845
205	0xbe8fc015	-0.28076234
206	0xbdd26616	-0.102733776
207	0x3e974702	0.29546362
208	0xbca4f700	-0.02013731
209	0xbe814af2	-0.2525249
210	0xbde8adf3	-0.11361303
211	0xbe198dfd	-0.1499557
212	0x3b16e6fb	0.0023025859
213	0x3ca90d24	0.020636149
214	0xbd1373b6	-0.035999022
215	0xbdd2a06e	-0.10284506
216	0x3cd47ce8	0.025938466
217	0xbdf03704	-0.117292434
218	0x3d017198	0.031602472
219	0xbdaadf5c	-0.08343384
220	0x3d90b787	0.07066255
221	0xbd9ba35c	-0.07599518
222	0x3ddb4fe5	0.10708598
223	0xbd94607f	-0.07244968
224	0x3d81a7bf	0.06330823
225	0x3d77fcdb	0.060543876
226	0xbc8b9a2f	-0.017041294
227	0x3e28226b	0.1641938
228	0xbdb63f12	-0.088987485
229	0x3bf4cee3	0.007470952
230	0x3cdd07ed	0.026981318
231	0x3d04ef3b	0.03245471
232	0x3d910676	0.070813105
233	0xbde920f3	-0.11383238
234	0xbddaa626	-0.106762215
235	0xbc791f8f	-0.015205278
236	0x3afc4176	0.0019245583
237	0x3e0af6d4	0.1357072
238	0x3df6b837	0.12046855
239	0x3d238ee8	0.039931208
240	0xbbd0ec8e	-0.0063758558
241	0xbc97e18f	-0.018540172
242	0xbe0b660f	-0.13613151
243	0xbd6255c1	-0.055257563
244	0xbe03c41a	-0.12867776
245	0xbde7947a	-0.113076165
246	0xbe056ea9	-0.13030495
247	0xbe2f1e8c	-0.17101496
248	0xbe0a5a67	-0.13511048
249	0xbdb878af	-0.090073936
250	0x3e2674eb	0.16255538
251	0xbc50418b	-0.012710939
252	0xbd64942b	-0.055805366
253	0xbe4e9572	-0.20174196
254	0x3e01c70f	0.12673591
255	0x3d53e930	0.051736057

rnn.weight_hh_l0 f4 [30, 30]
0	0x3d96ebbd	0.07369182
1	0x3bbedbf4	0.0058245603
2	0xbe7ccacf	-0.2468674
3	0xbdd2391c	-0.10264799
4	0x3e93bb09	0.28853634
5	0xbe35c7d1	-0.17752005
6	0x3e52d074	0.20587331
7	0xbcad8ab0	-0.021184295
8	0xbdff293a	-0.12459035
9	0x3b93aae4	0.0045064557
10	0xbd9a4683	-0.0753298
11	0x3e15397d	0.14572711
12	0xbbd94069	-0.0066299927
13	0x3d48efbc	0.049056754
14	0x3eb873af	0.3602576
15	0x3dfea7a3	0.12434318
16	0x3e7bb75f	0.2458167
17	0x3a69b5f0	0.00089153554
18	0x3e110f60	0.14166021
19	0xbd8f15d2	-0.06986584
20	0x3dadc829	0.08485443
21	0xbe169537	-0.14705358
22	0xbdc61946	-0.09672789
23	0xbeb26331	-0.34841302
24	0x3e0c72a4	0.13715607
25	0xbb6ae8c9	-0.0035844317
26	0x3cd1382c	0.02553948
27	0x3e593456	0.21211371
28	0xbc9bd7d3	-0.019023811
29	0x3ec09e3d	0.37620726
30	0xbdae9630	-0.0852474
31	0x3e82bf87	0.2553675
32	0xbe3f574d	-0.18685646
33	0x3d98847c	0.074471444
34	0x3d99e7cf	0.07514917
35	0xbd34da80	-0.04415369
36	0x3d63479d	0.055488218
37	0xbdba824d	-0.09106884
38	0x3e842350	0.2580819
39	0x3e4bcc74	0.19902211
40	0xbe1306c5	-0.14358051
41	0xbe1e0341	-0.15430929
42	0x3cd804cf	0.02636948
43	0xbe86e035	-0.2634293
44	0x3e5760de	0.21033046
45	0xbcc84b5f	-0.024450002
46	0xbcd9859a	-0.026552964
47	0xbe930179	-0.2871206
48	0x3e8a90c0	0.2706356
49	0xbdf49da4	-0.1194413
50	0x3df3a3b0	0.11896455
51	0xbe87cecf	-0.2652497
52	0x3d96bbd5	0.07360045
53	0xbe71da62	-0.23618463
54	0x3ddabf14	0.106809765
55	0xbd903b0c	-0.07042512
56	0xbe7b0ce8	-0.24516642
57	0x3e4b0701	0.1982689
58	0x3d54947c	0.05189942
59	0x3e578b32	0.21049193
60	0xbd1569b7	-0.03647777
61	0x3e2efa14	0.17087585
62	0x3e2337be	0.15939233
63	0xbcbec02d	-0.023284996
64	0xbc84e1d5	-0.016220966
65	0x3dfb5a5c	0.12273094
66	0x3cf73ea4	0.030181237
67	0xbe3f51e3	-0.18683581
68	0xbd8ae1d7	-0.06781357
69	0xbe362110	-0.1778605
70	0x3d46d04e	0.0485385
71	0x3e33d1a8	0.17560446
72	0x3e1551e4	0.1458202
73	0x3e23ebaf	0.16007875
74	0xbd224fbf	-0.039626833
75	0x3dbfb014	0.09359756
76	0xbc5d95cb	-0.013524483
77	0x3e8945df	0.2681112
78	0xbe42d6a4	-0.19027191
79	0xbe18fe9f	-0.1494088
80	0xbe7dd046	-0.24786481
81	0x3e9e50d0	0.3092103
82	0xbe8b34ac	-0.27188623
83	0xbd8759d8	-0.06608933
84	0xbe2c164e	-0.16805384
85	0xbd6e4c36	-0.05817815
86	0x3ac9cade	0.0015395542
87	0xbd4dbca9	-0.05022875
88	0x3e621973	0.2208002
89	0x3dffb090	0.124848485
90	0x3e59a214	0.21253234
91	0x3e620235	0.22071154
92	0xbe351426	-0.17683467
93	0x3d604d8b	0.05476145
94	0x3ca06e63	0.019583886
95	0xbe101ef9	-0.14074315
96	0x3e0c7a87	0.13718615
97	0xbd5b4023	-0.053527962
98	0xbca82806	-0.020526897
99	0xbd12fa85	-0.035883445
100	0x3cb09ec0	0.021560073
101	0x3de65b12	0.11247839
102	0xbcaa6347	-0.020799292
103	0xbe33a067	-0.17541657
104	0x3e5a40ec	0.21313828
105	0x3e8b1a35	0.27168432
106	0x3e0c4304	0.1369744
107	0x3e185366	0.14875564
108	0x3e82cc44	0.25546467
109	0x3d9dc0b9	0.077027746
110	0x3e1c474c	0.15261573
111	0x3d802588	0.062571585
112	0x3e65c982	0.2244015
113	0xbd61bc34	-0.055111125
114	0xbe1210b0	-0.14264178
115	0xbde4caef	-0.11171519
116	0x3e6eda1d	0.23325391
117	0x3e64e37d	0.22352405
118	0x3d52b329	0.05144039
119	0xbc006b88	-0.007838137
120	0x3d604135	0.054749686
121	0x3d99cd61	0.07509876
122	0x3d3b5854	0.045738533
123	0xbd292596	-0.04129561
124	0x3e5646f2	0.20925501
125	0xbdf22396	-0.11823194
126	0xbbedabce	-0.0072531467
127	0x3e8612cf	0.26186225
128	0xbdb7f2dd	-0.08981869
129	0xbc16c95e	-0.009203283
130	0x3ced71c6	0.028984915
131	0x3e6ae5da	0.22939244
132	0x3e050765	0.12991102
133	0xbdf51b78	-0.1196813
134	0xbdbc9b65	-0.09209327
135	0x3d84139f	0.06449055
136	0x3dfb22fc	0.12262532
137	0xbe640353	-0.22266893
138	0x3e8b642e	0.2722487
139	0xbc6eae94	-0.01456799
140	0xbd2c97f9	-0.04213712
141	0x3e0dfe23	0.13866477
142	0x3d7c1c08	0.06155017
143	0xbcca4cb5	-0.02469478
144	0xbdf31a08	-0.118701994
145	0xbe46b5d2	-0.19405296
146	0xbb971194	-0.00461025
147	0xbd6d30d6	-0.0579079
148	0xbe247b5a	-0.1606268
149	0x3e5a7ec3	0.21337418
150	0x3e2a3e34	0.16625291
151	0xbc70343d	-0.014660892
152	0x3e8c155f	0.27360055
153	0xbc0caa93	-0.00858559
154	0xbd9efab4	-0.077626616
155	0xbe0a2801	-0.13491823
156	0x3c21e945	0.009882276
157	0xbc8d93c8	-0.017282382
158	0xbcb25104	-0.021767147
159	0xbe3f4dd3	-0.18682031
160	0xbe6088fe	-0.21927258
161	0x3dcefafc	0.10106465
162	0xbb01e85f	-0.0019822342
163	0x3d11b112	0.035569258
164	0xbebf8b05	-0.3741075
165	0xbe23ef41	-0.16009237
166	0xbdb1615b	-0.08661147
167	0xbe207c71	-0.1567247
168	0x3ca03b5d	0.019559557
169	0x3e8ada84	0.2711984
170	0xbe539ce7	-0.20665322
171	0x3e12dc88	0.14341938
172	0x3d6745f7	0.056463208
173	0x3e83c763	0.25738057
174	0x3d9ba287	0.07599359
175	0x3cdf089f	0.02722579
176	0xbdc85296	-0.09781377
177	0x3d80adcf	0.06283151
178	0x3d3be47e	0.045872204
179	0xbe45253c	-0.19252485
180	0xbdb2bba3	-0.08727195
181	0x3df31573	0.118693255
182	0x3dbfaeba	0.09359498
183	0x3d1d4c2c	0.03840272
184	0xbdbcf635	-0.09226648
185	0x3d60ce63	0.054884326
186	0x3d1ce9b8	0.03830883
187	0x3e8aca63	0.27107534
188	0x3dd83c92	0.10558428
189	0x3e6a19ca	0.228614
190	0x3b3c97e4	0.0028777057
191	0xbd6f4afb	-0.058421116
192	0xbda8b9e9	-0.082385845
193	0xbe11c941	-0.14236929
194	0xbcaca7a4	-0.021076031
195	0x3e05d708	0.13070309
196	0x3e3b17a3	0.18270735
197	0xbe70a621	-0.23500873
198	0xbdaedf65	-0.08538703
199	0x3e6bef39	0.23040475
200	0x3d8e1bcb	0.06938895
201	0xbdb11908	-0.086473525
202	0x3e75aed2	0.2399247
203	0xbdb518f1	-0.08842648
204	0xbe2a2377	-0.16615091
205	0xbdfcce33	-0.12344017
206	0xbd1af247	-0.03782871
207	0x3c95daff	0.018292902
208	0xbe286f57	-0.16448723
209	0xbe02cedd	-0.12774225
210	0x3eb9c664	0.36284173
211	0x3d02b4fd	0.031910885
212	0x3e7ddcc0	0.2479124
213	0xbc0fbe39	-0.00877338
214	0x3e7d28d9	0.24722613
215	0xbea06f63	-0.3133498
216	0xbdbccfc3	-0.09219315
217	0x3de1dbe8	0.11028272
218	0x3d45a7ed	0.04825585
219	0x3de8ef96	0.113738224
220	0x3e48a1dd	0.19592996
221	0xbc0c109f	-0.008548885
222	0x3eb1dd7b	0.3473929
223	0xbd15a070	-0.03652996
224	0xbd1f23ac	-0.03885238
225	0xbd5ac04e	-0.053406052
226	0x3e1a8c7d	0.15092655
227	0xbe7eb5af	-0.24873994
228	0x3e0a4354	0.13502246
229	0xbe8881b8	-0.26661468
230	0xbdb5257c	-0.0884504
231	0xbc925243	-0.017861491
232	0xbe15eed6	-0.1464189
233	0x3e4c59e3	0.19956164
234	0xbe7590d9	-0.23981036
235	0xbd8a492a	-0.06752236
236	0x3e0c6ec5	0.1371413
237	0x3d9ceefd	0.07662771
238	0xbdf46ff5	-0.119354166
239	0x3e7664cd	0.2406189
240	0x3e5c2001	0.21496584
241	0x3e88ae37	0.26695415
242	0xbe9019a5	-0.28144565
243	0x3da939a0	0.08262944
244	0xbe19a0ac	-0.15002698
245	0x3c1b28e7	0.009470201
246	0x3d1d3607	0.038381603
247	0x3e0f4af1	0.13993432
248	0xbe0d3489	-0.13789572
249	0xbd5c65a7	-0.05380788
250	0x3d6f6790	0.058448374
251	0x3d9f84b4	0.07788983
252	0xbe5f9bcc	-0.21836776
253	0xbeaa5090	-0.3326459
254	0x3e609e1d	0.21935315
255	0x3d10dcf6	0.035366975

rnn.bias_ih_l0 f4 [30]
0	0xbdf6fe28	-0.12060195
1	0xbe27170a	-0.16317382
2	0x3e53ab38	0.20670784
3	0xbc6970f1	-0.014248119
4	0xbe3fc83e	-0.1872873
5	0x3e19b94f	0.15012096
6	0xbd251d2b	-0.04031102
7	0xbddb9f53	-0.10723748
8	0xbe1b3060	-0.15155172
9	0x3d5f0829	0.05445114
10	0xbe526a51	-0.20548369
11	0xbdabb100	-0.083833694
12	0xbced49df	-0.028965889
13	0x3e3f32fa	0.1867179
14	0xbe726824	-0.23672539
15	0xbe3affbe	-0.1826162
16	0x3d54912f	0.05189627
17	0x3bec9cb9	0.0072208312
18	0xbd590c70	-0.052990377
19	0x3e77ed40	0.24211597
20	0x3df62c93	0.120202206
21	0x3e164052	0.14672974
22	0x3d80d5b8	0.062907636
23	0xbd82854e	-0.06373082
24	0x3dc80179	0.09765906
25	0x3e0edabd	0.1395063
26	0xbdea2c61	-0.11434246
27	0xbe478b47	-0.19486724
28	0xbe0d1918	-0.13779104
29	0xbd46076b	-0.048346918

rnn.bias_hh_l0 f4 [30]
0	0x3e0ecc0d	0.13945027
1	0xbe3f5739	-0.18685617
2	0x3e10f44e	0.14155695
3	0xbdd9c4ca	-0.10633238
4	0xbd027127	-0.03184619
5	0x3c9da0ef	0.019241778
6	0x3de22973	0.11043062
7	0xbe07beac	-0.1325633
8	0xbdfed8ec	-0.12443718
9	0x3de57784	0.112044364
10	0xbdb99f51	-0.0906359
11	0xbc3a7da6	-0.011382496
12	0xbe367d09	-0.17821135
13	0x3d9e1e3e	0.07720612
14	0xbc980b99	-0.018560218
15	0x3cbd4fca	0.023109335
16	0xbe15475f	-0.14578007
17	0xbbf1d0e0	-0.007379636
18	0xbcee6f21	-0.029105725
19	0x3daeb545	0.08530668
20	0xbde6b029	-0.11264069
21	0xbded6972	-0.11592378
22	0x3e4dc465	0.2009445
23	0x3d487266	0.048937224
24	0xbd5de3e2	-0.054172404
25	0x3db8f779	0.09031577
26	0x3e0ab556	0.13545737
27	0x3da9290c	0.08259782
28	0x3dd15f32	0.10223235
29	0xbdfa4c61	-0.12221599

classify.weight f4 [7, 30]
0	0x3dc2e21b	0.095157824
1	0x3ed8a9f1	0.42317155
2	0xbe7c4b6d	-0.24638148
3	0x3ea19a95	0.3156325
4	0xbc74b3a6	-0.01493541
5	0xbdc47412	-0.09592451
6	0x3c56243e	0.013070164
7	0xbce58a08	-0.02801992
8	0x3e267f15	0.16259415
9	0x3e83e0ee	0.25757545
10	0xbd06b19e	-0.032884233
11	0xbd6019ea	-0.054712214
12	0xbdf41477	-0.11917966
13	0x3bd17169	0.0063916934
14	0x3e7a6d01	0.24455644
15	0x3e8894fb	0.26676163
16	0x3e369c13	0.17832975
17	0xbe29997b	-0.16562454
18	0x3e8434e3	0.258216
19	0x3e4fbdd0	0.20287251
20	0x3dde9676	0.10868542
21	0xbc9b1ea9	-0.018935518
22	0x3c80bb79	0.015714394
23	0xbe0754cc	-0.13215941
24	0x3be02108	0.006839875
25	0x3e393561	0.18086769
26	0x3c8a6786	0.016895067
27	0x3e6e0274	0.23243123
28	0xbdb8a679	-0.09016127
29	0xbe84c427	-0.25930902
30	0x3d7adb99	0.06124458
31	0xbd887d03	-0.06664469
32	0xbe665e3c	-0.22496885
33	0x3e931c46	0.28732508
34	0x3ca777e0	0.020442903
35	0xbea5fa70	-0.3241763
36	0x3d274d24	0.04084505
37	0xbe00eb9c	-0.12589878
38	0x3ebcd02f	0.3687758
39	0x3d67705b	0.056503635
40	0x3c3ede7d	0.011649725
41	0xbdef27c9	-0.1167751
42	0xbdb38f33	-0.087675475
43	0xbe6ac7a9	-0.22927727
44	0xbd21e7a7	-0.03952756
45	0x3b9510b1	0.004549109
46	0xbe26f293	-0.16303472
47	0xbd69ce94	-0.057081774
48	0x3da0f833	0.0785984
49	0x3e543bdb	0.20725958
50	0x3e320e11	0.17388178
51	0xbe0239b9	-0.12717332
52	0x3dde3b0d	0.10851107
53	0xbe00f59b	-0.12593691
54	0xbe9dcc73	-0.30820045
55	0xbdfe7472	-0.12424554
56	0xbe264361	-0.1623664
57	0x3db888b3	0.09010448
58	0xbe079dc4	-0.13243777
59	0xbe47f192	-0.19525746
60	0xbe72b32d	-0.23701163
61	0xbe42bf2e	-0.19018242
62	0xbe39879d	-0.18118139
63	0x3bd428fe	0.006474613
64	0x3e3e7d89	0.18602575
65	0x3cbcb9eb	0.023037871
66	0x3e3b53fe	0.18293759
67	0x3e99af3a	0.300165
68	0xbe04b896	-0.12961039
69	0xbd1d8d2c	-0.03846471
70	0x3cff55bf	0.031168817
71	0xbd1294f0	-0.03578657
72	0xbd9e50f9	-0.07730288
73	0xbe88b3ca	-0.26699668
74	0xbd3b19c5	-0.045678873
75	0x3e8d73ab	0.2762731
76	0x3e1fc745	0.15603359
77	0x3e667d90	0.22508836
78	0x3d10b836	0.035331927
79	0x3e176294	0.14783698
80	0xbd88b93b	-0.06675955
81	0xbe87ae55	-0.26500192
82	0x3de062fa	0.10956378
83	0xbe4923f5	-0.19642623
84	0x3d89c8eb	0.06727775
85	0x3e264e6a	0.1624085
86	0x3eae1e5b	0.34007534
87	0x3d86d5fa	0.065837815
88	0xbe286c5a	-0.16447583
89	0xbe187cd1	-0.14891364
90	0x3e98b8fd	0.29828635
91	0xbe14290a	-0.1446878
92	0x3e43ccad	0.19121046
93	0x3e974714	0.29546416
94	0x3e82c2b0	0.2553916
95	0xbd527a0c	-0.051385924
96	0xbe744c78	-0.23857296
97	0x3e8c1648	0.2736075
98	0x3e64f09a	0.22357407
99	0x3e6b35b7	0.2296971
100	0x3a16b5c9	0.0005749134
101	0xbe13a46c	-0.1441819
102	0x3d59f5aa	0.0532128
103	0x3e58a41c	0.21156353
104	0xbd6e0c7c	-0.058117375
105	0xbe4d9722	-0.20077184
106	0x3e99ae87	0.30015966
107	0xbed43906	-0.41449755
108	0x3b8d7e47	0.004318032
109	0x3e49c341	0.1970339
110	0x3c9f0334	0.019410707
111	0x3cd02c52	0.025411759
112	0x3e4825b8	0.19545639
113	0x3e3c09b4	0.18363076
114	0xbd871e80	-0.06597614
115	0xbe2664c0	-0.1624937
116	0x3ecfad2f	0.40561816
117	0xbe6b05bb	-0.22951405
118	0xbe78ff9e	-0.2431626
119	0xbc6660ad	-0.014061135
120	0x3ea4e0a6	0.32202643
121	0x3c812965	0.015766809
122	0xbd4dbf6d	-0.050231386
123	0xbe4f69b5	-0.20255168
124	0xbd99757b	-0.07493111
125	0xbeb07057	-0.34460708
126	0xbdf3a583	-0.11896803
127	0x3d2d7c6b	0.042354982
128	0xbe2c2ad7	-0.16813217
129	0xbe475c4e	-0.19468805
130	0x3ec3a99b	0.38215336
131	0x3e84b9e9	0.25923088
132	0x3e9754c6	0.29556865
133	0xbdcf8433	-0.10132637
134	0x3eab1435	0.33413854
135	0xbd185ea6	-0.03719964
136	0x3e20d31f	0.15705536
137	0x3de84aa1	0.11342359
138	0x3e4984e0	0.19679594
139	0xbe33c9fb	-0.17557518
140	0xbe1a5589	-0.15071692
141	0x3e5c61a3	0.2152162
142	0xbe4c1233	-0.19928817
143	0xbe219122	-0.1577802
144	0xbdca6137	-0.098818235
145	0x3dd3365c	0.103131026
146	0x3e6581fc	0.22412866
147	0x3ea9df6b	0.33178267
148	0xbe0d7387	-0.13813601
149	0x3ec5a7bf	0.38604543
150	0xbe2b6162	-0.16736367
151	0xbc86acfd	-0.01643991
152	0xbdde3b14	-0.10851112
153	0xbdf40870	-0.11915672
154	0x3e3352c8	0.17512047
155	0xbe1b53c4	-0.15168673
156	0x3e87c764	0.2651931
157	0x3d996759	0.07490415
158	0x3e01415b	0.12622587
159	0x3d9402ab	0.072270714
160	0x3e2f3cbe	0.17113015
161	0xbe3c11b0	-0.18366122
162	0x3ed01274	0.4063908
163	0x3d82ef51	0.06393302
164	0x3e8f6981	0.2801018
165	0xbe8d257e	-0.27567667
166	0x3cea2e3f	0.028586505
167	0xbe8b877f	-0.27251813
168	0x3cbd9713	0.023143327
169	0xbeadf917	-0.33979103
170	0x3e8fb939	0.28071
171	0xbe5190e9	-0.20465435
172	0xbe90471c	-0.28179252
173	0xbe2d1608	-0.16902936
174	0x3e3a86d5	0.18215497
175	0xbe9667f8	-0.29376197
176	0xbe761d2c	-0.24034566
177	0xbe696207	-0.227913
178	0xbea5c011	-0.32373098
179	0x3eb2228d	0.34791985
180	0xbe900183	-0.28126153
181	0xbe349010	-0.1763308
182	0x3e969bfe	0.29415888
183	0xbe7eb7b0	-0.24874759
184	0xbe71110f	-0.23541664
185	0x3e6d3770	0.23165679
186	0xbea16e30	-0.3152938
187	0xbd468ffb	-0.048477154
188	0xbe1188bc	-0.14212316
189	0xbe736691	-0.23769595
190	0xbe82a39e	-0.25515455
191	0xbc55a6c2	-0.013040246
192	0xbe8f945b	-0.28042874
193	0x3e1cb23a	0.15302363
194	0xbe4c32bc	-0.19941229
195	0xbe632ef2	-0.22185877
196	0xbd9c182c	-0.07621798
197	0x3e6b2bb3	0.22965889
198	0xbe848f14	-0.2589041
199	0xbcb4a75b	-0.022052458
200	0xbe7d157e	-0.2471523
201	0x3e6819dc	0.22666115
202	0xbe3dca2a	-0.1853415
203	0x3e122d7c	0.14275163
204	0x3e205511	0.1565745
205	0x3e4074a4	0.18794495
206	0xbe9911e7	-0.2989647
207	0xbe3b38c3	-0.18283372
208	0x3e7dccac	0.24785107
209	0x3d86fd4e	0.06591283

classify.bias f4 [7]
0	0xbd01d5ed	-0.031698156
1	0xbd7262d6	-0.05917629
2	0xbd28d36d	-0.041217256
3	0xbd633c1d	-0.05547725
4	0xbe528b65	-0.20560987
5	0xbd85f6af	-0.06541192
6	0xbcb0423b	-0.021515956
