G_HuaLei_6924/week3/output.pth (torch, 59475 bytes, 11 tensors)

embedding.weight f4 [28, 30]
0	0x00000000	0.0
1	0x00000000	0.0
2	0x00000000	0.0
3	0x00000000	0.0
4	0x00000000	0.0
5	0x00000000	0.0
6	0x00000000	0.0
7	0x00000000	0.0
8	0x00000000	0.0
9	0x00000000	0.0
10	0x00000000	0.0
11	0x00000000	0.0
12	0x00000000	0.0
13	0x00000000	0.0
14	0x00000000	0.0
15	0x00000000	0.0
16	0x00000000	0.0
17	0x00000000	0.0
18	0x00000000	0.0
19	0x00000000	0.0
20	0x00000000	0.0
21	0x00000000	0.0
22	0x00000000	0.0
23	0x00000000	0.0
24	0x00000000	0.0
25	0x00000000	0.0
26	0x00000000	0.0
27	0x00000000	0.0
28	0x00000000	0.0
29	0x00000000	0.0
30	0xbf2bd0d8	-0.67115545
31	0x3e3f7e2e	0.18700477
32	0x3eb36e73	0.35045204
33	0x3f28efc3	0.6599085
34	0xbe88d675	-0.26726118
35	0x3f7e509c	0.9934175
36	0xbfaf986c	-1.371839
37	0x3ebc3dd0	0.3676591
38	0x3ec9b129	0.39392975
39	0xbe8de5f8	-0.27714515
40	0xbf522440	-0.82086563
41	0xbdba6f7e	-0.09103297
42	0xbda98f53	-0.0827929
43	0x3f031035	0.51196605
44	0xbe40703b	-0.18792813
45	0x3fb66940	1.425087
46	0xbeedfee8	-0.4648354
47	0xbf632a71	-0.88736635
48	0x3f49735f	0.7869167
49	0xbfcc16c1	-1.5944444
50	0x3fea5bab	1.8309225
51	0xbf0df9bd	-0.55459195
52	0xbd84819c	-0.064700335
53	0xbf7a7217	-0.9783034
54	0x3d99312a	0.074800804
55	0xbd5c6318	-0.05380544
56	0x3f268a0f	0.6505441
57	0xbf45edc9	-0.77315956
58	0x3cc6b8a1	0.02425796
59	0x3f37fd61	0.71871
60	0x3e280109	0.16406645
61	0x3f65c4e6	0.8975357
62	0xbf3422ef	-0.70365804
63	0xbdbb4b15	-0.0914518
64	0xbffea027	-1.9892625
65	0x3fae1c4e	1.3602388
66	0xbf620149	-0.8828321
67	0xbf2ddfb4	-0.6791947
68	0x3e43205f	0.19055317
69	0xbf9d5b6c	-1.2293525
70	0x4025e9d2	2.5923963
71	0xbe82e4c2	-0.25565153
72	0xbf228614	-0.63485837
73	0xbf74ad23	-0.95576686
74	0x3fc61e7b	1.5478052
75	0x3f3a6d56	0.72823083
76	0xbfa7224d	-1.3057343
77	0x3ed5cf32	0.4175964
78	0x3ecddfc7	0.4020979
79	0xbefd1deb	-0.49436888
80	0x3f98e810	1.194582
81	0xbed72c64	-0.42026055
82	0x3e5decef	0.21672414
83	0x3f321e47	0.6957745
84	0xbfafb351	-1.3726598
85	0x3f4537cf	0.7703828
86	0x3eaf35f6	0.34220856
87	0x3fbfb720	1.497776
88	0x3e45ae3d	0.19304748
89	0xbffec36b	-1.9903387
90	0xbe7bdb16	-0.24595293
91	0xbf61428a	-0.87992156
92	0x3f3718aa	0.7152201
93	0x3f17b2fd	0.5925749
94	0xbe31d1c3	-0.17365174
95	0x3f659087	0.89673656
96	0x3f070b60	0.5275173
97	0xbf43ac2a	-0.76434577
98	0x3f11daff	0.56974787
99	0x3f91407a	1.1347802
100	0xbe319337	-0.17341314
101	0xbf2dc4ac	-0.6787822
102	0xbf134e91	-0.5754176
103	0x3fe2a9ec	1.7708106
104	0x3f37042f	0.7149076
105	0xbf0531a7	-0.5202889
106	0xbf0f6a86	-0.56021917
107	0x3e15344b	0.1457073
108	0x3ed0d381	0.40786365
109	0xc009c677	-2.1527383
110	0xbeb8ce60	-0.36094952
111	0x3fa3114f	1.2739657
112	0xbf8d70b0	-1.1050014
113	0x3c0eb4bb	0.008710082
114	0xbde98c7c	-0.114037484
115	0x3fa79b87	1.3094338
116	0xbfca313b	-1.5796274
117	0xbf3619b9	-0.71133
118	0xbf6a128f	-0.9143457
119	0x3f45c4b7	0.7725329
120	0x3f54a162	0.8305875
121	0x3fbe3224	1.4859052
122	0xbe7895ac	-0.24275845
123	0x3e2489ca	0.16068187
124	0xbebe54e9	-0.37174156
125	0xbf9aeaa4	-1.2102857
126	0x3f12733f	0.572071
127	0xbea4aaee	-0.3216166
128	0xbd45264d	-0.04813223
129	0x3fe9dcd3	1.8270515
130	0xbfbbc842	-1.4670489
131	0xbe85ab44	-0.26107228
132	0x3f4bac44	0.7955973
133	0xbf422492	-0.7583705
134	0xbe8ce231	-0.2751632
135	0xc026e90b	-2.6079738
136	0xbf68d354	-0.9094746
137	0x3e82daa4	0.25557435
138	0xbe2da3cd	-0.16957016
139	0x3ec01e85	0.37523285
140	0xbf34c7b7	-0.7061724
141	0xbecacbdd	-0.3960866
142	0x3ec46f6e	0.38366264
143	0x3f9de31d	1.2334934
144	0x3f5e5668	0.86850595
145	0x3f7b9f54	0.9828999
146	0x3fbcd4d5	1.4752451
147	0x3e2f5f57	0.17126213
148	0xbe1443d3	-0.14478998
149	0x3fc806ad	1.5627037
150	0xbe9b8318	-0.30373454
151	0x3c4dd88a	0.012563834
152	0xbfc34007	-1.5253915
153	0x3f681d8c	0.90670085
154	0xbeef4e68	-0.46739507
155	0xbf3b8a4e	-0.7325791
156	0xbfb15116	-1.385287
157	0x3dafd490	0.08585465
158	0x4013cc45	2.3093426
159	0xbf973aff	-1.1814879
160	0x3ce98d02	0.02850962
161	0xbe2a006e	-0.16601726
162	0x3f040dec	0.51583743
163	0xbf0df1d0	-0.554471
164	0xbf0f0e06	-0.55880773
165	0xbe23d267	-0.15998231
166	0x3f3cd136	0.7375673
167	0xbec00285	-0.37501922
168	0xbf5dd498	-0.8665252
169	0xc00e21ff	-2.220825
170	0xbf2dac8d	-0.67841417
171	0xbef7065b	-0.48247036
172	0xbf488f12	-0.7834331
173	0xbf6fd2aa	-0.9368082
174	0xbe8ec3d7	-0.2788379
175	0xbe9dba25	-0.3080608
176	0x3f92ed5e	1.1478689
177	0x3f44091a	0.7657639
178	0x3f53cabe	0.82731235
179	0xbffbd7bf	-1.9675215
180	0x3f200872	0.62512887
181	0xbf69a35a	-0.9126488
182	0xbf3a30bc	-0.7273061
183	0xbea67962	-0.32514483
184	0xbed78a30	-0.42097616
185	0x3f179e0f	0.59225553
186	0x3fcaa2cc	1.5830932
187	0xbf5adbba	-0.85491526
188	0xbfec0d99	-1.844165
189	0xbf835bc8	-1.0262384
190	0x3ef19b99	0.47189024
191	0x3f79f356	0.97636926
192	0xbf323c44	-0.6962321
193	0x3e541d81	0.2071438
194	0x3eb38780	0.35064316
195	0x3d9bd808	0.07609564
196	0xbc54fae1	-0.012999267
197	0xbf2675b8	-0.65023375
198	0xbdfb8697	-0.1228153
199	0x3f0f0bd3	0.5587742
200	0x3f0e50b7	0.5559191
201	0x3e6d589f	0.23178338
202	0xbfd55002	-1.6665041
203	0xbe812a1f	-0.25227448
204	0x3fee8a3f	1.8635939
205	0x3fdfa76f	1.7472972
206	0x3e3befce	0.18353197
207	0xbe4056da	-0.18783131
208	0x3fda4bba	1.705436
209	0x3f0bb06e	0.54566085
210	0xbe916d33	-0.28403625
211	0xbef6e1da	-0.48219186
212	0xbf3eb4ea	-0.744948
213	0xbfe9db98	-1.827014
214	0xbf9d908c	-1.2309737
215	0xbf6e4d29	-0.9308649
216	0xbfe5afbc	-1.7944255
217	0x3f394093	0.7236416
218	0x3f14878b	0.5801932
219	0xbf92d652	-1.1471655
220	0x3f1308fe	0.57435596
221	0x3edf795e	0.43647283
222	0xbf6d6d8b	-0.92745274
223	0x3f2b3453	0.66876715
224	0xbf6c0806	-0.9219974
225	0x3feeeac2	1.8665392
226	0x3e101b90	0.14073014
227	0xbf3076a4	-0.6893103
228	0xbe5e6fce	-0.21722338
229	0xbf5a8e0d	-0.85373
230	0xbed2b37e	-0.41152567
231	0xbecf1a7e	-0.404499
232	0x3d8f5a2d	0.069996215
233	0x3ff72239	1.9307319
234	0x400de7c7	2.2172716
235	0xbe8ce78e	-0.27520412
236	0xbeb2c7f7	-0.34918186
237	0x3f3b5355	0.7317403
238	0x3f3b881c	0.7325456
239	0xbfc98f6d	-1.5746895
240	0x3f0852c7	0.5325131
241	0x3f316a15	0.69302493
242	0xbe5fe8f2	-0.21866205
243	0x3ff01ebb	1.8759378
244	0x3f9f1ee1	1.2431298
245	0x3fcf873f	1.6213149
246	0xbdddec24	-0.10836056
247	0x3c114556	0.008866629
248	0x3fd73276	1.6812274
249	0x3fc9f5d3	1.5778145
250	0x3fb15781	1.3854829
251	0x3fa7ec44	1.3118978
252	0xbf3a5a24	-0.72793794
253	0xbfe97158	-1.8237715
254	0x3f11f742	0.5701791
255	0x3fb52360	1.415142

encoder.weight_ih_l0 f4 [60, 30]
0	0xbd415748	-0.04720238
1	0x3ca71b6e	0.020398822
2	0x3c8ab49c	0.016931824
3	0xbd1c7211	-0.03819472
4	0xbc6e3629	-0.01453928
5	0x3d14b00a	0.036300696
6	0x3d877feb	0.06616195
7	0xbd999a4f	-0.07500135
8	0x3d86b08a	0.06576641
9	0x3d8c7ce0	0.068597555
10	0x3b91e572	0.004452401
11	0xbc5eefd3	-0.013606983
12	0xbb978603	-0.0046241297
13	0xbd8e9ea4	-0.06963852
14	0x3dd14af6	0.10219376
15	0x3d0d4d15	0.03449734
16	0xbd88aacc	-0.06673202
17	0xbdad03b8	-0.08447975
18	0x3d37f211	0.044908587
19	0x3d1d3993	0.038384985
20	0x3df71839	0.12065167
21	0xbdeadb47	-0.11467605
22	0xbd697a00	-0.057001114
23	0xbdd38a8e	-0.103291616
24	0xbd34ca91	-0.044138495
25	0xbd49ca7f	-0.04926538
26	0x3db5cfe6	0.08877544
27	0x3d89121e	0.06692909
28	0x3ca2f641	0.019892814
29	0xbd126472	-0.035740323
30	0x3c0f6d35	0.008754064
31	0xbc9ae283	-0.018906837
32	0xbce014dd	-0.027353698
33	0x3ceaa57e	0.028643366
34	0xbd812261	-0.063053854
35	0x3dc6c7f8	0.0970611
36	0xbd84833b	-0.06470343
37	0xbd846c5a	-0.06465979
38	0xbd79d22e	-0.06099146
39	0x3d56acd5	0.05241092
40	0xbdbd709b	-0.092499934
41	0xba732910	-0.0009275833
42	0x3cc6956c	0.024241172
43	0xbd91e650	-0.07124007
44	0xbd44edd0	-0.04807836
45	0x3d91881c	0.07106039
46	0x3dd17732	0.10227813
47	0xbdb7efe2	-0.08981301
48	0xbda6d84c	-0.08146724
49	0x3db89115	0.09012047
50	0x3d9fa16d	0.077944614
51	0xbaf0cf6f	-0.0018372367
52	0x3c37f6dd	0.01122829
53	0x3ddc4e14	0.1075708
54	0x3dbd2029	0.0923465
55	0x3d072fec	0.033004686
56	0xbcdd3f52	-0.027007733
57	0x3d41f3a7	0.047351506
58	0x3c8e7f05	0.017394552
59	0xbcc607c8	-0.024173632
60	0x3c829dac	0.015944324
61	0xbde5bc5b	-0.112175666
62	0x3ca3b990	0.019985944
63	0xbcc7a1b8	-0.024369106
64	0x3d2a0afa	0.041514374
65	0xbdbc4076	-0.091919824
66	0x3e5544b6	0.20826992
67	0xbd219461	-0.039448146
68	0x3d1120ae	0.035431556
69	0x3c4e5e00	0.0125956535
70	0x3dae194e	0.0850092
71	0xbcf66b0f	-0.030080346
72	0xbd3feb6d	-0.04685538
73	0x3c29f8ef	0.010374292
74	0x3dcaffc5	0.099120654
75	0xbdb11b49	-0.08647782
76	0x3d2cda86	0.042200588
77	0x3e638836	0.22219929
78	0xbb42c5fa	-0.0029720054
79	0x3d345312	0.044024535
80	0xbd92c61f	-0.07166695
81	0x3e0132d0	0.1261704
82	0x3d450679	0.048101876
83	0x3e715851	0.23568846
84	0xbd8289e5	-0.063739575
85	0x3d0588e2	0.032601245
86	0xbe41b455	-0.18916447
87	0x3e1e545b	0.15461867
88	0x3da790f5	0.08181945
89	0xbe296e11	-0.16545893
90	0xbdefe00e	-0.11712657
91	0x3d4ab6d1	0.049490754
92	0x3dd3ae74	0.10336009
93	0x3c355d92	0.011069672
94	0x3cd9f18d	0.026604438
95	0x3db2cf07	0.087308936
96	0xbba9bb78	-0.0051798187
97	0xbdc78faa	-0.097441986
98	0x3d475c1c	0.048671827
99	0x3c4116f6	0.0117852595
100	0x3de0c93d	0.10975883
101	0xbdbe0526	-0.09278326
102	0xbd8f7bb8	-0.07006019
103	0xbd8a03ae	-0.06738983
104	0xbc0956aa	-0.008382479
105	0x3d0e5406	0.0347481
106	0xbc5ac084	-0.013351563
107	0x3a9b32b4	0.0011840672
108	0x3df18f5f	0.11794924
109	0x3d585f0a	0.05282501
110	0x3d31382a	0.043266453
111	0xbc19d74f	-0.0093897125
112	0x3d776993	0.060403418
113	0xbdfc1827	-0.12309294
114	0xbca7acd3	-0.020468151
115	0xbd6b423c	-0.057436213
116	0xbd7f7c53	-0.062374424
117	0x3cf3dcbb	0.029768338
118	0xbd79cdf3	-0.060987424
119	0x3e0731bf	0.1320257
120	0x3c30a707	0.01078201
121	0x3dae4dbc	0.085109204
122	0x3c02e39e	0.0079888385
123	0xbc99c483	-0.018770462
124	0x3d922471	0.07135857
125	0xbdbe1286	-0.09280877
126	0x3dcc7e24	0.09984997
127	0xbd5c145b	-0.05373035
128	0x3de2fcde	0.11083387
129	0x3dd0ba92	0.101918355
130	0xbb218150	-0.0024643727
131	0xbd2eaef9	-0.042647336
132	0xbde49e6f	-0.11163031
133	0xbd37e0f0	-0.04489225
134	0x3da74ee0	0.08169341
135	0xbe06c8cc	-0.13162535
136	0x3dde03b4	0.1084055
137	0x3dc19021	0.094513185
138	0xbdacec34	-0.0844349
139	0xbd01bba0	-0.031673074
140	0xbbe104bb	-0.006867019
141	0x3c82d537	0.01597081
142	0xbe1c3b28	-0.15256941
143	0x3e37cd17	0.1794933
144	0xbd0b2bcd	-0.03397732
145	0xbcacaf72	-0.021079753
146	0xbe04fb7b	-0.12986557
147	0x3e005a0c	0.1253435
148	0x3d5bc1a9	0.053651486
149	0xbe38a1e0	-0.180305
150	0x3d9c788a	0.076401785
151	0xbd74b1fd	-0.059740055
152	0xbc1aad7b	-0.009440775
153	0xbd0d2376	-0.034457646
154	0x3df75731	0.12077177
155	0xbbaf0928	-0.0053416677
156	0xbe2a57b3	-0.16635017
157	0x3d81223d	0.063053586
158	0x3ce4029d	0.027833277
159	0xbca1b54b	-0.019739768
160	0x3ca73416	0.020410579
161	0x3d67f384	0.05662872
162	0xbbce0d04	-0.0062881727
163	0x3da8cd51	0.08242286
164	0xbe2235d2	-0.15840843
165	0x3daabecb	0.08337172
166	0xbd767960	-0.060174346
167	0xbde63d3c	-0.11242148
168	0x3d4199b5	0.047265727
169	0xbe0ef5fa	-0.1396102
170	0x3de92cd1	0.11385501
171	0xbde32376	-0.11090748
172	0x3e3c0ff2	0.18365458
173	0xbd835271	-0.06412209
174	0x3d0c27a3	0.034217488
175	0xbe135732	-0.14388731
176	0xbd63ce59	-0.05561671
177	0xbc9b0386	-0.018922579
178	0x3d422b23	0.04740442
179	0x3d8c5837	0.06852763
180	0x3cb786d7	0.022403164
181	0x3caa7847	0.020809306
182	0x3d8d2f28	0.0689376
183	0x3c443178	0.011974685
184	0x3d89f585	0.06736282
185	0xbd64bd8f	-0.05584484
186	0xbe3e0f5e	-0.1856055
187	0xbda976fe	-0.08274649
188	0x3cd2b050	0.025718838
189	0xbc837a01	-0.016049387
190	0x3c2fe3bb	0.0107354475
191	0xbda99f37	-0.08282321
192	0x3c88d11c	0.016701274
193	0x3ded4962	0.11586262
194	0xbda7c7cd	-0.08192406
195	0xbd156c27	-0.036480095
196	0xbdc6b81c	-0.09703085
197	0xbdc46625	-0.09589795
198	0x3c10f14f	0.008846595
199	0xbcc51258	-0.024056599
200	0x3de5c567	0.11219292
201	0xbccbadcb	-0.024863144
202	0x3e2c4752	0.16824082
203	0xbe33fcb4	-0.17576867
204	0x3da1a541	0.07892848
205	0x3d4ebaf3	0.050471257
206	0x3e282cd9	0.16423358
207	0xbdebe9fa	-0.11519237
208	0xbd2fec30	-0.042949855
209	0x3e08de91	0.13366152
210	0x3be1d536	0.006891872
211	0xbdd9399b	-0.106066905
212	0xbcb39026	-0.021919321
213	0x3da3c328	0.079962075
214	0x3c948b8f	0.018132953
215	0x3e0eda18	0.13950384
216	0x3d14057a	0.036138035
217	0xbd3275f7	-0.04356953
218	0x3e0112d4	0.12604839
219	0xbd920105	-0.07129101
220	0x3c6a51ec	0.014301758
221	0xbd413b45	-0.047175664
222	0xbda10e51	-0.07864059
223	0x3b07f44a	0.0020744973
224	0xbe0baffc	-0.13641351
225	0xbcdce8e1	-0.026966514
226	0x3db136f1	0.08653057
227	0xbde5da9c	-0.11223337
228	0xbd2db1cf	-0.0424059
229	0x3ca495b3	0.020090913
230	0x3dda6d3e	0.106653675
231	0xbd936f0d	-0.07198916
232	0x3dac0301	0.083990104
233	0xbda75033	-0.08169594
234	0x3d035099	0.032059286
235	0x3d4e2b82	0.05033446
236	0x3db3e96c	0.08784756
237	0xbd840475	-0.064461626
238	0xbd022f7c	-0.031783566
239	0x3ca54011	0.02017215
240	0xbdd83452	-0.10556854
241	0xbdab4ee1	-0.08364654
242	0x3e1d1092	0.15338352
243	0x3daa1ff5	0.083068766
244	0x3d90ddb8	0.070735395
245	0x3d8ff6fd	0.07029531
246	0xbe594322	-0.21217015
247	0x3cbbdac7	0.02293147
248	0xbd9b42c0	-0.07581091
249	0xbdcba111	-0.0994283
250	0xbcbb6562	-0.022875492
251	0xbc90e07f	-0.017685173
252	0xbd6aa90b	-0.05729012
253	0x3dfc1b62	0.1230991
254	0xbdfa7695	-0.12229649
255	0x3c37a50b	0.011208783

encoder.weight_hh_l0 f4 [60, 60]
0	0x3d77a79d	0.060462583
1	0xbcfd459d	-0.030916983
2	0x3e081daa	0.13292566
3	0x3dd6c815	0.10487381
4	0x3df96190	0.12176812
5	0xbceea9ce	-0.029133704
6	0x3cc4e3ab	0.024034342
7	0x3d30040f	0.04297262
8	0xbdd86673	-0.10566416
9	0x3d7bd732	0.061484523
10	0x3dbfa7c9	0.09358174
11	0xbdaf1c40	-0.0855031
12	0x3dda9c28	0.10674316
13	0xbda5b13a	-0.08090444
14	0x3d770291	0.060305182
15	0xbdd64ac3	-0.104634784
16	0x3ddc89b1	0.1076845
17	0xbc85176a	-0.016246516
18	0x3c4c24b3	0.012459922
19	0xbe058915	-0.13040574
20	0x3e506a34	0.20353013
21	0x3de22ba4	0.1104348
22	0x3e17ab7e	0.14811513
23	0x3b3638a9	0.0027804768
24	0x3e031c1d	0.12803693
25	0x3d435da7	0.047696736
26	0xbddecd38	-0.10878986
27	0xbe05023a	-0.1298913
28	0xbd176e56	-0.03697046
29	0x3d3dabc9	0.046306405
30	0xbe21b293	-0.15790777
31	0x3ca32a58	0.019917652
32	0x3cfe569f	0.031047164
33	0xbe05e3aa	-0.13075128
34	0xbce08a97	-0.027409835
35	0xbd46fcf2	-0.04858107
36	0xbe2a768d	-0.16646786
37	0xbd2e8fa4	-0.042617455
38	0xbe1ddaa4	-0.15415436
39	0xbba4d6ac	-0.0050304737
40	0x3de59414	0.11209884
41	0x3e0fcf41	0.14043905
42	0x3dd25f42	0.10272075
43	0x3b58d567	0.0033086182
44	0x3d573842	0.052543886
45	0xbcb60804	-0.022220619
46	0x3ddaf3ec	0.10691056
47	0xbdbc8f94	-0.09207073
48	0x3d9cc125	0.07654027
49	0x3c879f3b	0.01655542
50	0xbcfd22d3	-0.030900395
51	0xbd4a773e	-0.049430124
52	0xbd27cd36	-0.04096719
53	0x3d7a9872	0.06118054
54	0xbd88e53f	-0.0668435
55	0x3e091b59	0.13389339
56	0xbd9456de	-0.07243131
57	0x3dbd597f	0.09245586
58	0x3dd17968	0.102282345
59	0xbd8e6d48	-0.069544375
60	0x3d5ce365	0.053927798
61	0xbd10f85d	-0.035393108
62	0xbd9ec489	-0.0775233
63	0x3b8af81e	0.0042410037
64	0x3d96567b	0.073407136
65	0xbdccf570	-0.10007751
66	0xbdbc619a	-0.091983035
67	0x3e284fbc	0.16436666
68	0xbcd0e9be	-0.025502082
69	0xbe16517b	-0.1467952
70	0xbc9a58ca	-0.018841166
71	0x3d92296d	0.071368076
72	0x3d279478	0.040913075
73	0x3d074a93	0.033030104
74	0xbde72cc8	-0.11287838
75	0x3e1ed20d	0.15509816
76	0x3da80238	0.08203548
77	0x3e067b8f	0.13133071
78	0x3e11a1ec	0.14221925
79	0x3a0ad400	0.00052958727
80	0xbcb67d14	-0.022276439
81	0xbd2c2051	-0.042023007
82	0x3d8938f8	0.06700319
83	0x3d5cea5e	0.053934447
84	0x3ca21714	0.019786395
85	0x3dcbc31b	0.09949323
86	0x3d4bff92	0.049804278
87	0xbdb3fc48	-0.08788353
88	0x3d8098a6	0.062791154
89	0x3d359b8c	0.044337794
90	0x3cc1c68a	0.023654241
91	0xbd616c65	-0.055035014
92	0x3e31acb7	0.17351042
93	0x3d03a4a1	0.032139424
94	0x3da687ad	0.08131347
95	0xbd5433b4	-0.05180712
96	0x3e1516f7	0.14559542
97	0xbe333bb0	-0.17503238
98	0x3d714468	0.058903128
99	0xbe27792d	-0.16354819
100	0xbd20dfd5	-0.039275963
101	0x3dd3a203	0.10333636
102	0xbd56f24d	-0.05247717
103	0x3e233f94	0.15942222
104	0xbdcb7790	-0.09934914
105	0xbd8a2f2b	-0.06747278
106	0xbd136390	-0.035983622
107	0xbc64f7e2	-0.0139751155
108	0x3d969b99	0.07353897
109	0x3ca0a278	0.019608721
110	0xbcbe4d2c	-0.023230158
111	0xbd4b2583	-0.04959632
112	0x3e16b91e	0.14719054
113	0xbde6bb47	-0.11266189
114	0x3c3d821b	0.011566664
115	0xbe1c514e	-0.1526539
116	0xbdfab006	-0.12240605
117	0xbe2cb574	-0.16866094
118	0xbafc519f	-0.0019250399
119	0xbd402441	-0.046909574
120	0x3d6e562f	0.05818766
121	0x3e1b47eb	0.15164153
122	0x3e1dbf45	0.15404995
123	0x3d67eac9	0.056620393
124	0xbd969100	-0.07351875
125	0xbcd7af78	-0.026328787
126	0xbd9762db	-0.07391902
127	0xbd33dac3	-0.0439098
128	0xbe0288ec	-0.12747544
129	0x3e4eb029	0.20184387
130	0xbda4b3ba	-0.080420926
131	0xbe34b011	-0.17645289
132	0x3d3ea6d7	0.04654583
133	0xbd5144d8	-0.051091045
134	0xbd7d4958	-0.061837524
135	0xbd9e1235	-0.077183165
136	0x3da71972	0.0815915
137	0xbdfb4083	-0.12268164
138	0x3c964d50	0.018347412
139	0xbd30ee98	-0.04319629
140	0x3e47938a	0.19489875
141	0x3d24baaf	0.040217098
142	0x3d9a953c	0.075479954
143	0x3d9309ee	0.07179628
144	0x3de624ca	0.11237486
145	0x3e35aecc	0.17742461
146	0x3d361a48	0.044458658
147	0xbbcc00ce	-0.006225682
148	0x3bd185a1	0.0063941036
149	0x3de1911c	0.110140055
150	0x3cc3fa2e	0.023923006
151	0xbd291d3c	-0.041287646
152	0x3e475aec	0.19468278
153	0xbd226aa2	-0.039652474
154	0x3d81aa0c	0.06331262
155	0xbe7cc6dd	-0.24685235
156	0x3e0e7d48	0.13914979
157	0x3c3df781	0.011594654
158	0xbdd8f590	-0.10593712
159	0xbdcc570c	-0.099775404
160	0xbd124a25	-0.03571524
161	0x3de0a244	0.1096845
162	0xbd866afd	-0.06563375
163	0x3d88ee7c	0.06686112
164	0xbe0ff238	-0.14057243
165	0xbd8b00ca	-0.0678726
166	0x3d686879	0.056740258
167	0xbd8261fb	-0.063663445
168	0x3df934c2	0.12168266
169	0x3de6eae5	0.11275271
170	0xbdb0b70f	-0.08628666
171	0xbd8c45d7	-0.068492584
172	0x3d7151aa	0.05891577
173	0x3dd0dcc1	0.101983555
174	0x3e03dba2	0.12876752
175	0x3d7825fb	0.060583096
176	0x3d944222	0.07239176
177	0x3dfa0abf	0.12209081
178	0xbd9c8e7f	-0.076443665
179	0xbdb3eb18	-0.08785075
180	0xbd6184f1	-0.055058423
181	0x3d36512c	0.044511005
182	0x3e3fd28b	0.1873266
183	0xbd167594	-0.036733225
184	0xbd8027c8	-0.06257588
185	0xbd80d930	-0.06291425
186	0x3d7bbe39	0.061460707
187	0x3e014722	0.12624791
188	0xbbde4da1	-0.0067841564
189	0x3d2e2b23	0.042521607
190	0xbc024cec	-0.00795291
191	0x3c7a8fae	0.015293045
192	0xbbc74dbf	-0.006082266
193	0xbe0437d2	-0.12911919
194	0xbd4d2e35	-0.050092895
195	0xbc224304	-0.009903673
196	0xbdc59018	-0.09646624
197	0xbbacf9f3	-0.0052788197
198	0x3dbb0167	0.09131127
199	0xbe01ab9e	-0.12663123
200	0x3dccd9e3	0.10002496
201	0x3b2470d9	0.0025091677
202	0x3e384a73	0.1799715
203	0x3d86ff8e	0.06591712
204	0x3e350178	0.17676342
205	0xbd7c44e1	-0.061589126
206	0xbda318f9	-0.079637475
207	0xbc2bd49d	-0.010487703
208	0x3ded5f29	0.11590416
209	0x3e0d3ba6	0.13792285
210	0x3d5f4e2b	0.054517906
211	0xbca3078f	-0.019901065
212	0xbd30abce	-0.043132596
213	0x3bbcd2d7	0.0057624388
214	0xbcee3125	-0.029076168
215	0x3d83e6ac	0.064404815
216	0x3dd687d9	0.1047513
217	0xbdd867ed	-0.10566697
218	0x3e235fba	0.15954486
219	0xbd1ceb87	-0.038310554
220	0x3d7336ff	0.05937862
221	0x3e21d1b4	0.15802652
222	0x3df5438c	0.11975774
223	0xbde9ac63	-0.11409833
224	0x3dc0978c	0.09403905
225	0xbdc070f5	-0.09396545
226	0xbe103d86	-0.1408597
227	0xbdf19001	-0.11795045
228	0x3e013235	0.12616809
229	0x3ce77d81	0.028258087
230	0xbdb75405	-0.08951572
231	0xbd844d53	-0.06460061
232	0x3ddbe803	0.10737612
233	0xbdf5045e	-0.119637236
234	0x3d38d33e	0.04512333
235	0xbd792b3a	-0.06083224
236	0xbe4a9d32	-0.19786528
237	0xbdcfa462	-0.101387754
238	0x3cfa5b15	0.03056101
239	0xbdb72cd0	-0.08944094
240	0x3c1fa283	0.009743336
241	0xbd2cfeda	-0.042235233
242	0x3c916891	0.017750056
243	0xbe069aa4	-0.13144928
244	0xbda3d975	-0.08000461
245	0xbe06ed05	-0.13176353
246	0xbda1fdc8	-0.07909733
247	0xbdefa1bc	-0.1170077
248	0xbdd20105	-0.10254101
249	0xbc1ff4f2	-0.009762989
250	0xbd92fe7d	-0.07177446
251	0xbdc712f7	-0.09720414
252	0xbe297cb9	-0.16551484
253	0xbdc51114	-0.09622398
254	0xbddff8bb	-0.109361134
255	0x3d79a42b	0.06094758

encoder.bias_ih_l0 f4 [60]
0	0x3cc98b05	0.024602422
1	0xbdffd543	-0.12491848
2	0x3dba636c	0.091009945
3	0xbd1ee626	-0.038793705
4	0x3dec35f2	0.11533727
5	0xbdb8694f	-0.09004461
6	0x3d72ac58	0.05924639
7	0xbda1918a	-0.078890875
8	0x3dd97e27	0.10619765
9	0xbd312e39	-0.043256972
10	0x3d140b1f	0.03614342
11	0x3da56044	0.08075002
12	0xbd9534bf	-0.07285451
13	0x3e16cc59	0.1472639
14	0xbdc37ac8	-0.09544903
15	0xbddd7e93	-0.10815158
16	0xbdbf85c6	-0.09351687
17	0xbe451d42	-0.19249442
18	0xbd9446fe	-0.07240103
19	0xbe48d617	-0.19612919
20	0xbcc9abf7	-0.024618132
21	0xbd5e92ce	-0.054339223
22	0x3d9f582a	0.07780488
23	0xbe185c1d	-0.14878888
24	0x3de0b0fd	0.10971258
25	0xbe2d8f2b	-0.16949145
26	0x3d1def13	0.038558077
27	0xbdbffe55	-0.09374682
28	0x3df09eb8	0.11749023
29	0x3bd4d238	0.0064947866
30	0x3d9a4d55	0.07534281
31	0xbd8ccb34	-0.068746954
32	0x3b29912b	0.002587388
33	0x3dfad2c9	0.12247235
34	0x3e0354c4	0.12825304
35	0xbd4cd1bf	-0.050004717
36	0x3d5df35a	0.054187156
37	0x3ce340cd	0.02774086
38	0xbe19f6f0	-0.15035605
39	0x3dbf737b	0.09348198
40	0xbd7e6216	-0.06210526
41	0xbdf22da5	-0.11825112
42	0xbdbf8bc2	-0.093528286
43	0x3e2517f2	0.16122416
44	0x3d97e1f7	0.07416146
45	0x3d507174	0.050889447
46	0xbbace3c2	-0.0052761743
47	0xbe17113f	-0.14752673
48	0xbd844274	-0.064579874
49	0x3d5e4303	0.054263126
50	0x3d58d67b	0.05293892
51	0x3de6bd16	0.11266534
52	0x3da266ec	0.07929787
53	0xbe4a6be6	-0.19767722
54	0xbdb94990	-0.09047234
55	0x3e069feb	0.13146941
56	0x3cb4ea45	0.022084365
57	0xbdff568e	-0.12467681
58	0xbc38dc72	-0.011283027
59	0x3dc3fa8b	0.09569272

encoder.bias_hh_l0 f4 [60]
0	0x3da72df8	0.08163065
1	0xbd140ebd	-0.036146868
2	0x3d747914	0.05968578
3	0xbba12920	-0.0049182326
4	0xbce83f43	-0.028350478
5	0xbe01362a	-0.12618318
6	0x3d8c4b66	0.068503186
7	0xbd226dfc	-0.03965567
8	0xbd17c02f	-0.037048515
9	0xbd684eab	-0.05671565
10	0x3d53ff09	0.051756892
11	0xbd96ce5e	-0.0736358
12	0x3d8be3f5	0.06830589
13	0x3e313980	0.17307091
14	0x3d4eeba8	0.050517708
15	0xbe1301f4	-0.14356214
16	0xbe15bbc7	-0.14622413
17	0xbbf51f01	-0.0074805026
18	0x3d412317	0.047152605
19	0xbd0a9c56	-0.0338405
20	0x3b954122	0.0045548836
21	0x3b5d427c	0.0033761552
22	0xbd9900c7	-0.074708514
23	0xbe1f6045	-0.15564068
24	0x3dd8ff97	0.10595625
25	0xbce5e4e0	-0.028063238
26	0x3e08c516	0.13356432
27	0x3cf76310	0.030198604
28	0xbcafb6a6	-0.021449398
29	0x3ab5b973	0.0013864472
30	0x3e3de061	0.18542625
31	0xbdb23f1a	-0.08703442
32	0x39e9de00	0.00044606626
33	0x3d34e386	0.044162296
34	0x3da871ed	0.082248546
35	0x3e00acac	0.12565869
36	0x3d6be075	0.057587106
37	0x3e2b2a6c	0.16715401
38	0xbd6a26a1	-0.057165746
39	0xbd22700b	-0.039657634
40	0xbc774c83	-0.015093925
41	0xbdf7afe7	-0.120940976
42	0x3ca487ec	0.020084344
43	0x3e308812	0.17239407
44	0xbc68027b	-0.014160748
45	0xbe004aeb	-0.12528579
46	0xbd1c2af4	-0.0381269
47	0xbbd095e6	-0.0063655255
48	0x3d61fb01	0.055171017
49	0xbbcc2c08	-0.006230835
50	0x3db388d1	0.0876633
51	0xbdcd4815	-0.10023514
52	0x3d4994f6	0.049214326
53	0xbd99689a	-0.07490654
54	0x3b6d67e7	0.003622526
55	0x3dbf33f0	0.09336078
56	0xbdd11e52	-0.10210861
57	0xbdbac995	-0.0912048
58	0x3dc2fb2d	0.09520564
59	0x3e14fd30	0.14549708

encoder.weight_ih_l1 f4 [60, 60]
0	0x3e4da251	0.2008145
1	0x3e084b6f	0.13310026
2	0xbd79a33b	-0.060946684
3	0xbccbccea	-0.024877984
4	0xbccc5ed8	-0.024947569
5	0xbdc6149c	-0.096719
6	0xbd9dee5e	-0.077114806
7	0x3d32db43	0.043666136
8	0xbcda8416	-0.026674312
9	0x3d4aced3	0.04951365
10	0x3c24038c	0.010010611
11	0xbdf6174b	-0.120161615
12	0x3d2471f3	0.040147733
13	0xbd53beca	-0.051695623
14	0xbdc4d9d1	-0.09611858
15	0xbe1775f9	-0.14791097
16	0xbb83efac	-0.004026374
17	0xbd456940	-0.048196077
18	0xbde2d86f	-0.11076438
19	0xbd3a3723	-0.04546274
20	0x3de4d4b5	0.11173383
21	0xbd6656d1	-0.05623514
22	0x3d274f88	0.04084733
23	0x3d008a92	0.03138215
24	0x3d1d83a5	0.038455624
25	0x3d557880	0.05211687
26	0x3caa0bfa	0.020757664
27	0xbce27973	-0.027645802
28	0x3d81ed78	0.06344122
29	0xbc3c0013	-0.011474627
30	0x3d2f24f1	0.04275984
31	0xbc45a750	-0.012063816
32	0xbbee684d	-0.007275617
33	0x3e0a06cf	0.1347916
34	0x3e1a0815	0.15042146
35	0x3d1e280d	0.038612414
36	0xbe1cd11b	-0.15314142
37	0x3e053d98	0.13011777
38	0xbda9a30c	-0.08283052
39	0x3cfb328a	0.030663747
40	0x3ba59ad3	0.005053857
41	0xbdb2efcc	-0.08737144
42	0xbd244397	-0.04010352
43	0x3d84d9c2	0.064868465
44	0xbdd664e4	-0.10468462
45	0x3e036b13	0.12833814
46	0xbc75afc8	-0.014995523
47	0x3d3c2925	0.045937676
48	0xbd904e55	-0.07046191
49	0xbdf61dc8	-0.12017399
50	0xbe02fa22	-0.1279073
51	0xbcf4ccfb	-0.029882899
52	0xbd069299	-0.03285465
53	0xbd529da8	-0.051419884
54	0xbdb51952	-0.0884272
55	0xbd843231	-0.06454886
56	0x3def7ad1	0.11693347
57	0xbd631236	-0.05543729
58	0xb9e33d4a	-0.00043342478
59	0xbd8b06ea	-0.06788428
60	0x3e0f109a	0.13971177
61	0xbcd5feaf	-0.02612242
62	0xbc090255	-0.008362372
63	0x3d03d4d3	0.032185387
64	0x3db50509	0.08838851
65	0x3dc9ca4e	0.0985304
66	0x3ddf704c	0.10910091
67	0x3cb6826b	0.022278985
68	0x3dadb1c0	0.08481169
69	0x3ddd15fa	0.10795207
70	0x3db5f9f4	0.088855654
71	0xbd21012c	-0.03930776
72	0x3e130e09	0.14360823
73	0x3e029a15	0.1275409
74	0x3dee085b	0.116226874
75	0xbdf922a4	-0.1216481
76	0xbd331611	-0.043722216
77	0x3c84e6d8	0.016223356
78	0xbb842403	-0.0040326132
79	0xbc79c3bc	-0.015244421
80	0xbda51a22	-0.08061625
81	0x3e0a7667	0.1352173
82	0x3d195e7e	0.03744363
83	0x3cc79642	0.02436364
84	0x3c035c31	0.008017586
85	0xbd41ed48	-0.04734543
86	0x3b97b4f2	0.0046297247
87	0x3acc934e	0.0015607865
88	0xbe0abd0f	-0.13548683
89	0x3d806ebe	0.062711224
90	0xbcfc3e2f	-0.03079137
91	0x3e01c7dd	0.12673898
92	0xbc9540a1	-0.018219294
93	0xbd63c2ad	-0.05560558
94	0x3d64b9ea	0.055841364
95	0xbe055955	-0.13022359
96	0x3c53f3f0	0.012936577
97	0x3d9b766f	0.07590949
98	0xbd92d642	-0.07169773
99	0x3c9a99fc	0.018872254
100	0x3d96ca3c	0.07362792
101	0xbd81c0a7	-0.06335574
102	0xbd8bd722	-0.06828143
103	0xbd1f5e7c	-0.038908467
104	0x3ce3b235	0.027794937
105	0x3e0ece1a	0.13945809
106	0x3de3535f	0.11099886
107	0x3db3872e	0.08766018
108	0xbe252126	-0.16125926
109	0xbc502ec8	-0.012706466
110	0x3c06720c	0.008205902
111	0xbd7ee74f	-0.06223231
112	0xbbf717a9	-0.0075406623
113	0x3d6d8784	0.057990566
114	0x3dba3a6a	0.09093173
115	0x3e0706e9	0.1318623
116	0x3e08b21f	0.13349198
117	0x3de48f12	0.11160101
118	0x3dd252e2	0.10269715
119	0x3df0c969	0.11757166
120	0x3c93bb8a	0.018033762
121	0x3d3de401	0.04636002
122	0x3d887f8c	0.06664953
123	0xbe0093cb	-0.12556379
124	0x3b891590	0.0041834787
125	0xbde694bb	-0.11258837
126	0xbdbd7742	-0.09251262
127	0xbe3050f3	-0.1721838
128	0xbe019d22	-0.12657598
129	0xbcf045f0	-0.029330224
130	0xbbd76b00	-0.0065740347
131	0x3c8a2e3d	0.016867751
132	0xbdcd3766	-0.10020332
133	0xbd800f00	-0.06252861
134	0xbd75389e	-0.059868447
135	0x3da841b8	0.0821566
136	0xbd0e95d1	-0.034810845
137	0x3e10e28d	0.14148922
138	0xbcb8fb30	-0.022580713
139	0xbd40d154	-0.04707463
140	0x3d7ea6d0	0.062170804
141	0x3c05d9f3	0.008169639
142	0x3e48f6ee	0.19625446
143	0xbe0bd90b	-0.13657014
144	0xbcfcef0b	-0.030875703
145	0x3d1d1fb0	0.038360298
146	0x3e494675	0.19655783
147	0xbe0df580	-0.13863182
148	0x3d69f72e	0.057120495
149	0x3d314193	0.043275427
150	0xbd4dde03	-0.050260555
151	0xbe090ca2	-0.13383725
152	0xbd27bc66	-0.040951155
153	0x3e169414	0.14704925
154	0x3dbbfa49	0.091785975
155	0xbdecc40b	-0.1156083
156	0x3e450078	0.1923846
157	0xbd2841d6	-0.04107841
158	0xbd316fc9	-0.043319497
159	0x3e034039	0.12817468
160	0x3ca2e126	0.01988275
161	0x3e210161	0.15723182
162	0x3d2ffc06	0.042964958
163	0xbd777e13	-0.060422968
164	0x3d0a6e3c	0.033796534
165	0x3cb7a393	0.022416865
166	0xbe20e637	-0.1571282
167	0xbd497973	-0.04918809
168	0xbd029557	-0.031880703
169	0x3de9996a	0.114062145
170	0x3d59a0fe	0.05313205
171	0xbe36843e	-0.17823884
172	0x3da7d609	0.08195121
173	0xbe4a9b10	-0.19785714
174	0xbdb8ccb1	-0.09023417
175	0xbd61b231	-0.055101577
176	0xbe4909b4	-0.19632608
177	0x3ca605db	0.020266464
178	0x3d8d63e2	0.06903817
179	0xbd83b155	-0.06430308
180	0x3d84d96e	0.06486784
181	0x3cebd921	0.028790059
182	0x3e007578	0.12544811
183	0x3cefa9e7	0.02925582
184	0x3d9cc827	0.076553635
185	0x3dbc865d	0.09205315
186	0xbd72cdee	-0.05927842
187	0xbc9b8cee	-0.018988099
188	0x3db1d5b5	0.086833395
189	0x3de42c3b	0.11141249
190	0xbd8a33ed	-0.06748185
191	0x3d8678fa	0.06566043
192	0x3d288ed2	0.04115183
193	0xbccd154a	-0.025034565
194	0xbd6b463d	-0.05744003
195	0xbd4bc0cb	-0.04974441
196	0xbc97aca4	-0.018514939
197	0xbdf15f91	-0.11785806
198	0x3ae85865	0.0017726539
199	0x3d3071c0	0.04307723
200	0x3d022511	0.03177363
201	0xbc494955	-0.01228555
202	0x3d393b43	0.045222532
203	0xbd1d22f6	-0.03836342
204	0x3da6f439	0.081520505
205	0xbcb10203	-0.021607405
206	0x3d05c35e	0.03265702
207	0x3ce11397	0.027475161
208	0xbdac207c	-0.084046334
209	0x3e307d69	0.1723534
210	0xbd1cca12	-0.038278647
211	0x3d4f8401	0.050662998
212	0x3d546a89	0.051859412
213	0xbda6ae16	-0.08138673
214	0x3d8a15e1	0.06742454
215	0xbdc1f424	-0.09470394
216	0xbd0eb1e5	-0.034837622
217	0x3db561c1	0.08856536
218	0x3d81cafb	0.063375436
219	0x3d8925be	0.06696652
220	0x3dd1f0fc	0.10251042
221	0x3de3fa66	0.11131744
222	0x3dbc8cd5	0.09206549
223	0xbd2f40ff	-0.042786594
224	0x3cbc669b	0.022998145
225	0x3e06ce5b	0.13164656
226	0xbbcc141c	-0.006227983
227	0xbdf7ad1a	-0.120935634
228	0x3e173203	0.14765172
229	0x3db5a603	0.08869555
230	0xbe01e870	-0.12686324
231	0xbd072d67	-0.033002283
232	0xbd7c19c4	-0.06154801
233	0xbd90b932	-0.07066573
234	0x3e13c92b	0.14432208
235	0x3d4a966f	0.04945987
236	0xbd934921	-0.071916826
237	0x3e0d6efa	0.13811865
238	0xbcd157ef	-0.025554625
239	0xbd06d967	-0.032922175
240	0x3d9b6863	0.075882696
241	0x3dcfb05e	0.10141061
242	0x3c6c68c1	0.014429272
243	0x3dd03988	0.10167223
244	0x3e3ff5aa	0.18746057
245	0xbdc1bfef	-0.094604366
246	0xbe1bc824	-0.15213066
247	0x3df12382	0.11774351
248	0x3d071861	0.032982234
249	0xbd09e3d3	-0.033664536
250	0xbbc464d4	-0.005993465
251	0xbd90ffa0	-0.070800066
252	0xbd8f7014	-0.07003799
253	0xbc400741	-0.0117204795
254	0x3cf5c162	0.029999439
255	0xbce15aca	-0.027509112

encoder.weight_hh_l1 f4 [60, 60]
0	0xbddb447c	-0.10706422
1	0xbdd168c8	-0.102250636
2	0xbd59e801	-0.05319977
3	0xbca92495	-0.020647326
4	0x3d7c002c	0.0615236
5	0x3c18759e	0.009305386
6	0x3bf47cf7	0.007461186
7	0xbdaf4b5b	-0.08559295
8	0xbe0e2723	-0.13882117
9	0xbcaa3e87	-0.020781768
10	0xbcd2fe12	-0.025755916
11	0xbda6c287	-0.08142572
12	0x3e78841d	0.24269147
13	0xbe3acfaa	-0.1824328
14	0xbcd933a8	-0.02651389
15	0xbd91eebd	-0.07125614
16	0x3abdd882	0.001448408
17	0x3dbd2997	0.09236448
18	0x3e1b7d0b	0.15184419
19	0xbe1bfe3a	-0.15233698
20	0x3e2a80c5	0.16650684
21	0x3debaebb	0.115079366
22	0x3d8ec6ed	0.06971536
23	0x3c9b546d	0.018961156
24	0x3e010f0e	0.12603399
25	0x3d45b05c	0.048263893
26	0xbe295d7e	-0.1653957
27	0xbc547f49	-0.0129698
28	0x3d92972d	0.07157741
29	0x3d7cdfae	0.061736755
30	0x3d7a7ed0	0.061156094
31	0x3e2ce971	0.16885926
32	0x3d84f42d	0.06491885
33	0xbe0a0293	-0.13477544
34	0x3e0da8d9	0.13833942
35	0xbdc12b26	-0.09432058
36	0x3ded0209	0.11572654
37	0xbdd8abc2	-0.10579635
38	0x3bc1c2dd	0.005913122
39	0x3e0a89c3	0.13529114
40	0xbdd6374c	-0.10459766
41	0xbb404f17	-0.0029344016
42	0xbdf3e538	-0.119089544
43	0xbdc27bfb	-0.09496304
44	0xbc69aea6	-0.014262831
45	0xbdde9733	-0.10868683
46	0x3d12c9e8	0.035837084
47	0xbcc9b566	-0.02462263
48	0xbdbcf18d	-0.0922576
49	0x3dbee863	0.09321668
50	0x3d7006cd	0.058600236
51	0x3e07d674	0.13265401
52	0x3d8a2d28	0.06746894
53	0x3e22e131	0.15906216
54	0xbd96f75c	-0.07371399
55	0xbc9e41af	-0.01931843
56	0xbdd4a4fe	-0.10383032
57	0xbe4d864c	-0.20070761
58	0xbd3ef402	-0.046619423
59	0x3dcf4749	0.101210184
60	0xbc53414d	-0.012893987
61	0xbb1592df	-0.0022823138
62	0x3dac904c	0.0842596
63	0x3d9cc0be	0.0765395
64	0xbc2281aa	-0.00991861
65	0xbdb0a5c9	-0.08625371
66	0xbccb51e6	-0.024819326
67	0x3e2d3306	0.16913995
68	0x3d40b6af	0.04704922
69	0x3dd558fc	0.10417363
70	0xbe0ed97a	-0.13950148
71	0x3d7baa0c	0.061441466
72	0x3d6598b5	0.056053836
73	0x3d2deb6f	0.042460855
74	0xbd8a6543	-0.067575954
75	0xbc6496b8	-0.01395195
76	0x3c6a4c20	0.014300376
77	0x3befa4a4	0.007313328
78	0x3d4daeea	0.05021564
79	0x3dd5898a	0.10426624
80	0xbd707caa	-0.05871264
81	0xbde24aae	-0.110494
82	0xbdcf8c08	-0.10134131
83	0x3c8fc718	0.01755099
84	0x3d8bc068	0.06823808
85	0x3da07b2e	0.07835995
86	0x3da936c0	0.08262396
87	0xb9cac6b9	-0.00038676502
88	0x3df017a4	0.11723259
89	0xbd12a240	-0.035799265
90	0x3d5e543d	0.054279555
91	0xbcc48228	-0.023987845
92	0x3d06978d	0.032859374
93	0x3de12201	0.10992814
94	0xbde4d7a1	-0.111739404
95	0x3d77e252	0.06051857
96	0x3cbf6b79	0.023366677
97	0x3e7403d4	0.23829585
98	0x3ddce70b	0.107862554
99	0xbe306f6b	-0.17230003
100	0xbb0d79d8	-0.0021587517
101	0x3de89d6c	0.11358151
102	0x3cf18064	0.029480167
103	0x3ce0e8a8	0.02745469
104	0xbd1d258f	-0.038365897
105	0xbd669a45	-0.056299467
106	0xbda39798	-0.079878986
107	0xbdfeeaae	-0.12447105
108	0xbc58bcbf	-0.013228594
109	0xbd0a8cc9	-0.03382567
110	0x3dfbf5ed	0.12302766
111	0xbdfd3a2b	-0.1236461
112	0xbe3afcbc	-0.18260473
113	0x3b138533	0.0022509813
114	0xbe29d03f	-0.16583346
115	0x3e113815	0.1418155
116	0x3d9a700a	0.07540901
117	0xbde7032b	-0.11279901
118	0x3e312d1d	0.17302366
119	0xbe69888b	-0.22805993
120	0xb93bbea6	-0.00017904732
121	0x3d8f8e35	0.07009546
122	0xbe41d25d	-0.18927903
123	0x3d911f4e	0.07086049
124	0x3dfcb932	0.12340011
125	0x3d60e563	0.05490626
126	0x3d10e28a	0.035372294
127	0xbce31078	-0.027717814
128	0x3d1291d0	0.03578359
129	0x3db1e4b4	0.086862
130	0x3e4e7649	0.2016231
131	0xbe0a77ff	-0.13522337
132	0x3d0b3727	0.033988144
133	0x3daa9e74	0.08331004
134	0x3e4d0c95	0.20024331
135	0xbb4375ff	-0.002982497
136	0x3d771228	0.06032005
137	0x3d178b3a	0.03699801
138	0xbd7db548	-0.06194046
139	0xbc3da2cd	-0.011574459
140	0x3dba2e6d	0.09090886
141	0x3cfd9201	0.03095341
142	0x3e0ac917	0.13553272
143	0xbe212dbb	-0.15740101
144	0xbca2b012	-0.019859347
145	0x3dffbd4c	0.124872774
146	0xbe0260c9	-0.12732233
147	0xbe013f07	-0.126217
148	0xbc0b4717	-0.008500836
149	0xbdcbc019	-0.09948749
150	0xbc8bf7d8	-0.017085955
151	0x3de43dcf	0.111446016
152	0x3c5304e1	0.012879581
153	0x3d834155	0.064089455
154	0x3e1a5f44	0.15075403
155	0xbbb0ee3f	-0.005399495
156	0xbdad285c	-0.084549636
157	0x3caf1450	0.02137199
158	0x3e3d3be6	0.1847988
159	0xbd74f39b	-0.059802633
160	0x3e63a3e6	0.22230491
161	0xbdd879f8	-0.10570139
162	0x3d856db0	0.06515062
163	0x3dbd3f50	0.092405915
164	0xbcd37c8c	-0.025816225
165	0xbd3404c4	-0.043949857
166	0x3df44aaa	0.119283035
167	0xbde4e5ed	-0.11176667
168	0xbc869d9d	-0.016432578
169	0xbe09fa56	-0.13474402
170	0x3dc739d8	0.0972783
171	0xbb405ce5	-0.0029352244
172	0x3d1d5f75	0.038421113
173	0xbddaba7a	-0.10680099
174	0xbdf1ebd3	-0.11812558
175	0x3e19191e	0.14950988
176	0x3dc35ceb	0.09539207
177	0xbd83773b	-0.06419226
178	0x3d9daab7	0.07698577
179	0x3e0379f3	0.12839489
180	0x3e2a223c	0.16614622
181	0x3dc2ea19	0.09517307
182	0xbd2e77ab	-0.042594593
183	0x3e044874	0.12918264
184	0x3d1ac302	0.03778363
185	0x3ddeae5a	0.10873099
186	0x3d7beec1	0.06150699
187	0x3d8e2946	0.06941466
188	0x3dd35766	0.10319404
189	0xbd9da31c	-0.07697126
190	0x3e0b3d99	0.13597716
191	0xbe2013a0	-0.15632486
192	0x3e59e7a2	0.21279767
193	0x3bbe9d10	0.005817063
194	0xbdc26474	-0.09491816
195	0x3e0235f2	0.12715891
196	0xbdc41b78	-0.09575552
197	0x3dbfd6e6	0.093671605
198	0xbb7cb6c0	-0.0038561076
199	0xbe065b9c	-0.13120884
200	0x3e1b819a	0.15186158
201	0x3dced837	0.100998335
202	0xbcfa5157	-0.030556364
203	0xbda1dba5	-0.07903222
204	0xbdcad03a	-0.09902997
205	0x3d82b2c0	0.0638175
206	0xbd17547d	-0.03694581
207	0xbe3752a2	-0.17902616
208	0xbd9c5c76	-0.07634823
209	0x3b5873c4	0.0033027986
210	0x3dec8642	0.11549045
211	0x3e1c0389	0.15235724
212	0xbd1c34d7	-0.03813633
213	0xbdad6fb2	-0.0846857
214	0x3d9db377	0.07700246
215	0xbb4399c3	-0.0029846288
216	0x3e002bce	0.1251671
217	0xbd0ba196	-0.034089647
218	0x3e06ce71	0.13164689
219	0xbddac776	-0.106825754
220	0x3d82eb10	0.06392491
221	0xbe5c5b5f	-0.2151923
222	0x3cc7fb22	0.024411742
223	0x3d9e377d	0.07725427
224	0xbda8bd11	-0.082391866
225	0xbe49c004	-0.19702154
226	0x3d9deb69	0.077109165
227	0x3d9d50e8	0.07681447
228	0xbe18bcf7	-0.14915834
229	0x3d392dbc	0.04520963
230	0x3d26918d	0.04066615
231	0x3e53b787	0.20675479
232	0xbd54832d	-0.05188291
233	0x3e2f8e0f	0.17144035
234	0x3ca391e3	0.019967025
235	0xbdd4bd52	-0.103876725
236	0xbdcc7038	-0.099823415
237	0xbdbe3d01	-0.09288979
238	0x3dc03095	0.09384266
239	0x3e3b6bfd	0.18302913
240	0x3d3292f7	0.043597188
241	0x3d684215	0.056703646
242	0x3b949fd5	0.004535655
243	0x3dc3a07e	0.09552096
244	0x3ce04277	0.027375443
245	0xbda307d5	-0.07960478
246	0x3da21fea	0.079162434
247	0x3df3307e	0.118744835
248	0xbe05c487	-0.1306325
249	0x3cb0e65c	0.021594219
250	0x3d79868c	0.06091933
251	0xbd9e3e5e	-0.07726739
252	0x3e504f99	0.20342864
253	0xbe5ab276	-0.2135714
254	0xbe4ba583	-0.19887356
255	0x3e0fc1da	0.14038792

encoder.bias_ih_l1 f4 [60]
0	0xbd7b733a	-0.061389185
1	0x3e1de1c5	0.15418155
2	0xbb6ac0bf	-0.0035820452
3	0xbd74c599	-0.059758756
4	0x3dc9d84d	0.09855709
5	0xbd6c1ef9	-0.057646725
6	0x3d975cb3	0.07390728
7	0x3bf2a23f	0.007404595
8	0x3e265209	0.16242231
9	0xbe12835b	-0.1430792
10	0xbd9f2cf6	-0.077722475
11	0xbdd15bb5	-0.1022257
12	0xbca95a9a	-0.020673085
13	0xbdf73a38	-0.12071651
14	0x3ce5b28c	0.02803924
15	0xbda8104a	-0.08206232
16	0xbe116b3f	-0.14201067
17	0x3de6e5cc	0.11274299
18	0xbda5a92a	-0.08088906
19	0xbd847002	-0.06466676
20	0xbda59498	-0.08084983
21	0x3dc272d3	0.09494557
22	0x3dfcca47	0.12343269
23	0xbd4f1a9f	-0.050562497
24	0x3c6f952a	0.014622966
25	0xbcd1b9fe	-0.025601383
26	0x3cae9390	0.021310598
27	0xbe176831	-0.1478584
28	0x3e2a1270	0.16608596
29	0x3d205e0c	0.03915219
30	0x3e1af1f4	0.1513136
31	0x3d4327e6	0.047645472
32	0x3d0b41e3	0.03399838
33	0x3d4ee416	0.05051049
34	0x3cd9febb	0.026610723
35	0xbb866bec	-0.0041022208
36	0xbcc92e1c	-0.02455812
37	0xbcddca54	-0.027074017
38	0x3e140e89	0.1445867
39	0xbdece3d3	-0.115668915
40	0x3d1e4724	0.038642064
41	0xbd837f6c	-0.06420788
42	0xbd0b1437	-0.033954825
43	0xbd04be3a	-0.032407977
44	0xbca662b0	-0.02031073
45	0xbdb1b88c	-0.08677778
46	0xbde2200c	-0.11041269
47	0xbdfa4fca	-0.1222225
48	0xbc892a51	-0.01674381
49	0xbdd347e0	-0.103164434
50	0x3d25fb54	0.04052289
51	0x3dc6cd74	0.09707156
52	0xbd01b8f5	-0.03167053
53	0xbd9eb0e6	-0.077485844
54	0xbc5de3fa	-0.013543123
55	0x3d587299	0.052843664
56	0x3e094557	0.13405357
57	0xbd61721a	-0.055040456
58	0x3d59cd79	0.05317447
59	0xbc3fefad	-0.011714858

encoder.bias_hh_l1 f4 [60]
0	0x3d96ea4f	0.073689096
1	0x3dc4cdce	0.09609567
2	0x3e1431e7	0.14472161
3	0x3dbfdf3f	0.09368753
4	0x3ca26420	0.019823134
5	0x3d17bbf8	0.037044495
6	0x3b49f505	0.003081621
7	0x3e066ea4	0.13128144
8	0x3dd2110c	0.10257158
9	0xbdbdbd9e	-0.09264682
10	0x3c668801	0.014070512
11	0xbdb33483	-0.0875025
12	0x3c01e513	0.007928151
13	0xbd5cddab	-0.053922337
14	0xbd8183d7	-0.063239746
15	0xbe11f3e0	-0.14253187
16	0xbd920877	-0.07130521
17	0xbd9e9f77	-0.07745259
18	0x3d99d893	0.075120114
19	0x3d48fcf5	0.049069364
20	0xbd14a6a8	-0.03629175
21	0x3d44595c	0.047936782
22	0xbd82b9dd	-0.06383107
23	0x3dc40d20	0.09572816
24	0x3dcbb562	0.099467054
25	0x3e183586	0.14864168
26	0xbdb92312	-0.09039892
27	0xbd923812	-0.07139601
28	0x3d94725c	0.07248375
29	0xbde546e8	-0.11195165
30	0x3dc5dfa6	0.09661798
31	0xbdeff1e4	-0.11716059
32	0x3d4f775e	0.050650947
33	0x3e028d83	0.12749295
34	0x3dc774c3	0.097390674
35	0x3d62ea34	0.055399135
36	0xbda7818a	-0.081790045
37	0x3d144edb	0.036208015
38	0x3d07dd28	0.033169895
39	0xbba043e0	-0.004890904
40	0xbd5e97d6	-0.05434402
41	0xbd0472e1	-0.03233612
42	0xbd3da4e0	-0.046299815
43	0x3d4fc12f	0.050721344
44	0xbd196bce	-0.037456326
45	0xbe2ba536	-0.16762242
46	0xbd88c046	-0.06677298
47	0x3d70f88d	0.058830786
48	0x3dbfd725	0.093672074
49	0xbdc3dd68	-0.09563714
50	0x3d29df66	0.041472815
51	0x3d2fa8dc	0.042885646
52	0x3d021eaa	0.031767525
53	0x3b19b798	0.0023455378
54	0x3c594f30	0.013263509
55	0x3dd10b6b	0.10207256
56	0xbd634095	-0.055481512
57	0xbe19a1c3	-0.15003113
58	0x3d3fc7f7	0.04682156
59	0x3d747aab	0.059687298

classify.weight f4 [7, 60]
0	0x3e1b054c	0.1513874
1	0xbe36a7dc	-0.17837471
2	0x3e5f9c03	0.21836857
3	0x3e219990	0.15781236
4	0x3e7664f7	0.24061953
5	0xbe247fb9	-0.16064347
6	0x3e5b35b2	0.21407202
7	0x3d5a16e7	0.053244498
8	0xbe83d12d	-0.25745526
9	0xbe74d4f2	-0.23909357
10	0xbe1e473c	-0.15456861
11	0xbe41d22f	-0.18927835
12	0x3daae2ec	0.08344063
13	0x3c564379	0.01307761
14	0x3e8084aa	0.25101215
15	0xbaf95a12	-0.0019024035
16	0xbe099dd0	-0.13439107
17	0x3e5e0160	0.21680212
18	0xbe8bf436	-0.27334756
19	0x3e7a4d0c	0.24443454
20	0xbdb90231	-0.09033621
21	0x3e218f1e	0.15777251
22	0xbe94aa5e	-0.2903623
23	0x3e665f73	0.22497348
24	0x3e5f1411	0.21784998
25	0x3e605c29	0.21910156
26	0x3e6535e1	0.22383834
27	0x3e02048c	0.12697047
28	0x3e54169b	0.20711748
29	0x3de16454	0.11005464
30	0x3dc53856	0.09629886
31	0x3e8f1eca	0.27953178
32	0x3e01ec49	0.12687792
33	0xbe6180a5	-0.2202173
34	0xbdf45317	-0.11929911
35	0x3cbf02d8	0.023316786
36	0xbdf84de4	-0.121242315
37	0x3e75adae	0.23992035
38	0x3de01caf	0.10942971
39	0x3e26e1e5	0.1629711
40	0x3e866fa8	0.26257062
41	0xbe733aa0	-0.23752832
42	0xbdb43950	-0.08799994
43	0x3e30877d	0.17239185
44	0x3e09913a	0.13434306
45	0xbd1257d5	-0.035728294
46	0x3e9aa3f1	0.30203202
47	0xbe82f094	-0.25574172
48	0x3e856e8a	0.26060897
49	0xbe630ac0	-0.2217207
50	0xbe98e542	-0.2986241
51	0x3e0a57f8	0.1351012
52	0x3e3e0a2d	0.18558569
53	0xbe91f6c9	-0.28508595
54	0xbe8177ca	-0.25286704
55	0x3e1ae631	0.15126874
56	0x3e04eea9	0.12981667
57	0xbe1333af	-0.14375184
58	0x3e71d5f3	0.23616771
59	0xbe5dbe10	-0.21654534
60	0xbd4accda	-0.049511768
61	0x3e137918	0.14401662
62	0xbea5b69b	-0.3236588
63	0xbe7b6ea5	-0.24553926
64	0xbe3c84ba	-0.18410006
65	0xbe328f43	-0.17437463
66	0x3d297c9d	0.041378606
67	0x3e4e9f86	0.20178041
68	0x3e314d90	0.17314744
69	0x3e46abfa	0.19401541
70	0x3d2577f7	0.04039761
71	0xbe163ef5	-0.14672454
72	0x3e1d0f7e	0.15337941
73	0xbe15da25	-0.14633997
74	0x3ced4644	0.02896417
75	0x3e982132	0.29712826
76	0xbd3fb6b2	-0.04680509
77	0xbe2db6f9	-0.1696433
78	0xbde90956	-0.11378734
79	0xbe546663	-0.20742182
80	0x3e9861a9	0.2976201
81	0x3e2b6aac	0.16739911
82	0x3e7b9f9d	0.24572606
83	0xbe9e057d	-0.30863562
84	0x3e6b83cc	0.22999495
85	0x3da1ee39	0.079067655
86	0xbe267b90	-0.16258073
87	0xbe7bb0e2	-0.24579194
88	0x3e348e76	0.1763247
89	0xbe19c39c	-0.15016025
90	0xbe85afb5	-0.26110616
91	0x3e0771ba	0.13226977
92	0x3e3a1934	0.18173677
93	0xbe512c0d	-0.2042696
94	0x3e06673c	0.13125318
95	0xbdbe3c89	-0.0928889
96	0xbe5d817c	-0.21631426
97	0xbe81eaef	-0.25374553
98	0x3e55d474	0.20881826
99	0x3e06aed5	0.1315263
100	0x3e258634	0.16164476
101	0xbe5cb518	-0.21553457
102	0x3e76de4a	0.24108234
103	0x3e746349	0.23866
104	0x3e688218	0.22705877
105	0xbe3beaa5	-0.18351229
106	0x3e8b71a8	0.2723515
107	0x3e748580	0.23879051
108	0xbe375921	-0.17905094
109	0x3e1ad168	0.15118945
110	0x3dda4a04	0.106586486
111	0x3e41494b	0.18875615
112	0x3e4dad4b	0.20085637
113	0x3e1f8756	0.1557897
114	0x3e5c889f	0.21536492
115	0xbda901e9	-0.082523175
116	0xbe8acbe7	-0.2710869
117	0xbe1356cc	-0.14388579
118	0xbe13f395	-0.14448388
119	0x3e4009af	0.18753694
120	0xbe58cf46	-0.21172819
121	0x3e3e993e	0.18613145
122	0x3e612812	0.21987942
123	0xbe75028a	-0.2392675
124	0xbde6eae5	-0.11275271
125	0x3e0c93bb	0.1372823
126	0x3deb93a5	0.1150277
127	0xbe116587	-0.14198886
128	0x3de7a8aa	0.11311467
129	0x3e5a76a4	0.2133432
130	0xbe7c104e	-0.24615595
131	0xbe2b7c9f	-0.16746758
132	0xbdac4e70	-0.08413398
133	0xbe17c414	-0.14820892
134	0x3e0999bb	0.1343755
135	0xbd976ab9	-0.073934026
136	0xbd9ec347	-0.0775209
137	0xbe357397	-0.17719875
138	0xbe255dfd	-0.16149135
139	0x3e47234f	0.19447063
140	0xbd6c532f	-0.057696518
141	0xbe7c60c7	-0.24646293
142	0xbe5b7439	-0.21431054
143	0x3d64ffa6	0.055907868
144	0x3d698105	0.05700781
145	0xbe75c233	-0.23999862
146	0x3e86c3d1	0.2632127
147	0xbe3cc962	-0.18436196
148	0x3e36b83f	0.17843722
149	0xbdcd7433	-0.10031929
150	0x3e046a9d	0.12931295
151	0xbd2bbea1	-0.041929845
152	0x3b76ba3e	0.003764763
153	0x3e462c9e	0.19352958
154	0xbe724716	-0.2365993
155	0x3e5ba201	0.21448518
156	0xbd2a946c	-0.041645452
157	0x3e74b7de	0.23898265
158	0xbe22d1ed	-0.15900393
159	0xbe7b6c39	-0.24553002
160	0xbe6ea83c	-0.23306364
161	0x3de33a76	0.11095135
162	0x3e82eb05	0.2556993
163	0xbe7790cc	-0.2417633
164	0x3e5ef862	0.21774438
165	0x3d57e369	0.05270711
166	0xbe826b94	-0.254727
167	0x3e174495	0.14772256
168	0x3e4a290f	0.19742225
169	0x3e25f94d	0.16208382
170	0x3e81fec7	0.25389692
171	0xbe8ed5d0	-0.278975
172	0xbe6123f7	-0.21986376
173	0x3e55ebbe	0.2089071
174	0x3e6329b7	0.22183882
175	0xbe3340ec	-0.17505234
176	0xbe719ccf	-0.23594974
177	0xbde7b4b4	-0.11313763
178	0x3e67939c	0.22614902
179	0xbe846fd5	-0.2586657
180	0x3e5d1fce	0.21594164
181	0xbe398692	-0.18117741
182	0xbe86f36c	-0.2635759
183	0xbe500bcf	-0.20317005
184	0x3de2e6b9	0.11079163
185	0xbe82719b	-0.254773
186	0xbe7e8c9c	-0.24858326
187	0x3d99ab84	0.07503417
188	0x3e11ad7a	0.14226332
189	0x3e2d0d96	0.16899714
190	0x3e7d8b66	0.24760208
191	0x3e57385b	0.21017592
192	0xbe4c3752	-0.19942978
193	0x3e807d99	0.25095823
194	0x3e72f066	0.23724517
195	0xbe844421	-0.25833228
196	0x3ea89eee	0.32933754
197	0x3e7beb17	0.24601398
198	0x3e405c7e	0.18785283
199	0x3e4ef630	0.202111
200	0xbde07f1f	-0.109617464
201	0x3e05db75	0.13071997
202	0x3db92417	0.09040087
203	0xbe9e0b7d	-0.3086814
204	0xbe7b18a8	-0.24521124
205	0xbe1020d4	-0.14075023
206	0x3e67835a	0.226087
207	0xbe9987b0	-0.29986334
208	0x3e70ea1c	0.23526806
209	0x3e28f1fa	0.16498557
210	0xbe90c6ed	-0.28276768
211	0xbe59e41e	-0.21278426
212	0xbc88e31b	-0.016709855
213	0x3e32d79f	0.17465065
214	0x3e408059	0.18798961
215	0xbe77a53f	-0.2418413
216	0xbd83dd74	-0.06438723
217	0x3e024512	0.1272166
218	0x3e5761bf	0.21033381
219	0xbe3bb97c	-0.18332475
220	0xbdb2acfa	-0.08724399
221	0x3e121ba6	0.1426836
222	0x3e2b9bd4	0.16758662
223	0x3dcf1bfe	0.10112761
224	0xbe75342f	-0.23945688
225	0xbe51615b	-0.20447294
226	0xbdb845a6	-0.089976594
227	0xbc5d9106	-0.013523346
228	0x3e0513d9	0.12995853
229	0xbe533628	-0.20626128
230	0x3e7a16a8	0.24422705
231	0xbe603303	-0.2189446
232	0x3e85a71a	0.2610405
233	0xbe1bd5a5	-0.15218218
234	0xbdc86e4f	-0.09786665
235	0x3e7e52bb	0.24836247
236	0x3d9540b1	0.072877295
237	0x3e52c29f	0.20582055
238	0xbe5bb833	-0.21456985
239	0xbe4e6027	-0.20153867
240	0xbe00ee69	-0.12590946
241	0xbe95a8c0	-0.2923031
242	0x3d400456	0.046879135
243	0xbe6d337f	-0.23164175
244	0xbe5bd925	-0.21469553
245	0x3e20db9f	0.15708779
246	0xbe8149fc	-0.25251758
247	0xbe933f1c	-0.28759086
248	0xbe75440d	-0.2395174
249	0xbe34b0af	-0.17645524
250	0xbe887a82	-0.26655966
251	0x3da5ee62	0.081021085
252	0xbe1fd71f	-0.15609406
253	0xbde7c207	-0.11316305
254	0xbe58458f	-0.21120284
255	0xbe7b661b	-0.24550669

classify.bias f4 [7]
0	0x3d309444	0.043110147
1	0xbda1f2ff	-0.07907676
2	0x3dc89dfb	0.097957574
3	0xbe06e906	-0.13174829
4	0xbd035ef8	-0.03207299
5	0x3cd7d54e	0.026346829
6	0x3e1ad6c2	0.15120986
